…
I0321 14:23:04.412183 13007 net.cpp:49] Initializing net from parameters: 
name: "GNet"
state {
  phase: TRAIN
}
layer {
  name: "data"
  type: "ImageData"
  top: "data"
  include {
    phase: TRAIN
  }
  transform_param {
    mirror: true
    crop_size: 224
    mean_value: 104
    mean_value: 117
    mean_value: 123
  }
  image_data_param {
    source: "/media/hdd3/gnet/data/train.txt"
    batch_size: 45
  }
}
layer {
  name: "label"
  type: "Data"
  top: "label"
  include {
    phase: TRAIN
  }
  data_param {
    source: "/media/hdd3/gnet/data/train"
    batch_size: 45
    backend: LMDB
  }
}
layer {
  name: "conv1/7x7_s2"
  type: "Convolution"
  bottom: "data"
  top: "conv1/7x7_s2"
  param {
    lr_mult: 1
    decay_mult: 1
  }
  param {
    lr_mult: 2
    decay_mult: 0
  }
  convolution_param {
    num_output: 64
    pad: 3
    kernel_size: 7
    stride: 2
    weight_filler {
      type: "xavier"
    }
    bias_filler {
      type: "constant"
      value: 0.2
    }
  }
}
layer {
  name: "conv1/relu_7x7"
  type: "ReLU"
  bottom: "conv1/7x7_s2"
  top: "conv1/7x7_s2"
}
layer {
  name: "pool1/3x3_s2"
  type: "Pooling"
  bottom: "conv1/7x7_s2"
  top: "pool1/3x3_s2"
  pooling_param {
    pool: MAX
    kernel_size: 3
    stride: 2
  }
}
layer {
  name: "pool1/norm1"
  type: "LRN"
  bottom: "pool1/3x3_s2"
  top: "pool1/norm1"
  lrn_param {
    local_size: 5
    alpha: 0.0001
    beta: 0.75
  }
}
layer {
  name: "conv2/3x3_reduce"
  type: "Convolution"
  bottom: "pool1/norm1"
  top: "conv2/3x3_reduce"
  param {
    lr_mult: 1
    decay_mult: 1
  }
  param {
    lr_mult: 2
    decay_mult: 0
  }
  convolution_param {
    num_output: 64
    kernel_size: 1
    weight_filler {
      type: "xavier"
    }
    bias_filler {
      type: "constant"
      value: 0.2
    }
  }
}
layer {
  name: "conv2/relu_3x3_reduce"
  type: "ReLU"
  bottom: "conv2/3x3_reduce"
  top: "conv2/3x3_reduce"
}
layer {
  name: "conv2/3x3"
  type: "Convolution"
  bottom: "conv2/3x3_reduce"
  top: "conv2/3x3"
  param {
    lr_mult: 1
    decay_mult: 1
  }
  param {
    lr_mult: 2
    decay_mult: 0
  }
  convolution_param {
    num_output: 192
    pad: 1
    kernel_size: 3
    weight_filler {
      type: "xavier"
    }
    bias_filler {
      type: "constant"
      value: 0.2
    }
  }
}
layer {
  name: "conv2/relu_3x3"
  type: "ReLU"
  bottom: "conv2/3x3"
  top: "conv2/3x3"
}
layer {
  name: "conv2/norm2"
  type: "LRN"
  bottom: "conv2/3x3"
  top: "conv2/norm2"
  lrn_param {
    local_size: 5
    alpha: 0.0001
    beta: 0.75
  }
}
layer {
  name: "pool2/3x3_s2"
  type: "Pooling"
  bottom: "conv2/norm2"
  top: "pool2/3x3_s2"
  pooling_param {
    pool: MAX
    kernel_size: 3
    stride: 2
  }
}
layer {
  name: "inception_3a/1x1"
  type: "Convolution"
  bottom: "pool2/3x3_s2"
  top: "inception_3a/1x1"
  param {
    lr_mult: 1
    decay_mult: 1
  }
  param {
    lr_mult: 2
    decay_mult: 0
  }
  convolution_param {
    num_output: 64
    kernel_size: 1
    weight_filler {
      type: "xavier"
    }
    bias_filler {
      type: "constant"
      value: 0.2
    }
  }
}
layer {
  name: "inception_3a/relu_1x1"
  type: "ReLU"
  bottom: "inception_3a/1x1"
  top: "inception_3a/1x1"
}
layer {
  name: "inception_3a/3x3_reduce"
  type: "Convolution"
  bottom: "pool2/3x3_s2"
  top: "inception_3a/3x3_reduce"
  param {
    lr_mult: 1
    decay_mult: 1
  }
  param {
    lr_mult: 2
    decay_mult: 0
  }
  convolution_param {
    num_output: 96
    kernel_size: 1
    weight_filler {
      type: "xavier"
    }
    bias_filler {
      type: "constant"
      value: 0.2
    }
  }
}
layer {
  name: "inception_3a/relu_3x3_reduce"
  type: "ReLU"
  bottom: "inception_3a/3x3_reduce"
  top: "inception_3a/3x3_reduce"
}
layer {
  name: "inception_3a/3x3"
  type: "Convolution"
  bottom: "inception_3a/3x3_reduce"
  top: "inception_3a/3x3"
  param {
    lr_mult: 1
    decay_mult: 1
  }
  param {
    lr_mult: 2
    decay_mult: 0
  }
  convolution_param {
    num_output: 128
    pad: 1
    kernel_size: 3
    weight_filler {
      type: "xavier"
    }
    bias_filler {
      type: "constant"
      value: 0.2
    }
  }
}
layer {
  name: "inception_3a/relu_3x3"
  type: "ReLU"
  bottom: "inception_3a/3x3"
  top: "inception_3a/3x3"
}
layer {
  name: "inception_3a/5x5_reduce"
  type: "Convolution"
  bottom: "pool2/3x3_s2"
  top: "inception_3a/5x5_reduce"
  param {
    lr_mult: 1
    decay_mult: 1
  }
  param {
    lr_mult: 2
    decay_mult: 0
  }
  convolution_param {
    num_output: 16
    kernel_size: 1
    weight_filler {
      type: "xavier"
    }
    bias_filler {
      type: "constant"
      value: 0.2
    }
  }
}
layer {
  name: "inception_3a/relu_5x5_reduce"
  type: "ReLU"
  bottom: "inception_3a/5x5_reduce"
  top: "inception_3a/5x5_reduce"
}
layer {
  name: "inception_3a/5x5"
  type: "Convolution"
  bottom: "inception_3a/5x5_reduce"
  top: "inception_3a/5x5"
  param {
    lr_mult: 1
    decay_mult: 1
  }
  param {
    lr_mult: 2
    decay_mult: 0
  }
  convolution_param {
    num_output: 32
    pad: 2
    kernel_size: 5
    weight_filler {
      type: "xavier"
    }
    bias_filler {
      type: "constant"
      value: 0.2
    }
  }
}
layer {
  name: "inception_3a/relu_5x5"
  type: "ReLU"
  bottom: "inception_3a/5x5"
  top: "inception_3a/5x5"
}
layer {
  name: "inception_3a/pool"
  type: "Pooling"
  bottom: "pool2/3x3_s2"
  top: "inception_3a/pool"
  pooling_param {
    pool: MAX
    kernel_size: 3
    stride: 1
    pad: 1
  }
}
layer {
  name: "inception_3a/pool_proj"
  type: "Convolution"
  bottom: "inception_3a/pool"
  top: "inception_3a/pool_proj"
  param {
    lr_mult: 1
    decay_mult: 1
  }
  param {
    lr_mult: 2
    decay_mult: 0
  }
  convolution_param {
    num_output: 32
    kernel_size: 1
    weight_filler {
      type: "xavier"
    }
    bias_filler {
      type: "constant"
      value: 0.2
    }
  }
}
layer {
  name: "inception_3a/relu_pool_proj"
  type: "ReLU"
  bottom: "inception_3a/pool_proj"
  top: "inception_3a/pool_proj"
}
layer {
  name: "inception_3a/output"
  type: "Concat"
  bottom: "inception_3a/1x1"
  bottom: "inception_3a/3x3"
  bottom: "inception_3a/5x5"
  bottom: "inception_3a/pool_proj"
  top: "inception_3a/output"
}
layer {
  name: "inception_3b/1x1"
  type: "Convolution"
  bottom: "inception_3a/output"
  top: "inception_3b/1x1"
  param {
    lr_mult: 1
    decay_mult: 1
  }
  param {
    lr_mult: 2
    decay_mult: 0
  }
  convolution_param {
    num_output: 128
    kernel_size: 1
    weight_filler {
      type: "xavier"
    }
    bias_filler {
      type: "constant"
      value: 0.2
    }
  }
}
layer {
  name: "inception_3b/relu_1x1"
  type: "ReLU"
  bottom: "inception_3b/1x1"
  top: "inception_3b/1x1"
}
layer {
  name: "inception_3b/3x3_reduce"
  type: "Convolution"
  bottom: "inception_3a/output"
  top: "inception_3b/3x3_reduce"
  param {
    lr_mult: 1
    decay_mult: 1
  }
  param {
    lr_mult: 2
    decay_mult: 0
  }
  convolution_param {
    num_output: 128
    kernel_size: 1
    weight_filler {
      type: "xavier"
    }
    bias_filler {
      type: "constant"
      value: 0.2
    }
  }
}
layer {
  name: "inception_3b/relu_3x3_reduce"
  type: "ReLU"
  bottom: "inception_3b/3x3_reduce"
  top: "inception_3b/3x3_reduce"
}
layer {
  name: "inception_3b/3x3"
  type: "Convolution"
  bottom: "inception_3b/3x3_reduce"
  top: "inception_3b/3x3"
  param {
    lr_mult: 1
    decay_mult: 1
  }
  param {
    lr_mult: 2
    decay_mult: 0
  }
  convolution_param {
    num_output: 192
    pad: 1
    kernel_size: 3
    weight_filler {
      type: "xavier"
    }
    bias_filler {
      type: "constant"
      value: 0.2
    }
  }
}
layer {
  name: "inception_3b/relu_3x3"
  type: "ReLU"
  bottom: "inception_3b/3x3"
  top: "inception_3b/3x3"
}
layer {
  name: "inception_3b/5x5_reduce"
  type: "Convolution"
  bottom: "inception_3a/output"
  top: "inception_3b/5x5_reduce"
  param {
    lr_mult: 1
    decay_mult: 1
  }
  param {
    lr_mult: 2
    decay_mult: 0
  }
  convolution_param {
    num_output: 32
    kernel_size: 1
    weight_filler {
      type: "xavier"
    }
    bias_filler {
      type: "constant"
      value: 0.2
    }
  }
}
layer {
  name: "inception_3b/relu_5x5_reduce"
  type: "ReLU"
  bottom: "inception_3b/5x5_reduce"
  top: "inception_3b/5x5_reduce"
}
layer {
  name: "inception_3b/5x5"
  type: "Convolution"
  bottom: "inception_3b/5x5_reduce"
  top: "inception_3b/5x5"
  param {
    lr_mult: 1
    decay_mult: 1
  }
  param {
    lr_mult: 2
    decay_mult: 0
  }
  convolution_param {
    num_output: 96
    pad: 2
    kernel_size: 5
    weight_filler {
      type: "xavier"
    }
    bias_filler {
      type: "constant"
      value: 0.2
    }
  }
}
layer {
  name: "inception_3b/relu_5x5"
  type: "ReLU"
  bottom: "inception_3b/5x5"
  top: "inception_3b/5x5"
}
layer {
  name: "inception_3b/pool"
  type: "Pooling"
  bottom: "inception_3a/output"
  top: "inception_3b/pool"
  pooling_param {
    pool: MAX
    kernel_size: 3
    stride: 1
    pad: 1
  }
}
layer {
  name: "inception_3b/pool_proj"
  type: "Convolution"
  bottom: "inception_3b/pool"
  top: "inception_3b/pool_proj"
  param {
    lr_mult: 1
    decay_mult: 1
  }
  param {
    lr_mult: 2
    decay_mult: 0
  }
  convolution_param {
    num_output: 64
    kernel_size: 1
    weight_filler {
      type: "xavier"
    }
    bias_filler {
      type: "constant"
      value: 0.2
    }
  }
}
layer {
  name: "inception_3b/relu_pool_proj"
  type: "ReLU"
  bottom: "inception_3b/pool_proj"
  top: "inception_3b/pool_proj"
}
layer {
  name: "inception_3b/output"
  type: "Concat"
  bottom: "inception_3b/1x1"
  bottom: "inception_3b/3x3"
  bottom: "inception_3b/5x5"
  bottom: "inception_3b/pool_proj"
  top: "inception_3b/output"
}
layer {
  name: "pool3/3x3_s2"
  type: "Pooling"
  bottom: "inception_3b/output"
  top: "pool3/3x3_s2"
  pooling_param {
    pool: MAX
    kernel_size: 3
    stride: 2
  }
}
layer {
  name: "inception_4a/1x1"
  type: "Convolution"
  bottom: "pool3/3x3_s2"
  top: "inception_4a/1x1"
  param {
    lr_mult: 1
    decay_mult: 1
  }
  param {
    lr_mult: 2
    decay_mult: 0
  }
  convolution_param {
    num_output: 192
    kernel_size: 1
    weight_filler {
      type: "xavier"
    }
    bias_filler {
      type: "constant"
      value: 0.2
    }
  }
}
layer {
  name: "inception_4a/relu_1x1"
  type: "ReLU"
  bottom: "inception_4a/1x1"
  top: "inception_4a/1x1"
}
layer {
  name: "inception_4a/3x3_reduce"
  type: "Convolution"
  bottom: "pool3/3x3_s2"
  top: "inception_4a/3x3_reduce"
  param {
    lr_mult: 1
    decay_mult: 1
  }
  param {
    lr_mult: 2
    decay_mult: 0
  }
  convolution_param {
    num_output: 96
    kernel_size: 1
    weight_filler {
      type: "xavier"
    }
    bias_filler {
      type: "constant"
      value: 0.2
    }
  }
}
layer {
  name: "inception_4a/relu_3x3_reduce"
  type: "ReLU"
  bottom: "inception_4a/3x3_reduce"
  top: "inception_4a/3x3_reduce"
}
layer {
  name: "inception_4a/3x3"
  type: "Convolution"
  bottom: "inception_4a/3x3_reduce"
  top: "inception_4a/3x3"
  param {
    lr_mult: 1
    decay_mult: 1
  }
  param {
    lr_mult: 2
    decay_mult: 0
  }
  convolution_param {
    num_output: 208
    pad: 1
    kernel_size: 3
    weight_filler {
      type: "xavier"
    }
    bias_filler {
      type: "constant"
      value: 0.2
    }
  }
}
layer {
  name: "inception_4a/relu_3x3"
  type: "ReLU"
  bottom: "inception_4a/3x3"
  top: "inception_4a/3x3"
}
layer {
  name: "inception_4a/5x5_reduce"
  type: "Convolution"
  bottom: "pool3/3x3_s2"
  top: "inception_4a/5x5_reduce"
  param {
    lr_mult: 1
    decay_mult: 1
  }
  param {
    lr_mult: 2
    decay_mult: 0
  }
  convolution_param {
    num_output: 16
    kernel_size: 1
    weight_filler {
      type: "xavier"
    }
    bias_filler {
      type: "constant"
      value: 0.2
    }
  }
}
layer {
  name: "inception_4a/relu_5x5_reduce"
  type: "ReLU"
  bottom: "inception_4a/5x5_reduce"
  top: "inception_4a/5x5_reduce"
}
layer {
  name: "inception_4a/5x5"
  type: "Convolution"
  bottom: "inception_4a/5x5_reduce"
  top: "inception_4a/5x5"
  param {
    lr_mult: 1
    decay_mult: 1
  }
  param {
    lr_mult: 2
    decay_mult: 0
  }
  convolution_param {
    num_output: 48
    pad: 2
    kernel_size: 5
    weight_filler {
      type: "xavier"
    }
    bias_filler {
      type: "constant"
      value: 0.2
    }
  }
}
layer {
  name: "inception_4a/relu_5x5"
  type: "ReLU"
  bottom: "inception_4a/5x5"
  top: "inception_4a/5x5"
}
layer {
  name: "inception_4a/pool"
  type: "Pooling"
  bottom: "pool3/3x3_s2"
  top: "inception_4a/pool"
  pooling_param {
    pool: MAX
    kernel_size: 3
    stride: 1
    pad: 1
  }
}
layer {
  name: "inception_4a/pool_proj"
  type: "Convolution"
  bottom: "inception_4a/pool"
  top: "inception_4a/pool_proj"
  param {
    lr_mult: 1
    decay_mult: 1
  }
  param {
    lr_mult: 2
    decay_mult: 0
  }
  convolution_param {
    num_output: 64
    kernel_size: 1
    weight_filler {
      type: "xavier"
    }
    bias_filler {
      type: "constant"
      value: 0.2
    }
  }
}
layer {
  name: "inception_4a/relu_pool_proj"
  type: "ReLU"
  bottom: "inception_4a/pool_proj"
  top: "inception_4a/pool_proj"
}
layer {
  name: "inception_4a/output"
  type: "Concat"
  bottom: "inception_4a/1x1"
  bottom: "inception_4a/3x3"
  bottom: "inception_4a/5x5"
  bottom: "inception_4a/pool_proj"
  top: "inception_4a/output"
}
layer {
  name: "loss1/ave_pool"
  type: "Pooling"
  bottom: "inception_4a/output"
  top: "loss1/ave_pool"
  pooling_param {
    pool: AVE
    kernel_size: 5
    stride: 3
  }
}
layer {
  name: "loss1/conv"
  type: "Convolution"
  bottom: "loss1/ave_pool"
  top: "loss1/conv"
  param {
    lr_mult: 1
    decay_mult: 1
  }
  param {
    lr_mult: 2
    decay_mult: 0
  }
  convolution_param {
    num_output: 128
    kernel_size: 1
    weight_filler {
      type: "xavier"
    }
    bias_filler {
      type: "constant"
      value: 0.2
    }
  }
}
layer {
  name: "loss1/relu_conv"
  type: "ReLU"
  bottom: "loss1/conv"
  top: "loss1/conv"
}
layer {
  name: "loss1/fc"
  type: "InnerProduct"
  bottom: "loss1/conv"
  top: "loss1/fc"
  param {
    lr_mult: 1
    decay_mult: 1
  }
  param {
    lr_mult: 2
    decay_mult: 0
  }
  inner_product_param {
    num_output: 1024
    weight_filler {
      type: "xavier"
    }
    bias_filler {
      type: "constant"
      value: 0.2
    }
  }
}
layer {
  name: "loss1/relu_fc"
  type: "ReLU"
  bottom: "loss1/fc"
  top: "loss1/fc"
}
layer {
  name: "loss1/drop_fc"
  type: "Dropout"
  bottom: "loss1/fc"
  top: "loss1/fc"
  dropout_param {
    dropout_ratio: 0.7
  }
}
layer {
  name: "loss1/classifier_gnet"
  type: "InnerProduct"
  bottom: "loss1/fc"
  top: "loss1/classifier_gnet"
  param {
    lr_mult: 4
    decay_mult: 1
  }
  param {
    lr_mult: 8
    decay_mult: 0
  }
  inner_product_param {
    num_output: 2048
    weight_filler {
      type: "xavier"
    }
    bias_filler {
      type: "constant"
      value: 0
    }
  }
}
layer {
  name: "loss1/feat"
  type: "InnerProduct"
  bottom: "loss1/classifier_gnet"
  top: "loss1/feat"
  param {
    lr_mult: 5
    decay_mult: 1
  }
  param {
    lr_mult: 10
    decay_mult: 0
  }
  inner_product_param {
    num_output: 6
    weight_filler {
      type: "xavier"
    }
    bias_filler {
      type: "constant"
      value: 0
    }
  }
}
layer {
  name: "loss1/loss"
  type: "EuclideanLoss"
  bottom: "loss1/feat"
  bottom: "label"
  top: "loss1/loss1"
  loss_weight: 0.3
}
layer {
  name: "inception_4b/1x1"
  type: "Convolution"
  bottom: "inception_4a/output"
  top: "inception_4b/1x1"
  param {
    lr_mult: 1
    decay_mult: 1
  }
  param {
    lr_mult: 2
    decay_mult: 0
  }
  convolution_param {
    num_output: 160
    kernel_size: 1
    weight_filler {
      type: "xavier"
    }
    bias_filler {
      type: "constant"
      value: 0.2
    }
  }
}
layer {
  name: "inception_4b/relu_1x1"
  type: "ReLU"
  bottom: "inception_4b/1x1"
  top: "inception_4b/1x1"
}
layer {
  name: "inception_4b/3x3_reduce"
  type: "Convolution"
  bottom: "inception_4a/output"
  top: "inception_4b/3x3_reduce"
  param {
    lr_mult: 1
    decay_mult: 1
  }
  param {
    lr_mult: 2
    decay_mult: 0
  }
  convolution_param {
    num_output: 112
    kernel_size: 1
    weight_filler {
      type: "xavier"
    }
    bias_filler {
      type: "constant"
      value: 0.2
    }
  }
}
layer {
  name: "inception_4b/relu_3x3_reduce"
  type: "ReLU"
  bottom: "inception_4b/3x3_reduce"
  top: "inception_4b/3x3_reduce"
}
layer {
  name: "inception_4b/3x3"
  type: "Convolution"
  bottom: "inception_4b/3x3_reduce"
  top: "inception_4b/3x3"
  param {
    lr_mult: 1
    decay_mult: 1
  }
  param {
    lr_mult: 2
    decay_mult: 0
  }
  convolution_param {
    num_output: 224
    pad: 1
    kernel_size: 3
    weight_filler {
      type: "xavier"
    }
    bias_filler {
      type: "constant"
      value: 0.2
    }
  }
}
layer {
  name: "inception_4b/relu_3x3"
  type: "ReLU"
  bottom: "inception_4b/3x3"
  top: "inception_4b/3x3"
}
layer {
  name: "inception_4b/5x5_reduce"
  type: "Convolution"
  bottom: "inception_4a/output"
  top: "inception_4b/5x5_reduce"
  param {
    lr_mult: 1
    decay_mult: 1
  }
  param {
    lr_mult: 2
    decay_mult: 0
  }
  convolution_param {
    num_output: 24
    kernel_size: 1
    weight_filler {
      type: "xavier"
    }
    bias_filler {
      type: "constant"
      value: 0.2
    }
  }
}
layer {
  name: "inception_4b/relu_5x5_reduce"
  type: "ReLU"
  bottom: "inception_4b/5x5_reduce"
  top: "inception_4b/5x5_reduce"
}
layer {
  name: "inception_4b/5x5"
  type: "Convolution"
  bottom: "inception_4b/5x5_reduce"
  top: "inception_4b/5x5"
  param {
    lr_mult: 1
    decay_mult: 1
  }
  param {
    lr_mult: 2
    decay_mult: 0
  }
  convolution_param {
    num_output: 64
    pad: 2
    kernel_size: 5
    weight_filler {
      type: "xavier"
    }
    bias_filler {
      type: "constant"
      value: 0.2
    }
  }
}
layer {
  name: "inception_4b/relu_5x5"
  type: "ReLU"
  bottom: "inception_4b/5x5"
  top: "inception_4b/5x5"
}
layer {
  name: "inception_4b/pool"
  type: "Pooling"
  bottom: "inception_4a/output"
  top: "inception_4b/pool"
  pooling_param {
    pool: MAX
    kernel_size: 3
    stride: 1
    pad: 1
  }
}
layer {
  name: "inception_4b/pool_proj"
  type: "Convolution"
  bottom: "inception_4b/pool"
  top: "inception_4b/pool_proj"
  param {
    lr_mult: 1
    decay_mult: 1
  }
  param {
    lr_mult: 2
    decay_mult: 0
  }
  convolution_param {
    num_output: 64
    kernel_size: 1
    weight_filler {
      type: "xavier"
    }
    bias_filler {
      type: "constant"
      value: 0.2
    }
  }
}
layer {
  name: "inception_4b/relu_pool_proj"
  type: "ReLU"
  bottom: "inception_4b/pool_proj"
  top: "inception_4b/pool_proj"
}
layer {
  name: "inception_4b/output"
  type: "Concat"
  bottom: "inception_4b/1x1"
  bottom: "inception_4b/3x3"
  bottom: "inception_4b/5x5"
  bottom: "inception_4b/pool_proj"
  top: "inception_4b/output"
}
layer {
  name: "inception_4c/1x1"
  type: "Convolution"
  bottom: "inception_4b/output"
  top: "inception_4c/1x1"
  param {
    lr_mult: 1
    decay_mult: 1
  }
  param {
    lr_mult: 2
    decay_mult: 0
  }
  convolution_param {
    num_output: 128
    kernel_size: 1
    weight_filler {
      type: "xavier"
    }
    bias_filler {
      type: "constant"
      value: 0.2
    }
  }
}
layer {
  name: "inception_4c/relu_1x1"
  type: "ReLU"
  bottom: "inception_4c/1x1"
  top: "inception_4c/1x1"
}
layer {
  name: "inception_4c/3x3_reduce"
  type: "Convolution"
  bottom: "inception_4b/output"
  top: "inception_4c/3x3_reduce"
  param {
    lr_mult: 1
    decay_mult: 1
  }
  param {
    lr_mult: 2
    decay_mult: 0
  }
  convolution_param {
    num_output: 128
    kernel_size: 1
    weight_filler {
      type: "xavier"
    }
    bias_filler {
      type: "constant"
      value: 0.2
    }
  }
}
layer {
  name: "inception_4c/relu_3x3_reduce"
  type: "ReLU"
  bottom: "inception_4c/3x3_reduce"
  top: "inception_4c/3x3_reduce"
}
layer {
  name: "inception_4c/3x3"
  type: "Convolution"
  bottom: "inception_4c/3x3_reduce"
  top: "inception_4c/3x3"
  param {
    lr_mult: 1
    decay_mult: 1
  }
  param {
    lr_mult: 2
    decay_mult: 0
  }
  convolution_param {
    num_output: 256
    pad: 1
    kernel_size: 3
    weight_filler {
      type: "xavier"
    }
    bias_filler {
      type: "constant"
      value: 0.2
    }
  }
}
layer {
  name: "inception_4c/relu_3x3"
  type: "ReLU"
  bottom: "inception_4c/3x3"
  top: "inception_4c/3x3"
}
layer {
  name: "inception_4c/5x5_reduce"
  type: "Convolution"
  bottom: "inception_4b/output"
  top: "inception_4c/5x5_reduce"
  param {
    lr_mult: 1
    decay_mult: 1
  }
  param {
    lr_mult: 2
    decay_mult: 0
  }
  convolution_param {
    num_output: 24
    kernel_size: 1
    weight_filler {
      type: "xavier"
    }
    bias_filler {
      type: "constant"
      value: 0.2
    }
  }
}
layer {
  name: "inception_4c/relu_5x5_reduce"
  type: "ReLU"
  bottom: "inception_4c/5x5_reduce"
  top: "inception_4c/5x5_reduce"
}
layer {
  name: "inception_4c/5x5"
  type: "Convolution"
  bottom: "inception_4c/5x5_reduce"
  top: "inception_4c/5x5"
  param {
    lr_mult: 1
    decay_mult: 1
  }
  param {
    lr_mult: 2
    decay_mult: 0
  }
  convolution_param {
    num_output: 64
    pad: 2
    kernel_size: 5
    weight_filler {
      type: "xavier"
    }
    bias_filler {
      type: "constant"
      value: 0.2
    }
  }
}
layer {
  name: "inception_4c/relu_5x5"
  type: "ReLU"
  bottom: "inception_4c/5x5"
  top: "inception_4c/5x5"
}
layer {
  name: "inception_4c/pool"
  type: "Pooling"
  bottom: "inception_4b/output"
  top: "inception_4c/pool"
  pooling_param {
    pool: MAX
    kernel_size: 3
    stride: 1
    pad: 1
  }
}
layer {
  name: "inception_4c/pool_proj"
  type: "Convolution"
  bottom: "inception_4c/pool"
  top: "inception_4c/pool_proj"
  param {
    lr_mult: 1
    decay_mult: 1
  }
  param {
    lr_mult: 2
    decay_mult: 0
  }
  convolution_param {
    num_output: 64
    kernel_size: 1
    weight_filler {
      type: "xavier"
    }
    bias_filler {
      type: "constant"
      value: 0.2
    }
  }
}
layer {
  name: "inception_4c/relu_pool_proj"
  type: "ReLU"
  bottom: "inception_4c/pool_proj"
  top: "inception_4c/pool_proj"
}
layer {
  name: "inception_4c/output"
  type: "Concat"
  bottom: "inception_4c/1x1"
  bottom: "inception_4c/3x3"
  bottom: "inception_4c/5x5"
  bottom: "inception_4c/pool_proj"
  top: "inception_4c/output"
}
layer {
  name: "inception_4d/1x1"
  type: "Convolution"
  bottom: "inception_4c/output"
  top: "inception_4d/1x1"
  param {
    lr_mult: 1
    decay_mult: 1
  }
  param {
    lr_mult: 2
    decay_mult: 0
  }
  convolution_param {
    num_output: 112
    kernel_size: 1
    weight_filler {
      type: "xavier"
    }
    bias_filler {
      type: "constant"
      value: 0.2
    }
  }
}
layer {
  name: "inception_4d/relu_1x1"
  type: "ReLU"
  bottom: "inception_4d/1x1"
  top: "inception_4d/1x1"
}
layer {
  name: "inception_4d/3x3_reduce"
  type: "Convolution"
  bottom: "inception_4c/output"
  top: "inception_4d/3x3_reduce"
  param {
    lr_mult: 1
    decay_mult: 1
  }
  param {
    lr_mult: 2
    decay_mult: 0
  }
  convolution_param {
    num_output: 144
    kernel_size: 1
    weight_filler {
      type: "xavier"
    }
    bias_filler {
      type: "constant"
      value: 0.2
    }
  }
}
layer {
  name: "inception_4d/relu_3x3_reduce"
  type: "ReLU"
  bottom: "inception_4d/3x3_reduce"
  top: "inception_4d/3x3_reduce"
}
layer {
  name: "inception_4d/3x3"
  type: "Convolution"
  bottom: "inception_4d/3x3_reduce"
  top: "inception_4d/3x3"
  param {
    lr_mult: 1
    decay_mult: 1
  }
  param {
    lr_mult: 2
    decay_mult: 0
  }
  convolution_param {
    num_output: 288
    pad: 1
    kernel_size: 3
    weight_filler {
      type: "xavier"
    }
    bias_filler {
      type: "constant"
      value: 0.2
    }
  }
}
layer {
  name: "inception_4d/relu_3x3"
  type: "ReLU"
  bottom: "inception_4d/3x3"
  top: "inception_4d/3x3"
}
layer {
  name: "inception_4d/5x5_reduce"
  type: "Convolution"
  bottom: "inception_4c/output"
  top: "inception_4d/5x5_reduce"
  param {
    lr_mult: 1
    decay_mult: 1
  }
  param {
    lr_mult: 2
    decay_mult: 0
  }
  convolution_param {
    num_output: 32
    kernel_size: 1
    weight_filler {
      type: "xavier"
    }
    bias_filler {
      type: "constant"
      value: 0.2
    }
  }
}
layer {
  name: "inception_4d/relu_5x5_reduce"
  type: "ReLU"
  bottom: "inception_4d/5x5_reduce"
  top: "inception_4d/5x5_reduce"
}
layer {
  name: "inception_4d/5x5"
  type: "Convolution"
  bottom: "inception_4d/5x5_reduce"
  top: "inception_4d/5x5"
  param {
    lr_mult: 1
    decay_mult: 1
  }
  param {
    lr_mult: 2
    decay_mult: 0
  }
  convolution_param {
    num_output: 64
    pad: 2
    kernel_size: 5
    weight_filler {
      type: "xavier"
    }
    bias_filler {
      type: "constant"
      value: 0.2
    }
  }
}
layer {
  name: "inception_4d/relu_5x5"
  type: "ReLU"
  bottom: "inception_4d/5x5"
  top: "inception_4d/5x5"
}
layer {
  name: "inception_4d/pool"
  type: "Pooling"
  bottom: "inception_4c/output"
  top: "inception_4d/pool"
  pooling_param {
    pool: MAX
    kernel_size: 3
    stride: 1
    pad: 1
  }
}
layer {
  name: "inception_4d/pool_proj"
  type: "Convolution"
  bottom: "inception_4d/pool"
  top: "inception_4d/pool_proj"
  param {
    lr_mult: 1
    decay_mult: 1
  }
  param {
    lr_mult: 2
    decay_mult: 0
  }
  convolution_param {
    num_output: 64
    kernel_size: 1
    weight_filler {
      type: "xavier"
    }
    bias_filler {
      type: "constant"
      value: 0.2
    }
  }
}
layer {
  name: "inception_4d/relu_pool_proj"
  type: "ReLU"
  bottom: "inception_4d/pool_proj"
  top: "inception_4d/pool_proj"
}
layer {
  name: "inception_4d/output"
  type: "Concat"
  bottom: "inception_4d/1x1"
  bottom: "inception_4d/3x3"
  bottom: "inception_4d/5x5"
  bottom: "inception_4d/pool_proj"
  top: "inception_4d/output"
}
layer {
  name: "loss2/ave_pool"
  type: "Pooling"
  bottom: "inception_4d/output"
  top: "loss2/ave_pool"
  pooling_param {
    pool: AVE
    kernel_size: 5
    stride: 3
  }
}
layer {
  name: "loss2/conv"
  type: "Convolution"
  bottom: "loss2/ave_pool"
  top: "loss2/conv"
  param {
    lr_mult: 1
    decay_mult: 1
  }
  param {
    lr_mult: 2
    decay_mult: 0
  }
  convolution_param {
    num_output: 128
    kernel_size: 1
    weight_filler {
      type: "xavier"
    }
    bias_filler {
      type: "constant"
      value: 0.2
    }
  }
}
layer {
  name: "loss2/relu_conv"
  type: "ReLU"
  bottom: "loss2/conv"
  top: "loss2/conv"
}
layer {
  name: "loss2/fc"
  type: "InnerProduct"
  bottom: "loss2/conv"
  top: "loss2/fc"
  param {
    lr_mult: 1
    decay_mult: 1
  }
  param {
    lr_mult: 2
    decay_mult: 0
  }
  inner_product_param {
    num_output: 1024
    weight_filler {
      type: "xavier"
    }
    bias_filler {
      type: "constant"
      value: 0.2
    }
  }
}
layer {
  name: "loss2/relu_fc"
  type: "ReLU"
  bottom: "loss2/fc"
  top: "loss2/fc"
}
layer {
  name: "loss2/drop_fc"
  type: "Dropout"
  bottom: "loss2/fc"
  top: "loss2/fc"
  dropout_param {
    dropout_ratio: 0.7
  }
}
layer {
  name: "loss2/classifier_gnet"
  type: "InnerProduct"
  bottom: "loss2/fc"
  top: "loss2/classifier_gnet"
  param {
    lr_mult: 4
    decay_mult: 1
  }
  param {
    lr_mult: 8
    decay_mult: 0
  }
  inner_product_param {
    num_output: 2048
    weight_filler {
      type: "xavier"
    }
    bias_filler {
      type: "constant"
      value: 0
    }
  }
}
layer {
  name: "loss2/feat"
  type: "InnerProduct"
  bottom: "loss2/classifier_gnet"
  top: "loss2/feat"
  param {
    lr_mult: 5
    decay_mult: 1
  }
  param {
    lr_mult: 10
    decay_mult: 0
  }
  inner_product_param {
    num_output: 6
    weight_filler {
      type: "xavier"
    }
    bias_filler {
      type: "constant"
      value: 0
    }
  }
}
layer {
  name: "loss2/loss"
  type: "EuclideanLoss"
  bottom: "loss2/feat"
  bottom: "label"
  top: "loss2/loss1"
  loss_weight: 1
}
I0321 14:23:04.417255 13007 layer_factory.hpp:77] Creating layer data
I0321 14:23:04.417315 13007 net.cpp:91] Creating Layer data
I0321 14:23:04.417330 13007 net.cpp:399] data -> data
I0321 14:23:04.417714 13007 image_data_layer.cpp:38] Opening file /media/hdd3/gnet/data/train.txt
I0321 14:23:04.468964 13007 image_data_layer.cpp:53] A total of 110288 images.
I0321 14:23:04.478253 13007 image_data_layer.cpp:80] output data size: 45,3,224,224
I0321 14:23:04.512415 13007 net.cpp:141] Setting up data
I0321 14:23:04.512460 13007 net.cpp:148] Top shape: 45 3 224 224 (6773760)
I0321 14:23:04.512470 13007 net.cpp:156] Memory required for data: 27095040
I0321 14:23:04.512482 13007 layer_factory.hpp:77] Creating layer label
I0321 14:23:04.512567 13007 net.cpp:91] Creating Layer label
I0321 14:23:04.512581 13007 net.cpp:399] label -> label
I0321 14:23:04.514976 13013 db_lmdb.cpp:38] Opened lmdb /media/hdd3/gnet/data/train
I0321 14:23:04.515161 13007 data_layer.cpp:41] output data size: 45,1,1,6
I0321 14:23:04.515750 13007 net.cpp:141] Setting up label
I0321 14:23:04.515771 13007 net.cpp:148] Top shape: 45 1 1 6 (270)
I0321 14:23:04.515780 13007 net.cpp:156] Memory required for data: 27096120
I0321 14:23:04.515789 13007 layer_factory.hpp:77] Creating layer label_label_0_split
I0321 14:23:04.515806 13007 net.cpp:91] Creating Layer label_label_0_split
I0321 14:23:04.515816 13007 net.cpp:425] label_label_0_split <- label
I0321 14:23:04.515831 13007 net.cpp:399] label_label_0_split -> label_label_0_split_0
I0321 14:23:04.515844 13007 net.cpp:399] label_label_0_split -> label_label_0_split_1
I0321 14:23:04.515898 13007 net.cpp:141] Setting up label_label_0_split
I0321 14:23:04.515913 13007 net.cpp:148] Top shape: 45 1 1 6 (270)
I0321 14:23:04.515920 13007 net.cpp:148] Top shape: 45 1 1 6 (270)
I0321 14:23:04.515928 13007 net.cpp:156] Memory required for data: 27098280
I0321 14:23:04.515934 13007 layer_factory.hpp:77] Creating layer conv1/7x7_s2
I0321 14:23:04.515952 13007 net.cpp:91] Creating Layer conv1/7x7_s2
I0321 14:23:04.515961 13007 net.cpp:425] conv1/7x7_s2 <- data
I0321 14:23:04.515972 13007 net.cpp:399] conv1/7x7_s2 -> conv1/7x7_s2
I0321 14:23:04.662006 13007 net.cpp:141] Setting up conv1/7x7_s2
I0321 14:23:04.662044 13007 net.cpp:148] Top shape: 45 64 112 112 (36126720)
I0321 14:23:04.662052 13007 net.cpp:156] Memory required for data: 171605160
I0321 14:23:04.662072 13007 layer_factory.hpp:77] Creating layer conv1/relu_7x7
I0321 14:23:04.662087 13007 net.cpp:91] Creating Layer conv1/relu_7x7
I0321 14:23:04.662096 13007 net.cpp:425] conv1/relu_7x7 <- conv1/7x7_s2
I0321 14:23:04.662106 13007 net.cpp:386] conv1/relu_7x7 -> conv1/7x7_s2 (in-place)
I0321 14:23:04.662263 13007 net.cpp:141] Setting up conv1/relu_7x7
I0321 14:23:04.662279 13007 net.cpp:148] Top shape: 45 64 112 112 (36126720)
I0321 14:23:04.662286 13007 net.cpp:156] Memory required for data: 316112040
I0321 14:23:04.662294 13007 layer_factory.hpp:77] Creating layer pool1/3x3_s2
I0321 14:23:04.662304 13007 net.cpp:91] Creating Layer pool1/3x3_s2
I0321 14:23:04.662312 13007 net.cpp:425] pool1/3x3_s2 <- conv1/7x7_s2
I0321 14:23:04.662322 13007 net.cpp:399] pool1/3x3_s2 -> pool1/3x3_s2
I0321 14:23:04.662369 13007 net.cpp:141] Setting up pool1/3x3_s2
I0321 14:23:04.662381 13007 net.cpp:148] Top shape: 45 64 56 56 (9031680)
I0321 14:23:04.662387 13007 net.cpp:156] Memory required for data: 352238760
I0321 14:23:04.662395 13007 layer_factory.hpp:77] Creating layer pool1/norm1
I0321 14:23:04.662406 13007 net.cpp:91] Creating Layer pool1/norm1
I0321 14:23:04.662415 13007 net.cpp:425] pool1/norm1 <- pool1/3x3_s2
I0321 14:23:04.662423 13007 net.cpp:399] pool1/norm1 -> pool1/norm1
I0321 14:23:04.662699 13007 net.cpp:141] Setting up pool1/norm1
I0321 14:23:04.662719 13007 net.cpp:148] Top shape: 45 64 56 56 (9031680)
I0321 14:23:04.662750 13007 net.cpp:156] Memory required for data: 388365480
I0321 14:23:04.662758 13007 layer_factory.hpp:77] Creating layer conv2/3x3_reduce
I0321 14:23:04.662777 13007 net.cpp:91] Creating Layer conv2/3x3_reduce
I0321 14:23:04.662788 13007 net.cpp:425] conv2/3x3_reduce <- pool1/norm1
I0321 14:23:04.662798 13007 net.cpp:399] conv2/3x3_reduce -> conv2/3x3_reduce
I0321 14:23:04.663981 13007 net.cpp:141] Setting up conv2/3x3_reduce
I0321 14:23:04.664002 13007 net.cpp:148] Top shape: 45 64 56 56 (9031680)
I0321 14:23:04.664011 13007 net.cpp:156] Memory required for data: 424492200
I0321 14:23:04.664024 13007 layer_factory.hpp:77] Creating layer conv2/relu_3x3_reduce
I0321 14:23:04.664036 13007 net.cpp:91] Creating Layer conv2/relu_3x3_reduce
I0321 14:23:04.664044 13007 net.cpp:425] conv2/relu_3x3_reduce <- conv2/3x3_reduce
I0321 14:23:04.664054 13007 net.cpp:386] conv2/relu_3x3_reduce -> conv2/3x3_reduce (in-place)
I0321 14:23:04.664194 13007 net.cpp:141] Setting up conv2/relu_3x3_reduce
I0321 14:23:04.664209 13007 net.cpp:148] Top shape: 45 64 56 56 (9031680)
I0321 14:23:04.664216 13007 net.cpp:156] Memory required for data: 460618920
I0321 14:23:04.664224 13007 layer_factory.hpp:77] Creating layer conv2/3x3
I0321 14:23:04.664237 13007 net.cpp:91] Creating Layer conv2/3x3
I0321 14:23:04.664245 13007 net.cpp:425] conv2/3x3 <- conv2/3x3_reduce
I0321 14:23:04.664254 13007 net.cpp:399] conv2/3x3 -> conv2/3x3
I0321 14:23:04.666054 13007 net.cpp:141] Setting up conv2/3x3
I0321 14:23:04.666076 13007 net.cpp:148] Top shape: 45 192 56 56 (27095040)
I0321 14:23:04.666085 13007 net.cpp:156] Memory required for data: 568999080
I0321 14:23:04.666100 13007 layer_factory.hpp:77] Creating layer conv2/relu_3x3
I0321 14:23:04.666110 13007 net.cpp:91] Creating Layer conv2/relu_3x3
I0321 14:23:04.666117 13007 net.cpp:425] conv2/relu_3x3 <- conv2/3x3
I0321 14:23:04.666127 13007 net.cpp:386] conv2/relu_3x3 -> conv2/3x3 (in-place)
I0321 14:23:04.666378 13007 net.cpp:141] Setting up conv2/relu_3x3
I0321 14:23:04.666396 13007 net.cpp:148] Top shape: 45 192 56 56 (27095040)
I0321 14:23:04.666404 13007 net.cpp:156] Memory required for data: 677379240
I0321 14:23:04.666411 13007 layer_factory.hpp:77] Creating layer conv2/norm2
I0321 14:23:04.666422 13007 net.cpp:91] Creating Layer conv2/norm2
I0321 14:23:04.666430 13007 net.cpp:425] conv2/norm2 <- conv2/3x3
I0321 14:23:04.666440 13007 net.cpp:399] conv2/norm2 -> conv2/norm2
I0321 14:23:04.666604 13007 net.cpp:141] Setting up conv2/norm2
I0321 14:23:04.666618 13007 net.cpp:148] Top shape: 45 192 56 56 (27095040)
I0321 14:23:04.666625 13007 net.cpp:156] Memory required for data: 785759400
I0321 14:23:04.666633 13007 layer_factory.hpp:77] Creating layer pool2/3x3_s2
I0321 14:23:04.666642 13007 net.cpp:91] Creating Layer pool2/3x3_s2
I0321 14:23:04.666651 13007 net.cpp:425] pool2/3x3_s2 <- conv2/norm2
I0321 14:23:04.666659 13007 net.cpp:399] pool2/3x3_s2 -> pool2/3x3_s2
I0321 14:23:04.666694 13007 net.cpp:141] Setting up pool2/3x3_s2
I0321 14:23:04.666704 13007 net.cpp:148] Top shape: 45 192 28 28 (6773760)
I0321 14:23:04.666712 13007 net.cpp:156] Memory required for data: 812854440
I0321 14:23:04.666718 13007 layer_factory.hpp:77] Creating layer pool2/3x3_s2_pool2/3x3_s2_0_split
I0321 14:23:04.666728 13007 net.cpp:91] Creating Layer pool2/3x3_s2_pool2/3x3_s2_0_split
I0321 14:23:04.666734 13007 net.cpp:425] pool2/3x3_s2_pool2/3x3_s2_0_split <- pool2/3x3_s2
I0321 14:23:04.666743 13007 net.cpp:399] pool2/3x3_s2_pool2/3x3_s2_0_split -> pool2/3x3_s2_pool2/3x3_s2_0_split_0
I0321 14:23:04.666752 13007 net.cpp:399] pool2/3x3_s2_pool2/3x3_s2_0_split -> pool2/3x3_s2_pool2/3x3_s2_0_split_1
I0321 14:23:04.666762 13007 net.cpp:399] pool2/3x3_s2_pool2/3x3_s2_0_split -> pool2/3x3_s2_pool2/3x3_s2_0_split_2
I0321 14:23:04.666771 13007 net.cpp:399] pool2/3x3_s2_pool2/3x3_s2_0_split -> pool2/3x3_s2_pool2/3x3_s2_0_split_3
I0321 14:23:04.666820 13007 net.cpp:141] Setting up pool2/3x3_s2_pool2/3x3_s2_0_split
I0321 14:23:04.666829 13007 net.cpp:148] Top shape: 45 192 28 28 (6773760)
I0321 14:23:04.666837 13007 net.cpp:148] Top shape: 45 192 28 28 (6773760)
I0321 14:23:04.666865 13007 net.cpp:148] Top shape: 45 192 28 28 (6773760)
I0321 14:23:04.666873 13007 net.cpp:148] Top shape: 45 192 28 28 (6773760)
I0321 14:23:04.666880 13007 net.cpp:156] Memory required for data: 921234600
I0321 14:23:04.666887 13007 layer_factory.hpp:77] Creating layer inception_3a/1x1
I0321 14:23:04.666900 13007 net.cpp:91] Creating Layer inception_3a/1x1
I0321 14:23:04.666908 13007 net.cpp:425] inception_3a/1x1 <- pool2/3x3_s2_pool2/3x3_s2_0_split_0
I0321 14:23:04.666918 13007 net.cpp:399] inception_3a/1x1 -> inception_3a/1x1
I0321 14:23:04.667825 13007 net.cpp:141] Setting up inception_3a/1x1
I0321 14:23:04.667845 13007 net.cpp:148] Top shape: 45 64 28 28 (2257920)
I0321 14:23:04.667852 13007 net.cpp:156] Memory required for data: 930266280
I0321 14:23:04.667862 13007 layer_factory.hpp:77] Creating layer inception_3a/relu_1x1
I0321 14:23:04.667872 13007 net.cpp:91] Creating Layer inception_3a/relu_1x1
I0321 14:23:04.667881 13007 net.cpp:425] inception_3a/relu_1x1 <- inception_3a/1x1
I0321 14:23:04.667891 13007 net.cpp:386] inception_3a/relu_1x1 -> inception_3a/1x1 (in-place)
I0321 14:23:04.668040 13007 net.cpp:141] Setting up inception_3a/relu_1x1
I0321 14:23:04.668053 13007 net.cpp:148] Top shape: 45 64 28 28 (2257920)
I0321 14:23:04.668061 13007 net.cpp:156] Memory required for data: 939297960
I0321 14:23:04.668067 13007 layer_factory.hpp:77] Creating layer inception_3a/3x3_reduce
I0321 14:23:04.668083 13007 net.cpp:91] Creating Layer inception_3a/3x3_reduce
I0321 14:23:04.668092 13007 net.cpp:425] inception_3a/3x3_reduce <- pool2/3x3_s2_pool2/3x3_s2_0_split_1
I0321 14:23:04.668102 13007 net.cpp:399] inception_3a/3x3_reduce -> inception_3a/3x3_reduce
I0321 14:23:04.669443 13007 net.cpp:141] Setting up inception_3a/3x3_reduce
I0321 14:23:04.669464 13007 net.cpp:148] Top shape: 45 96 28 28 (3386880)
I0321 14:23:04.669472 13007 net.cpp:156] Memory required for data: 952845480
I0321 14:23:04.669484 13007 layer_factory.hpp:77] Creating layer inception_3a/relu_3x3_reduce
I0321 14:23:04.669495 13007 net.cpp:91] Creating Layer inception_3a/relu_3x3_reduce
I0321 14:23:04.669503 13007 net.cpp:425] inception_3a/relu_3x3_reduce <- inception_3a/3x3_reduce
I0321 14:23:04.669513 13007 net.cpp:386] inception_3a/relu_3x3_reduce -> inception_3a/3x3_reduce (in-place)
I0321 14:23:04.669771 13007 net.cpp:141] Setting up inception_3a/relu_3x3_reduce
I0321 14:23:04.669788 13007 net.cpp:148] Top shape: 45 96 28 28 (3386880)
I0321 14:23:04.669796 13007 net.cpp:156] Memory required for data: 966393000
I0321 14:23:04.669803 13007 layer_factory.hpp:77] Creating layer inception_3a/3x3
I0321 14:23:04.669816 13007 net.cpp:91] Creating Layer inception_3a/3x3
I0321 14:23:04.669824 13007 net.cpp:425] inception_3a/3x3 <- inception_3a/3x3_reduce
I0321 14:23:04.669836 13007 net.cpp:399] inception_3a/3x3 -> inception_3a/3x3
I0321 14:23:04.671442 13007 net.cpp:141] Setting up inception_3a/3x3
I0321 14:23:04.671461 13007 net.cpp:148] Top shape: 45 128 28 28 (4515840)
I0321 14:23:04.671469 13007 net.cpp:156] Memory required for data: 984456360
I0321 14:23:04.671478 13007 layer_factory.hpp:77] Creating layer inception_3a/relu_3x3
I0321 14:23:04.671489 13007 net.cpp:91] Creating Layer inception_3a/relu_3x3
I0321 14:23:04.671495 13007 net.cpp:425] inception_3a/relu_3x3 <- inception_3a/3x3
I0321 14:23:04.671505 13007 net.cpp:386] inception_3a/relu_3x3 -> inception_3a/3x3 (in-place)
I0321 14:23:04.671656 13007 net.cpp:141] Setting up inception_3a/relu_3x3
I0321 14:23:04.671670 13007 net.cpp:148] Top shape: 45 128 28 28 (4515840)
I0321 14:23:04.671676 13007 net.cpp:156] Memory required for data: 1002519720
I0321 14:23:04.671684 13007 layer_factory.hpp:77] Creating layer inception_3a/5x5_reduce
I0321 14:23:04.671696 13007 net.cpp:91] Creating Layer inception_3a/5x5_reduce
I0321 14:23:04.671705 13007 net.cpp:425] inception_3a/5x5_reduce <- pool2/3x3_s2_pool2/3x3_s2_0_split_2
I0321 14:23:04.671716 13007 net.cpp:399] inception_3a/5x5_reduce -> inception_3a/5x5_reduce
I0321 14:23:04.672626 13007 net.cpp:141] Setting up inception_3a/5x5_reduce
I0321 14:23:04.672660 13007 net.cpp:148] Top shape: 45 16 28 28 (564480)
I0321 14:23:04.672669 13007 net.cpp:156] Memory required for data: 1004777640
I0321 14:23:04.672680 13007 layer_factory.hpp:77] Creating layer inception_3a/relu_5x5_reduce
I0321 14:23:04.672691 13007 net.cpp:91] Creating Layer inception_3a/relu_5x5_reduce
I0321 14:23:04.672699 13007 net.cpp:425] inception_3a/relu_5x5_reduce <- inception_3a/5x5_reduce
I0321 14:23:04.672709 13007 net.cpp:386] inception_3a/relu_5x5_reduce -> inception_3a/5x5_reduce (in-place)
I0321 14:23:04.672866 13007 net.cpp:141] Setting up inception_3a/relu_5x5_reduce
I0321 14:23:04.672880 13007 net.cpp:148] Top shape: 45 16 28 28 (564480)
I0321 14:23:04.672888 13007 net.cpp:156] Memory required for data: 1007035560
I0321 14:23:04.672894 13007 layer_factory.hpp:77] Creating layer inception_3a/5x5
I0321 14:23:04.672909 13007 net.cpp:91] Creating Layer inception_3a/5x5
I0321 14:23:04.672917 13007 net.cpp:425] inception_3a/5x5 <- inception_3a/5x5_reduce
I0321 14:23:04.672927 13007 net.cpp:399] inception_3a/5x5 -> inception_3a/5x5
I0321 14:23:04.673880 13007 net.cpp:141] Setting up inception_3a/5x5
I0321 14:23:04.673899 13007 net.cpp:148] Top shape: 45 32 28 28 (1128960)
I0321 14:23:04.673907 13007 net.cpp:156] Memory required for data: 1011551400
I0321 14:23:04.673918 13007 layer_factory.hpp:77] Creating layer inception_3a/relu_5x5
I0321 14:23:04.673928 13007 net.cpp:91] Creating Layer inception_3a/relu_5x5
I0321 14:23:04.673936 13007 net.cpp:425] inception_3a/relu_5x5 <- inception_3a/5x5
I0321 14:23:04.673945 13007 net.cpp:386] inception_3a/relu_5x5 -> inception_3a/5x5 (in-place)
I0321 14:23:04.674209 13007 net.cpp:141] Setting up inception_3a/relu_5x5
I0321 14:23:04.674227 13007 net.cpp:148] Top shape: 45 32 28 28 (1128960)
I0321 14:23:04.674234 13007 net.cpp:156] Memory required for data: 1016067240
I0321 14:23:04.674242 13007 layer_factory.hpp:77] Creating layer inception_3a/pool
I0321 14:23:04.674252 13007 net.cpp:91] Creating Layer inception_3a/pool
I0321 14:23:04.674259 13007 net.cpp:425] inception_3a/pool <- pool2/3x3_s2_pool2/3x3_s2_0_split_3
I0321 14:23:04.674269 13007 net.cpp:399] inception_3a/pool -> inception_3a/pool
I0321 14:23:04.674315 13007 net.cpp:141] Setting up inception_3a/pool
I0321 14:23:04.674326 13007 net.cpp:148] Top shape: 45 192 28 28 (6773760)
I0321 14:23:04.674332 13007 net.cpp:156] Memory required for data: 1043162280
I0321 14:23:04.674340 13007 layer_factory.hpp:77] Creating layer inception_3a/pool_proj
I0321 14:23:04.674352 13007 net.cpp:91] Creating Layer inception_3a/pool_proj
I0321 14:23:04.674360 13007 net.cpp:425] inception_3a/pool_proj <- inception_3a/pool
I0321 14:23:04.674371 13007 net.cpp:399] inception_3a/pool_proj -> inception_3a/pool_proj
I0321 14:23:04.675272 13007 net.cpp:141] Setting up inception_3a/pool_proj
I0321 14:23:04.675292 13007 net.cpp:148] Top shape: 45 32 28 28 (1128960)
I0321 14:23:04.675299 13007 net.cpp:156] Memory required for data: 1047678120
I0321 14:23:04.675313 13007 layer_factory.hpp:77] Creating layer inception_3a/relu_pool_proj
I0321 14:23:04.675326 13007 net.cpp:91] Creating Layer inception_3a/relu_pool_proj
I0321 14:23:04.675334 13007 net.cpp:425] inception_3a/relu_pool_proj <- inception_3a/pool_proj
I0321 14:23:04.675344 13007 net.cpp:386] inception_3a/relu_pool_proj -> inception_3a/pool_proj (in-place)
I0321 14:23:04.675498 13007 net.cpp:141] Setting up inception_3a/relu_pool_proj
I0321 14:23:04.675511 13007 net.cpp:148] Top shape: 45 32 28 28 (1128960)
I0321 14:23:04.675518 13007 net.cpp:156] Memory required for data: 1052193960
I0321 14:23:04.675525 13007 layer_factory.hpp:77] Creating layer inception_3a/output
I0321 14:23:04.675536 13007 net.cpp:91] Creating Layer inception_3a/output
I0321 14:23:04.675544 13007 net.cpp:425] inception_3a/output <- inception_3a/1x1
I0321 14:23:04.675552 13007 net.cpp:425] inception_3a/output <- inception_3a/3x3
I0321 14:23:04.675560 13007 net.cpp:425] inception_3a/output <- inception_3a/5x5
I0321 14:23:04.675567 13007 net.cpp:425] inception_3a/output <- inception_3a/pool_proj
I0321 14:23:04.675590 13007 net.cpp:399] inception_3a/output -> inception_3a/output
I0321 14:23:04.675622 13007 net.cpp:141] Setting up inception_3a/output
I0321 14:23:04.675633 13007 net.cpp:148] Top shape: 45 256 28 28 (9031680)
I0321 14:23:04.675640 13007 net.cpp:156] Memory required for data: 1088320680
I0321 14:23:04.675647 13007 layer_factory.hpp:77] Creating layer inception_3a/output_inception_3a/output_0_split
I0321 14:23:04.675657 13007 net.cpp:91] Creating Layer inception_3a/output_inception_3a/output_0_split
I0321 14:23:04.675665 13007 net.cpp:425] inception_3a/output_inception_3a/output_0_split <- inception_3a/output
I0321 14:23:04.675673 13007 net.cpp:399] inception_3a/output_inception_3a/output_0_split -> inception_3a/output_inception_3a/output_0_split_0
I0321 14:23:04.675683 13007 net.cpp:399] inception_3a/output_inception_3a/output_0_split -> inception_3a/output_inception_3a/output_0_split_1
I0321 14:23:04.675693 13007 net.cpp:399] inception_3a/output_inception_3a/output_0_split -> inception_3a/output_inception_3a/output_0_split_2
I0321 14:23:04.675704 13007 net.cpp:399] inception_3a/output_inception_3a/output_0_split -> inception_3a/output_inception_3a/output_0_split_3
I0321 14:23:04.675760 13007 net.cpp:141] Setting up inception_3a/output_inception_3a/output_0_split
I0321 14:23:04.675770 13007 net.cpp:148] Top shape: 45 256 28 28 (9031680)
I0321 14:23:04.675777 13007 net.cpp:148] Top shape: 45 256 28 28 (9031680)
I0321 14:23:04.675784 13007 net.cpp:148] Top shape: 45 256 28 28 (9031680)
I0321 14:23:04.675792 13007 net.cpp:148] Top shape: 45 256 28 28 (9031680)
I0321 14:23:04.675798 13007 net.cpp:156] Memory required for data: 1232827560
I0321 14:23:04.675806 13007 layer_factory.hpp:77] Creating layer inception_3b/1x1
I0321 14:23:04.675817 13007 net.cpp:91] Creating Layer inception_3b/1x1
I0321 14:23:04.675825 13007 net.cpp:425] inception_3b/1x1 <- inception_3a/output_inception_3a/output_0_split_0
I0321 14:23:04.675835 13007 net.cpp:399] inception_3b/1x1 -> inception_3b/1x1
I0321 14:23:04.676883 13007 net.cpp:141] Setting up inception_3b/1x1
I0321 14:23:04.676903 13007 net.cpp:148] Top shape: 45 128 28 28 (4515840)
I0321 14:23:04.676913 13007 net.cpp:156] Memory required for data: 1250890920
I0321 14:23:04.676923 13007 layer_factory.hpp:77] Creating layer inception_3b/relu_1x1
I0321 14:23:04.676934 13007 net.cpp:91] Creating Layer inception_3b/relu_1x1
I0321 14:23:04.676941 13007 net.cpp:425] inception_3b/relu_1x1 <- inception_3b/1x1
I0321 14:23:04.676949 13007 net.cpp:386] inception_3b/relu_1x1 -> inception_3b/1x1 (in-place)
I0321 14:23:04.677105 13007 net.cpp:141] Setting up inception_3b/relu_1x1
I0321 14:23:04.677124 13007 net.cpp:148] Top shape: 45 128 28 28 (4515840)
I0321 14:23:04.677131 13007 net.cpp:156] Memory required for data: 1268954280
I0321 14:23:04.677139 13007 layer_factory.hpp:77] Creating layer inception_3b/3x3_reduce
I0321 14:23:04.677152 13007 net.cpp:91] Creating Layer inception_3b/3x3_reduce
I0321 14:23:04.677160 13007 net.cpp:425] inception_3b/3x3_reduce <- inception_3a/output_inception_3a/output_0_split_1
I0321 14:23:04.677171 13007 net.cpp:399] inception_3b/3x3_reduce -> inception_3b/3x3_reduce
I0321 14:23:04.678261 13007 net.cpp:141] Setting up inception_3b/3x3_reduce
I0321 14:23:04.678278 13007 net.cpp:148] Top shape: 45 128 28 28 (4515840)
I0321 14:23:04.678285 13007 net.cpp:156] Memory required for data: 1287017640
I0321 14:23:04.678295 13007 layer_factory.hpp:77] Creating layer inception_3b/relu_3x3_reduce
I0321 14:23:04.678309 13007 net.cpp:91] Creating Layer inception_3b/relu_3x3_reduce
I0321 14:23:04.678318 13007 net.cpp:425] inception_3b/relu_3x3_reduce <- inception_3b/3x3_reduce
I0321 14:23:04.678328 13007 net.cpp:386] inception_3b/relu_3x3_reduce -> inception_3b/3x3_reduce (in-place)
I0321 14:23:04.678678 13007 net.cpp:141] Setting up inception_3b/relu_3x3_reduce
I0321 14:23:04.678702 13007 net.cpp:148] Top shape: 45 128 28 28 (4515840)
I0321 14:23:04.678711 13007 net.cpp:156] Memory required for data: 1305081000
I0321 14:23:04.678720 13007 layer_factory.hpp:77] Creating layer inception_3b/3x3
I0321 14:23:04.678756 13007 net.cpp:91] Creating Layer inception_3b/3x3
I0321 14:23:04.678768 13007 net.cpp:425] inception_3b/3x3 <- inception_3b/3x3_reduce
I0321 14:23:04.678781 13007 net.cpp:399] inception_3b/3x3 -> inception_3b/3x3
I0321 14:23:04.681391 13007 net.cpp:141] Setting up inception_3b/3x3
I0321 14:23:04.681414 13007 net.cpp:148] Top shape: 45 192 28 28 (6773760)
I0321 14:23:04.681424 13007 net.cpp:156] Memory required for data: 1332176040
I0321 14:23:04.681437 13007 layer_factory.hpp:77] Creating layer inception_3b/relu_3x3
I0321 14:23:04.681447 13007 net.cpp:91] Creating Layer inception_3b/relu_3x3
I0321 14:23:04.681457 13007 net.cpp:425] inception_3b/relu_3x3 <- inception_3b/3x3
I0321 14:23:04.681466 13007 net.cpp:386] inception_3b/relu_3x3 -> inception_3b/3x3 (in-place)
I0321 14:23:04.681753 13007 net.cpp:141] Setting up inception_3b/relu_3x3
I0321 14:23:04.681772 13007 net.cpp:148] Top shape: 45 192 28 28 (6773760)
I0321 14:23:04.681782 13007 net.cpp:156] Memory required for data: 1359271080
I0321 14:23:04.681792 13007 layer_factory.hpp:77] Creating layer inception_3b/5x5_reduce
I0321 14:23:04.681808 13007 net.cpp:91] Creating Layer inception_3b/5x5_reduce
I0321 14:23:04.681818 13007 net.cpp:425] inception_3b/5x5_reduce <- inception_3a/output_inception_3a/output_0_split_2
I0321 14:23:04.681833 13007 net.cpp:399] inception_3b/5x5_reduce -> inception_3b/5x5_reduce
I0321 14:23:04.682895 13007 net.cpp:141] Setting up inception_3b/5x5_reduce
I0321 14:23:04.682916 13007 net.cpp:148] Top shape: 45 32 28 28 (1128960)
I0321 14:23:04.682925 13007 net.cpp:156] Memory required for data: 1363786920
I0321 14:23:04.682936 13007 layer_factory.hpp:77] Creating layer inception_3b/relu_5x5_reduce
I0321 14:23:04.682950 13007 net.cpp:91] Creating Layer inception_3b/relu_5x5_reduce
I0321 14:23:04.682960 13007 net.cpp:425] inception_3b/relu_5x5_reduce <- inception_3b/5x5_reduce
I0321 14:23:04.682971 13007 net.cpp:386] inception_3b/relu_5x5_reduce -> inception_3b/5x5_reduce (in-place)
I0321 14:23:04.683145 13007 net.cpp:141] Setting up inception_3b/relu_5x5_reduce
I0321 14:23:04.683161 13007 net.cpp:148] Top shape: 45 32 28 28 (1128960)
I0321 14:23:04.683169 13007 net.cpp:156] Memory required for data: 1368302760
I0321 14:23:04.683177 13007 layer_factory.hpp:77] Creating layer inception_3b/5x5
I0321 14:23:04.683194 13007 net.cpp:91] Creating Layer inception_3b/5x5
I0321 14:23:04.683204 13007 net.cpp:425] inception_3b/5x5 <- inception_3b/5x5_reduce
I0321 14:23:04.683217 13007 net.cpp:399] inception_3b/5x5 -> inception_3b/5x5
I0321 14:23:04.684979 13007 net.cpp:141] Setting up inception_3b/5x5
I0321 14:23:04.685000 13007 net.cpp:148] Top shape: 45 96 28 28 (3386880)
I0321 14:23:04.685010 13007 net.cpp:156] Memory required for data: 1381850280
I0321 14:23:04.685021 13007 layer_factory.hpp:77] Creating layer inception_3b/relu_5x5
I0321 14:23:04.685032 13007 net.cpp:91] Creating Layer inception_3b/relu_5x5
I0321 14:23:04.685041 13007 net.cpp:425] inception_3b/relu_5x5 <- inception_3b/5x5
I0321 14:23:04.685051 13007 net.cpp:386] inception_3b/relu_5x5 -> inception_3b/5x5 (in-place)
I0321 14:23:04.685369 13007 net.cpp:141] Setting up inception_3b/relu_5x5
I0321 14:23:04.685386 13007 net.cpp:148] Top shape: 45 96 28 28 (3386880)
I0321 14:23:04.685396 13007 net.cpp:156] Memory required for data: 1395397800
I0321 14:23:04.685405 13007 layer_factory.hpp:77] Creating layer inception_3b/pool
I0321 14:23:04.685416 13007 net.cpp:91] Creating Layer inception_3b/pool
I0321 14:23:04.685425 13007 net.cpp:425] inception_3b/pool <- inception_3a/output_inception_3a/output_0_split_3
I0321 14:23:04.685437 13007 net.cpp:399] inception_3b/pool -> inception_3b/pool
I0321 14:23:04.685495 13007 net.cpp:141] Setting up inception_3b/pool
I0321 14:23:04.685509 13007 net.cpp:148] Top shape: 45 256 28 28 (9031680)
I0321 14:23:04.685516 13007 net.cpp:156] Memory required for data: 1431524520
I0321 14:23:04.685524 13007 layer_factory.hpp:77] Creating layer inception_3b/pool_proj
I0321 14:23:04.685539 13007 net.cpp:91] Creating Layer inception_3b/pool_proj
I0321 14:23:04.685567 13007 net.cpp:425] inception_3b/pool_proj <- inception_3b/pool
I0321 14:23:04.685581 13007 net.cpp:399] inception_3b/pool_proj -> inception_3b/pool_proj
I0321 14:23:04.686650 13007 net.cpp:141] Setting up inception_3b/pool_proj
I0321 14:23:04.686671 13007 net.cpp:148] Top shape: 45 64 28 28 (2257920)
I0321 14:23:04.686681 13007 net.cpp:156] Memory required for data: 1440556200
I0321 14:23:04.686691 13007 layer_factory.hpp:77] Creating layer inception_3b/relu_pool_proj
I0321 14:23:04.686702 13007 net.cpp:91] Creating Layer inception_3b/relu_pool_proj
I0321 14:23:04.686712 13007 net.cpp:425] inception_3b/relu_pool_proj <- inception_3b/pool_proj
I0321 14:23:04.686722 13007 net.cpp:386] inception_3b/relu_pool_proj -> inception_3b/pool_proj (in-place)
I0321 14:23:04.686890 13007 net.cpp:141] Setting up inception_3b/relu_pool_proj
I0321 14:23:04.686905 13007 net.cpp:148] Top shape: 45 64 28 28 (2257920)
I0321 14:23:04.686913 13007 net.cpp:156] Memory required for data: 1449587880
I0321 14:23:04.686921 13007 layer_factory.hpp:77] Creating layer inception_3b/output
I0321 14:23:04.686933 13007 net.cpp:91] Creating Layer inception_3b/output
I0321 14:23:04.686944 13007 net.cpp:425] inception_3b/output <- inception_3b/1x1
I0321 14:23:04.686954 13007 net.cpp:425] inception_3b/output <- inception_3b/3x3
I0321 14:23:04.686964 13007 net.cpp:425] inception_3b/output <- inception_3b/5x5
I0321 14:23:04.686971 13007 net.cpp:425] inception_3b/output <- inception_3b/pool_proj
I0321 14:23:04.686982 13007 net.cpp:399] inception_3b/output -> inception_3b/output
I0321 14:23:04.687018 13007 net.cpp:141] Setting up inception_3b/output
I0321 14:23:04.687033 13007 net.cpp:148] Top shape: 45 480 28 28 (16934400)
I0321 14:23:04.687043 13007 net.cpp:156] Memory required for data: 1517325480
I0321 14:23:04.687052 13007 layer_factory.hpp:77] Creating layer pool3/3x3_s2
I0321 14:23:04.687063 13007 net.cpp:91] Creating Layer pool3/3x3_s2
I0321 14:23:04.687072 13007 net.cpp:425] pool3/3x3_s2 <- inception_3b/output
I0321 14:23:04.687083 13007 net.cpp:399] pool3/3x3_s2 -> pool3/3x3_s2
I0321 14:23:04.687130 13007 net.cpp:141] Setting up pool3/3x3_s2
I0321 14:23:04.687144 13007 net.cpp:148] Top shape: 45 480 14 14 (4233600)
I0321 14:23:04.687152 13007 net.cpp:156] Memory required for data: 1534259880
I0321 14:23:04.687160 13007 layer_factory.hpp:77] Creating layer pool3/3x3_s2_pool3/3x3_s2_0_split
I0321 14:23:04.687170 13007 net.cpp:91] Creating Layer pool3/3x3_s2_pool3/3x3_s2_0_split
I0321 14:23:04.687178 13007 net.cpp:425] pool3/3x3_s2_pool3/3x3_s2_0_split <- pool3/3x3_s2
I0321 14:23:04.687187 13007 net.cpp:399] pool3/3x3_s2_pool3/3x3_s2_0_split -> pool3/3x3_s2_pool3/3x3_s2_0_split_0
I0321 14:23:04.687198 13007 net.cpp:399] pool3/3x3_s2_pool3/3x3_s2_0_split -> pool3/3x3_s2_pool3/3x3_s2_0_split_1
I0321 14:23:04.687209 13007 net.cpp:399] pool3/3x3_s2_pool3/3x3_s2_0_split -> pool3/3x3_s2_pool3/3x3_s2_0_split_2
I0321 14:23:04.687222 13007 net.cpp:399] pool3/3x3_s2_pool3/3x3_s2_0_split -> pool3/3x3_s2_pool3/3x3_s2_0_split_3
I0321 14:23:04.687284 13007 net.cpp:141] Setting up pool3/3x3_s2_pool3/3x3_s2_0_split
I0321 14:23:04.687297 13007 net.cpp:148] Top shape: 45 480 14 14 (4233600)
I0321 14:23:04.687306 13007 net.cpp:148] Top shape: 45 480 14 14 (4233600)
I0321 14:23:04.687315 13007 net.cpp:148] Top shape: 45 480 14 14 (4233600)
I0321 14:23:04.687324 13007 net.cpp:148] Top shape: 45 480 14 14 (4233600)
I0321 14:23:04.687331 13007 net.cpp:156] Memory required for data: 1601997480
I0321 14:23:04.687338 13007 layer_factory.hpp:77] Creating layer inception_4a/1x1
I0321 14:23:04.687353 13007 net.cpp:91] Creating Layer inception_4a/1x1
I0321 14:23:04.687362 13007 net.cpp:425] inception_4a/1x1 <- pool3/3x3_s2_pool3/3x3_s2_0_split_0
I0321 14:23:04.687374 13007 net.cpp:399] inception_4a/1x1 -> inception_4a/1x1
I0321 14:23:04.688972 13007 net.cpp:141] Setting up inception_4a/1x1
I0321 14:23:04.688993 13007 net.cpp:148] Top shape: 45 192 14 14 (1693440)
I0321 14:23:04.689002 13007 net.cpp:156] Memory required for data: 1608771240
I0321 14:23:04.689025 13007 layer_factory.hpp:77] Creating layer inception_4a/relu_1x1
I0321 14:23:04.689038 13007 net.cpp:91] Creating Layer inception_4a/relu_1x1
I0321 14:23:04.689046 13007 net.cpp:425] inception_4a/relu_1x1 <- inception_4a/1x1
I0321 14:23:04.689056 13007 net.cpp:386] inception_4a/relu_1x1 -> inception_4a/1x1 (in-place)
I0321 14:23:04.689232 13007 net.cpp:141] Setting up inception_4a/relu_1x1
I0321 14:23:04.689249 13007 net.cpp:148] Top shape: 45 192 14 14 (1693440)
I0321 14:23:04.689256 13007 net.cpp:156] Memory required for data: 1615545000
I0321 14:23:04.689265 13007 layer_factory.hpp:77] Creating layer inception_4a/3x3_reduce
I0321 14:23:04.689278 13007 net.cpp:91] Creating Layer inception_4a/3x3_reduce
I0321 14:23:04.689288 13007 net.cpp:425] inception_4a/3x3_reduce <- pool3/3x3_s2_pool3/3x3_s2_0_split_1
I0321 14:23:04.689316 13007 net.cpp:399] inception_4a/3x3_reduce -> inception_4a/3x3_reduce
I0321 14:23:04.690584 13007 net.cpp:141] Setting up inception_4a/3x3_reduce
I0321 14:23:04.690603 13007 net.cpp:148] Top shape: 45 96 14 14 (846720)
I0321 14:23:04.690613 13007 net.cpp:156] Memory required for data: 1618931880
I0321 14:23:04.690631 13007 layer_factory.hpp:77] Creating layer inception_4a/relu_3x3_reduce
I0321 14:23:04.690644 13007 net.cpp:91] Creating Layer inception_4a/relu_3x3_reduce
I0321 14:23:04.690654 13007 net.cpp:425] inception_4a/relu_3x3_reduce <- inception_4a/3x3_reduce
I0321 14:23:04.690664 13007 net.cpp:386] inception_4a/relu_3x3_reduce -> inception_4a/3x3_reduce (in-place)
I0321 14:23:04.690994 13007 net.cpp:141] Setting up inception_4a/relu_3x3_reduce
I0321 14:23:04.691015 13007 net.cpp:148] Top shape: 45 96 14 14 (846720)
I0321 14:23:04.691023 13007 net.cpp:156] Memory required for data: 1622318760
I0321 14:23:04.691031 13007 layer_factory.hpp:77] Creating layer inception_4a/3x3
I0321 14:23:04.691047 13007 net.cpp:91] Creating Layer inception_4a/3x3
I0321 14:23:04.691057 13007 net.cpp:425] inception_4a/3x3 <- inception_4a/3x3_reduce
I0321 14:23:04.691069 13007 net.cpp:399] inception_4a/3x3 -> inception_4a/3x3
I0321 14:23:04.693989 13007 net.cpp:141] Setting up inception_4a/3x3
I0321 14:23:04.694013 13007 net.cpp:148] Top shape: 45 208 14 14 (1834560)
I0321 14:23:04.694022 13007 net.cpp:156] Memory required for data: 1629657000
I0321 14:23:04.694036 13007 layer_factory.hpp:77] Creating layer inception_4a/relu_3x3
I0321 14:23:04.694048 13007 net.cpp:91] Creating Layer inception_4a/relu_3x3
I0321 14:23:04.694058 13007 net.cpp:425] inception_4a/relu_3x3 <- inception_4a/3x3
I0321 14:23:04.694069 13007 net.cpp:386] inception_4a/relu_3x3 -> inception_4a/3x3 (in-place)
I0321 14:23:04.696378 13007 net.cpp:141] Setting up inception_4a/relu_3x3
I0321 14:23:04.696401 13007 net.cpp:148] Top shape: 45 208 14 14 (1834560)
I0321 14:23:04.696410 13007 net.cpp:156] Memory required for data: 1636995240
I0321 14:23:04.696419 13007 layer_factory.hpp:77] Creating layer inception_4a/5x5_reduce
I0321 14:23:04.696437 13007 net.cpp:91] Creating Layer inception_4a/5x5_reduce
I0321 14:23:04.696447 13007 net.cpp:425] inception_4a/5x5_reduce <- pool3/3x3_s2_pool3/3x3_s2_0_split_2
I0321 14:23:04.696462 13007 net.cpp:399] inception_4a/5x5_reduce -> inception_4a/5x5_reduce
I0321 14:23:04.697603 13007 net.cpp:141] Setting up inception_4a/5x5_reduce
I0321 14:23:04.697623 13007 net.cpp:148] Top shape: 45 16 14 14 (141120)
I0321 14:23:04.697633 13007 net.cpp:156] Memory required for data: 1637559720
I0321 14:23:04.697644 13007 layer_factory.hpp:77] Creating layer inception_4a/relu_5x5_reduce
I0321 14:23:04.697659 13007 net.cpp:91] Creating Layer inception_4a/relu_5x5_reduce
I0321 14:23:04.697669 13007 net.cpp:425] inception_4a/relu_5x5_reduce <- inception_4a/5x5_reduce
I0321 14:23:04.697679 13007 net.cpp:386] inception_4a/relu_5x5_reduce -> inception_4a/5x5_reduce (in-place)
I0321 14:23:04.697856 13007 net.cpp:141] Setting up inception_4a/relu_5x5_reduce
I0321 14:23:04.697872 13007 net.cpp:148] Top shape: 45 16 14 14 (141120)
I0321 14:23:04.697880 13007 net.cpp:156] Memory required for data: 1638124200
I0321 14:23:04.697913 13007 layer_factory.hpp:77] Creating layer inception_4a/5x5
I0321 14:23:04.697932 13007 net.cpp:91] Creating Layer inception_4a/5x5
I0321 14:23:04.697942 13007 net.cpp:425] inception_4a/5x5 <- inception_4a/5x5_reduce
I0321 14:23:04.697954 13007 net.cpp:399] inception_4a/5x5 -> inception_4a/5x5
I0321 14:23:04.699244 13007 net.cpp:141] Setting up inception_4a/5x5
I0321 14:23:04.699265 13007 net.cpp:148] Top shape: 45 48 14 14 (423360)
I0321 14:23:04.699272 13007 net.cpp:156] Memory required for data: 1639817640
I0321 14:23:04.699285 13007 layer_factory.hpp:77] Creating layer inception_4a/relu_5x5
I0321 14:23:04.699295 13007 net.cpp:91] Creating Layer inception_4a/relu_5x5
I0321 14:23:04.699304 13007 net.cpp:425] inception_4a/relu_5x5 <- inception_4a/5x5
I0321 14:23:04.699316 13007 net.cpp:386] inception_4a/relu_5x5 -> inception_4a/5x5 (in-place)
I0321 14:23:04.699606 13007 net.cpp:141] Setting up inception_4a/relu_5x5
I0321 14:23:04.699625 13007 net.cpp:148] Top shape: 45 48 14 14 (423360)
I0321 14:23:04.699633 13007 net.cpp:156] Memory required for data: 1641511080
I0321 14:23:04.699641 13007 layer_factory.hpp:77] Creating layer inception_4a/pool
I0321 14:23:04.699653 13007 net.cpp:91] Creating Layer inception_4a/pool
I0321 14:23:04.699662 13007 net.cpp:425] inception_4a/pool <- pool3/3x3_s2_pool3/3x3_s2_0_split_3
I0321 14:23:04.699676 13007 net.cpp:399] inception_4a/pool -> inception_4a/pool
I0321 14:23:04.699730 13007 net.cpp:141] Setting up inception_4a/pool
I0321 14:23:04.699743 13007 net.cpp:148] Top shape: 45 480 14 14 (4233600)
I0321 14:23:04.699751 13007 net.cpp:156] Memory required for data: 1658445480
I0321 14:23:04.699759 13007 layer_factory.hpp:77] Creating layer inception_4a/pool_proj
I0321 14:23:04.699775 13007 net.cpp:91] Creating Layer inception_4a/pool_proj
I0321 14:23:04.699785 13007 net.cpp:425] inception_4a/pool_proj <- inception_4a/pool
I0321 14:23:04.699796 13007 net.cpp:399] inception_4a/pool_proj -> inception_4a/pool_proj
I0321 14:23:04.700963 13007 net.cpp:141] Setting up inception_4a/pool_proj
I0321 14:23:04.700984 13007 net.cpp:148] Top shape: 45 64 14 14 (564480)
I0321 14:23:04.700994 13007 net.cpp:156] Memory required for data: 1660703400
I0321 14:23:04.701004 13007 layer_factory.hpp:77] Creating layer inception_4a/relu_pool_proj
I0321 14:23:04.701015 13007 net.cpp:91] Creating Layer inception_4a/relu_pool_proj
I0321 14:23:04.701025 13007 net.cpp:425] inception_4a/relu_pool_proj <- inception_4a/pool_proj
I0321 14:23:04.701035 13007 net.cpp:386] inception_4a/relu_pool_proj -> inception_4a/pool_proj (in-place)
I0321 14:23:04.701205 13007 net.cpp:141] Setting up inception_4a/relu_pool_proj
I0321 14:23:04.701220 13007 net.cpp:148] Top shape: 45 64 14 14 (564480)
I0321 14:23:04.701228 13007 net.cpp:156] Memory required for data: 1662961320
I0321 14:23:04.701236 13007 layer_factory.hpp:77] Creating layer inception_4a/output
I0321 14:23:04.701248 13007 net.cpp:91] Creating Layer inception_4a/output
I0321 14:23:04.701257 13007 net.cpp:425] inception_4a/output <- inception_4a/1x1
I0321 14:23:04.701267 13007 net.cpp:425] inception_4a/output <- inception_4a/3x3
I0321 14:23:04.701278 13007 net.cpp:425] inception_4a/output <- inception_4a/5x5
I0321 14:23:04.701287 13007 net.cpp:425] inception_4a/output <- inception_4a/pool_proj
I0321 14:23:04.701310 13007 net.cpp:399] inception_4a/output -> inception_4a/output
I0321 14:23:04.701347 13007 net.cpp:141] Setting up inception_4a/output
I0321 14:23:04.701361 13007 net.cpp:148] Top shape: 45 512 14 14 (4515840)
I0321 14:23:04.701370 13007 net.cpp:156] Memory required for data: 1681024680
I0321 14:23:04.701378 13007 layer_factory.hpp:77] Creating layer inception_4a/output_inception_4a/output_0_split
I0321 14:23:04.701391 13007 net.cpp:91] Creating Layer inception_4a/output_inception_4a/output_0_split
I0321 14:23:04.701400 13007 net.cpp:425] inception_4a/output_inception_4a/output_0_split <- inception_4a/output
I0321 14:23:04.701413 13007 net.cpp:399] inception_4a/output_inception_4a/output_0_split -> inception_4a/output_inception_4a/output_0_split_0
I0321 14:23:04.701439 13007 net.cpp:399] inception_4a/output_inception_4a/output_0_split -> inception_4a/output_inception_4a/output_0_split_1
I0321 14:23:04.701452 13007 net.cpp:399] inception_4a/output_inception_4a/output_0_split -> inception_4a/output_inception_4a/output_0_split_2
I0321 14:23:04.701463 13007 net.cpp:399] inception_4a/output_inception_4a/output_0_split -> inception_4a/output_inception_4a/output_0_split_3
I0321 14:23:04.701474 13007 net.cpp:399] inception_4a/output_inception_4a/output_0_split -> inception_4a/output_inception_4a/output_0_split_4
I0321 14:23:04.701555 13007 net.cpp:141] Setting up inception_4a/output_inception_4a/output_0_split
I0321 14:23:04.701568 13007 net.cpp:148] Top shape: 45 512 14 14 (4515840)
I0321 14:23:04.701577 13007 net.cpp:148] Top shape: 45 512 14 14 (4515840)
I0321 14:23:04.701586 13007 net.cpp:148] Top shape: 45 512 14 14 (4515840)
I0321 14:23:04.701593 13007 net.cpp:148] Top shape: 45 512 14 14 (4515840)
I0321 14:23:04.701602 13007 net.cpp:148] Top shape: 45 512 14 14 (4515840)
I0321 14:23:04.701609 13007 net.cpp:156] Memory required for data: 1771341480
I0321 14:23:04.701617 13007 layer_factory.hpp:77] Creating layer loss1/ave_pool
I0321 14:23:04.701628 13007 net.cpp:91] Creating Layer loss1/ave_pool
I0321 14:23:04.701637 13007 net.cpp:425] loss1/ave_pool <- inception_4a/output_inception_4a/output_0_split_0
I0321 14:23:04.701647 13007 net.cpp:399] loss1/ave_pool -> loss1/ave_pool
I0321 14:23:04.701966 13007 net.cpp:141] Setting up loss1/ave_pool
I0321 14:23:04.701983 13007 net.cpp:148] Top shape: 45 512 4 4 (368640)
I0321 14:23:04.701992 13007 net.cpp:156] Memory required for data: 1772816040
I0321 14:23:04.702000 13007 layer_factory.hpp:77] Creating layer loss1/conv
I0321 14:23:04.702016 13007 net.cpp:91] Creating Layer loss1/conv
I0321 14:23:04.702026 13007 net.cpp:425] loss1/conv <- loss1/ave_pool
I0321 14:23:04.702039 13007 net.cpp:399] loss1/conv -> loss1/conv
I0321 14:23:04.703295 13007 net.cpp:141] Setting up loss1/conv
I0321 14:23:04.703315 13007 net.cpp:148] Top shape: 45 128 4 4 (92160)
I0321 14:23:04.703323 13007 net.cpp:156] Memory required for data: 1773184680
I0321 14:23:04.703335 13007 layer_factory.hpp:77] Creating layer loss1/relu_conv
I0321 14:23:04.703346 13007 net.cpp:91] Creating Layer loss1/relu_conv
I0321 14:23:04.703357 13007 net.cpp:425] loss1/relu_conv <- loss1/conv
I0321 14:23:04.703367 13007 net.cpp:386] loss1/relu_conv -> loss1/conv (in-place)
I0321 14:23:04.703655 13007 net.cpp:141] Setting up loss1/relu_conv
I0321 14:23:04.703672 13007 net.cpp:148] Top shape: 45 128 4 4 (92160)
I0321 14:23:04.703682 13007 net.cpp:156] Memory required for data: 1773553320
I0321 14:23:04.703691 13007 layer_factory.hpp:77] Creating layer loss1/fc
I0321 14:23:04.703703 13007 net.cpp:91] Creating Layer loss1/fc
I0321 14:23:04.703712 13007 net.cpp:425] loss1/fc <- loss1/conv
I0321 14:23:04.703724 13007 net.cpp:399] loss1/fc -> loss1/fc
I0321 14:23:04.717644 13007 net.cpp:141] Setting up loss1/fc
I0321 14:23:04.717680 13007 net.cpp:148] Top shape: 45 1024 (46080)
I0321 14:23:04.717689 13007 net.cpp:156] Memory required for data: 1773737640
I0321 14:23:04.717705 13007 layer_factory.hpp:77] Creating layer loss1/relu_fc
I0321 14:23:04.717730 13007 net.cpp:91] Creating Layer loss1/relu_fc
I0321 14:23:04.717741 13007 net.cpp:425] loss1/relu_fc <- loss1/fc
I0321 14:23:04.717754 13007 net.cpp:386] loss1/relu_fc -> loss1/fc (in-place)
I0321 14:23:04.718194 13007 net.cpp:141] Setting up loss1/relu_fc
I0321 14:23:04.718212 13007 net.cpp:148] Top shape: 45 1024 (46080)
I0321 14:23:04.718220 13007 net.cpp:156] Memory required for data: 1773921960
I0321 14:23:04.718230 13007 layer_factory.hpp:77] Creating layer loss1/drop_fc
I0321 14:23:04.718241 13007 net.cpp:91] Creating Layer loss1/drop_fc
I0321 14:23:04.718250 13007 net.cpp:425] loss1/drop_fc <- loss1/fc
I0321 14:23:04.718261 13007 net.cpp:386] loss1/drop_fc -> loss1/fc (in-place)
I0321 14:23:04.718303 13007 net.cpp:141] Setting up loss1/drop_fc
I0321 14:23:04.718318 13007 net.cpp:148] Top shape: 45 1024 (46080)
I0321 14:23:04.718358 13007 net.cpp:156] Memory required for data: 1774106280
I0321 14:23:04.718367 13007 layer_factory.hpp:77] Creating layer loss1/classifier_gnet
I0321 14:23:04.718380 13007 net.cpp:91] Creating Layer loss1/classifier_gnet
I0321 14:23:04.718390 13007 net.cpp:425] loss1/classifier_gnet <- loss1/fc
I0321 14:23:04.718405 13007 net.cpp:399] loss1/classifier_gnet -> loss1/classifier_gnet
I0321 14:23:04.732596 13007 net.cpp:141] Setting up loss1/classifier_gnet
I0321 14:23:04.732632 13007 net.cpp:148] Top shape: 45 2048 (92160)
I0321 14:23:04.732642 13007 net.cpp:156] Memory required for data: 1774474920
I0321 14:23:04.732657 13007 layer_factory.hpp:77] Creating layer loss1/feat
I0321 14:23:04.732674 13007 net.cpp:91] Creating Layer loss1/feat
I0321 14:23:04.732686 13007 net.cpp:425] loss1/feat <- loss1/classifier_gnet
I0321 14:23:04.732702 13007 net.cpp:399] loss1/feat -> loss1/feat
I0321 14:23:04.732919 13007 net.cpp:141] Setting up loss1/feat
I0321 14:23:04.732933 13007 net.cpp:148] Top shape: 45 6 (270)
I0321 14:23:04.732941 13007 net.cpp:156] Memory required for data: 1774476000
I0321 14:23:04.732951 13007 layer_factory.hpp:77] Creating layer loss1/loss
I0321 14:23:04.732964 13007 net.cpp:91] Creating Layer loss1/loss
I0321 14:23:04.732971 13007 net.cpp:425] loss1/loss <- loss1/feat
I0321 14:23:04.732980 13007 net.cpp:425] loss1/loss <- label_label_0_split_0
I0321 14:23:04.732991 13007 net.cpp:399] loss1/loss -> loss1/loss1
I0321 14:23:04.733042 13007 net.cpp:141] Setting up loss1/loss
I0321 14:23:04.733055 13007 net.cpp:148] Top shape: (1)
I0321 14:23:04.733099 13007 net.cpp:151]     with loss weight 0.3
I0321 14:23:04.733125 13007 net.cpp:156] Memory required for data: 1774476004
I0321 14:23:04.733134 13007 layer_factory.hpp:77] Creating layer inception_4b/1x1
I0321 14:23:04.733151 13007 net.cpp:91] Creating Layer inception_4b/1x1
I0321 14:23:04.733162 13007 net.cpp:425] inception_4b/1x1 <- inception_4a/output_inception_4a/output_0_split_1
I0321 14:23:04.733175 13007 net.cpp:399] inception_4b/1x1 -> inception_4b/1x1
I0321 14:23:04.734730 13007 net.cpp:141] Setting up inception_4b/1x1
I0321 14:23:04.734753 13007 net.cpp:148] Top shape: 45 160 14 14 (1411200)
I0321 14:23:04.734766 13007 net.cpp:156] Memory required for data: 1780120804
I0321 14:23:04.734779 13007 layer_factory.hpp:77] Creating layer inception_4b/relu_1x1
I0321 14:23:04.734797 13007 net.cpp:91] Creating Layer inception_4b/relu_1x1
I0321 14:23:04.734807 13007 net.cpp:425] inception_4b/relu_1x1 <- inception_4b/1x1
I0321 14:23:04.734820 13007 net.cpp:386] inception_4b/relu_1x1 -> inception_4b/1x1 (in-place)
I0321 14:23:04.735138 13007 net.cpp:141] Setting up inception_4b/relu_1x1
I0321 14:23:04.735160 13007 net.cpp:148] Top shape: 45 160 14 14 (1411200)
I0321 14:23:04.735173 13007 net.cpp:156] Memory required for data: 1785765604
I0321 14:23:04.735185 13007 layer_factory.hpp:77] Creating layer inception_4b/3x3_reduce
I0321 14:23:04.735208 13007 net.cpp:91] Creating Layer inception_4b/3x3_reduce
I0321 14:23:04.735219 13007 net.cpp:425] inception_4b/3x3_reduce <- inception_4a/output_inception_4a/output_0_split_2
I0321 14:23:04.735244 13007 net.cpp:399] inception_4b/3x3_reduce -> inception_4b/3x3_reduce
I0321 14:23:04.737267 13007 net.cpp:141] Setting up inception_4b/3x3_reduce
I0321 14:23:04.737308 13007 net.cpp:148] Top shape: 45 112 14 14 (987840)
I0321 14:23:04.737323 13007 net.cpp:156] Memory required for data: 1789716964
I0321 14:23:04.737337 13007 layer_factory.hpp:77] Creating layer inception_4b/relu_3x3_reduce
I0321 14:23:04.737352 13007 net.cpp:91] Creating Layer inception_4b/relu_3x3_reduce
I0321 14:23:04.737365 13007 net.cpp:425] inception_4b/relu_3x3_reduce <- inception_4b/3x3_reduce
I0321 14:23:04.737381 13007 net.cpp:386] inception_4b/relu_3x3_reduce -> inception_4b/3x3_reduce (in-place)
I0321 14:23:04.737597 13007 net.cpp:141] Setting up inception_4b/relu_3x3_reduce
I0321 14:23:04.737622 13007 net.cpp:148] Top shape: 45 112 14 14 (987840)
I0321 14:23:04.737634 13007 net.cpp:156] Memory required for data: 1793668324
I0321 14:23:04.737668 13007 layer_factory.hpp:77] Creating layer inception_4b/3x3
I0321 14:23:04.737689 13007 net.cpp:91] Creating Layer inception_4b/3x3
I0321 14:23:04.737702 13007 net.cpp:425] inception_4b/3x3 <- inception_4b/3x3_reduce
I0321 14:23:04.737718 13007 net.cpp:399] inception_4b/3x3 -> inception_4b/3x3
I0321 14:23:04.740739 13007 net.cpp:141] Setting up inception_4b/3x3
I0321 14:23:04.740764 13007 net.cpp:148] Top shape: 45 224 14 14 (1975680)
I0321 14:23:04.740777 13007 net.cpp:156] Memory required for data: 1801571044
I0321 14:23:04.740792 13007 layer_factory.hpp:77] Creating layer inception_4b/relu_3x3
I0321 14:23:04.740804 13007 net.cpp:91] Creating Layer inception_4b/relu_3x3
I0321 14:23:04.740816 13007 net.cpp:425] inception_4b/relu_3x3 <- inception_4b/3x3
I0321 14:23:04.740833 13007 net.cpp:386] inception_4b/relu_3x3 -> inception_4b/3x3 (in-place)
I0321 14:23:04.741181 13007 net.cpp:141] Setting up inception_4b/relu_3x3
I0321 14:23:04.741204 13007 net.cpp:148] Top shape: 45 224 14 14 (1975680)
I0321 14:23:04.741215 13007 net.cpp:156] Memory required for data: 1809473764
I0321 14:23:04.741226 13007 layer_factory.hpp:77] Creating layer inception_4b/5x5_reduce
I0321 14:23:04.741246 13007 net.cpp:91] Creating Layer inception_4b/5x5_reduce
I0321 14:23:04.741261 13007 net.cpp:425] inception_4b/5x5_reduce <- inception_4a/output_inception_4a/output_0_split_3
I0321 14:23:04.741281 13007 net.cpp:399] inception_4b/5x5_reduce -> inception_4b/5x5_reduce
I0321 14:23:04.742522 13007 net.cpp:141] Setting up inception_4b/5x5_reduce
I0321 14:23:04.742545 13007 net.cpp:148] Top shape: 45 24 14 14 (211680)
I0321 14:23:04.742558 13007 net.cpp:156] Memory required for data: 1810320484
I0321 14:23:04.742573 13007 layer_factory.hpp:77] Creating layer inception_4b/relu_5x5_reduce
I0321 14:23:04.742589 13007 net.cpp:91] Creating Layer inception_4b/relu_5x5_reduce
I0321 14:23:04.742601 13007 net.cpp:425] inception_4b/relu_5x5_reduce <- inception_4b/5x5_reduce
I0321 14:23:04.742615 13007 net.cpp:386] inception_4b/relu_5x5_reduce -> inception_4b/5x5_reduce (in-place)
I0321 14:23:04.742965 13007 net.cpp:141] Setting up inception_4b/relu_5x5_reduce
I0321 14:23:04.742990 13007 net.cpp:148] Top shape: 45 24 14 14 (211680)
I0321 14:23:04.743003 13007 net.cpp:156] Memory required for data: 1811167204
I0321 14:23:04.743016 13007 layer_factory.hpp:77] Creating layer inception_4b/5x5
I0321 14:23:04.743036 13007 net.cpp:91] Creating Layer inception_4b/5x5
I0321 14:23:04.743049 13007 net.cpp:425] inception_4b/5x5 <- inception_4b/5x5_reduce
I0321 14:23:04.743065 13007 net.cpp:399] inception_4b/5x5 -> inception_4b/5x5
I0321 14:23:04.744598 13007 net.cpp:141] Setting up inception_4b/5x5
I0321 14:23:04.744626 13007 net.cpp:148] Top shape: 45 64 14 14 (564480)
I0321 14:23:04.744639 13007 net.cpp:156] Memory required for data: 1813425124
I0321 14:23:04.744653 13007 layer_factory.hpp:77] Creating layer inception_4b/relu_5x5
I0321 14:23:04.744665 13007 net.cpp:91] Creating Layer inception_4b/relu_5x5
I0321 14:23:04.744678 13007 net.cpp:425] inception_4b/relu_5x5 <- inception_4b/5x5
I0321 14:23:04.744693 13007 net.cpp:386] inception_4b/relu_5x5 -> inception_4b/5x5 (in-place)
I0321 14:23:04.745038 13007 net.cpp:141] Setting up inception_4b/relu_5x5
I0321 14:23:04.745060 13007 net.cpp:148] Top shape: 45 64 14 14 (564480)
I0321 14:23:04.745072 13007 net.cpp:156] Memory required for data: 1815683044
I0321 14:23:04.745084 13007 layer_factory.hpp:77] Creating layer inception_4b/pool
I0321 14:23:04.745098 13007 net.cpp:91] Creating Layer inception_4b/pool
I0321 14:23:04.745112 13007 net.cpp:425] inception_4b/pool <- inception_4a/output_inception_4a/output_0_split_4
I0321 14:23:04.745131 13007 net.cpp:399] inception_4b/pool -> inception_4b/pool
I0321 14:23:04.745213 13007 net.cpp:141] Setting up inception_4b/pool
I0321 14:23:04.745234 13007 net.cpp:148] Top shape: 45 512 14 14 (4515840)
I0321 14:23:04.745245 13007 net.cpp:156] Memory required for data: 1833746404
I0321 14:23:04.745256 13007 layer_factory.hpp:77] Creating layer inception_4b/pool_proj
I0321 14:23:04.745309 13007 net.cpp:91] Creating Layer inception_4b/pool_proj
I0321 14:23:04.745326 13007 net.cpp:425] inception_4b/pool_proj <- inception_4b/pool
I0321 14:23:04.745343 13007 net.cpp:399] inception_4b/pool_proj -> inception_4b/pool_proj
I0321 14:23:04.746709 13007 net.cpp:141] Setting up inception_4b/pool_proj
I0321 14:23:04.746731 13007 net.cpp:148] Top shape: 45 64 14 14 (564480)
I0321 14:23:04.746739 13007 net.cpp:156] Memory required for data: 1836004324
I0321 14:23:04.746750 13007 layer_factory.hpp:77] Creating layer inception_4b/relu_pool_proj
I0321 14:23:04.746763 13007 net.cpp:91] Creating Layer inception_4b/relu_pool_proj
I0321 14:23:04.746773 13007 net.cpp:425] inception_4b/relu_pool_proj <- inception_4b/pool_proj
I0321 14:23:04.746783 13007 net.cpp:386] inception_4b/relu_pool_proj -> inception_4b/pool_proj (in-place)
I0321 14:23:04.747083 13007 net.cpp:141] Setting up inception_4b/relu_pool_proj
I0321 14:23:04.747102 13007 net.cpp:148] Top shape: 45 64 14 14 (564480)
I0321 14:23:04.747112 13007 net.cpp:156] Memory required for data: 1838262244
I0321 14:23:04.747119 13007 layer_factory.hpp:77] Creating layer inception_4b/output
I0321 14:23:04.747133 13007 net.cpp:91] Creating Layer inception_4b/output
I0321 14:23:04.747141 13007 net.cpp:425] inception_4b/output <- inception_4b/1x1
I0321 14:23:04.747151 13007 net.cpp:425] inception_4b/output <- inception_4b/3x3
I0321 14:23:04.747161 13007 net.cpp:425] inception_4b/output <- inception_4b/5x5
I0321 14:23:04.747171 13007 net.cpp:425] inception_4b/output <- inception_4b/pool_proj
I0321 14:23:04.747181 13007 net.cpp:399] inception_4b/output -> inception_4b/output
I0321 14:23:04.747220 13007 net.cpp:141] Setting up inception_4b/output
I0321 14:23:04.747233 13007 net.cpp:148] Top shape: 45 512 14 14 (4515840)
I0321 14:23:04.747241 13007 net.cpp:156] Memory required for data: 1856325604
I0321 14:23:04.747249 13007 layer_factory.hpp:77] Creating layer inception_4b/output_inception_4b/output_0_split
I0321 14:23:04.747259 13007 net.cpp:91] Creating Layer inception_4b/output_inception_4b/output_0_split
I0321 14:23:04.747268 13007 net.cpp:425] inception_4b/output_inception_4b/output_0_split <- inception_4b/output
I0321 14:23:04.747279 13007 net.cpp:399] inception_4b/output_inception_4b/output_0_split -> inception_4b/output_inception_4b/output_0_split_0
I0321 14:23:04.747292 13007 net.cpp:399] inception_4b/output_inception_4b/output_0_split -> inception_4b/output_inception_4b/output_0_split_1
I0321 14:23:04.747303 13007 net.cpp:399] inception_4b/output_inception_4b/output_0_split -> inception_4b/output_inception_4b/output_0_split_2
I0321 14:23:04.747316 13007 net.cpp:399] inception_4b/output_inception_4b/output_0_split -> inception_4b/output_inception_4b/output_0_split_3
I0321 14:23:04.747390 13007 net.cpp:141] Setting up inception_4b/output_inception_4b/output_0_split
I0321 14:23:04.747403 13007 net.cpp:148] Top shape: 45 512 14 14 (4515840)
I0321 14:23:04.747412 13007 net.cpp:148] Top shape: 45 512 14 14 (4515840)
I0321 14:23:04.747421 13007 net.cpp:148] Top shape: 45 512 14 14 (4515840)
I0321 14:23:04.747429 13007 net.cpp:148] Top shape: 45 512 14 14 (4515840)
I0321 14:23:04.747437 13007 net.cpp:156] Memory required for data: 1928579044
I0321 14:23:04.747444 13007 layer_factory.hpp:77] Creating layer inception_4c/1x1
I0321 14:23:04.747459 13007 net.cpp:91] Creating Layer inception_4c/1x1
I0321 14:23:04.747468 13007 net.cpp:425] inception_4c/1x1 <- inception_4b/output_inception_4b/output_0_split_0
I0321 14:23:04.747481 13007 net.cpp:399] inception_4c/1x1 -> inception_4c/1x1
I0321 14:23:04.748777 13007 net.cpp:141] Setting up inception_4c/1x1
I0321 14:23:04.748798 13007 net.cpp:148] Top shape: 45 128 14 14 (1128960)
I0321 14:23:04.748807 13007 net.cpp:156] Memory required for data: 1933094884
I0321 14:23:04.748819 13007 layer_factory.hpp:77] Creating layer inception_4c/relu_1x1
I0321 14:23:04.748829 13007 net.cpp:91] Creating Layer inception_4c/relu_1x1
I0321 14:23:04.748838 13007 net.cpp:425] inception_4c/relu_1x1 <- inception_4c/1x1
I0321 14:23:04.748852 13007 net.cpp:386] inception_4c/relu_1x1 -> inception_4c/1x1 (in-place)
I0321 14:23:04.749156 13007 net.cpp:141] Setting up inception_4c/relu_1x1
I0321 14:23:04.749173 13007 net.cpp:148] Top shape: 45 128 14 14 (1128960)
I0321 14:23:04.749182 13007 net.cpp:156] Memory required for data: 1937610724
I0321 14:23:04.749191 13007 layer_factory.hpp:77] Creating layer inception_4c/3x3_reduce
I0321 14:23:04.749205 13007 net.cpp:91] Creating Layer inception_4c/3x3_reduce
I0321 14:23:04.749215 13007 net.cpp:425] inception_4c/3x3_reduce <- inception_4b/output_inception_4b/output_0_split_1
I0321 14:23:04.749229 13007 net.cpp:399] inception_4c/3x3_reduce -> inception_4c/3x3_reduce
I0321 14:23:04.750656 13007 net.cpp:141] Setting up inception_4c/3x3_reduce
I0321 14:23:04.750676 13007 net.cpp:148] Top shape: 45 128 14 14 (1128960)
I0321 14:23:04.750684 13007 net.cpp:156] Memory required for data: 1942126564
I0321 14:23:04.750710 13007 layer_factory.hpp:77] Creating layer inception_4c/relu_3x3_reduce
I0321 14:23:04.750723 13007 net.cpp:91] Creating Layer inception_4c/relu_3x3_reduce
I0321 14:23:04.750733 13007 net.cpp:425] inception_4c/relu_3x3_reduce <- inception_4c/3x3_reduce
I0321 14:23:04.750744 13007 net.cpp:386] inception_4c/relu_3x3_reduce -> inception_4c/3x3_reduce (in-place)
I0321 14:23:04.750916 13007 net.cpp:141] Setting up inception_4c/relu_3x3_reduce
I0321 14:23:04.750931 13007 net.cpp:148] Top shape: 45 128 14 14 (1128960)
I0321 14:23:04.750938 13007 net.cpp:156] Memory required for data: 1946642404
I0321 14:23:04.750946 13007 layer_factory.hpp:77] Creating layer inception_4c/3x3
I0321 14:23:04.750962 13007 net.cpp:91] Creating Layer inception_4c/3x3
I0321 14:23:04.750972 13007 net.cpp:425] inception_4c/3x3 <- inception_4c/3x3_reduce
I0321 14:23:04.750983 13007 net.cpp:399] inception_4c/3x3 -> inception_4c/3x3
I0321 14:23:04.754148 13007 net.cpp:141] Setting up inception_4c/3x3
I0321 14:23:04.754166 13007 net.cpp:148] Top shape: 45 256 14 14 (2257920)
I0321 14:23:04.754179 13007 net.cpp:156] Memory required for data: 1955674084
I0321 14:23:04.754191 13007 layer_factory.hpp:77] Creating layer inception_4c/relu_3x3
I0321 14:23:04.754204 13007 net.cpp:91] Creating Layer inception_4c/relu_3x3
I0321 14:23:04.754214 13007 net.cpp:425] inception_4c/relu_3x3 <- inception_4c/3x3
I0321 14:23:04.754225 13007 net.cpp:386] inception_4c/relu_3x3 -> inception_4c/3x3 (in-place)
I0321 14:23:04.754528 13007 net.cpp:141] Setting up inception_4c/relu_3x3
I0321 14:23:04.754547 13007 net.cpp:148] Top shape: 45 256 14 14 (2257920)
I0321 14:23:04.754556 13007 net.cpp:156] Memory required for data: 1964705764
I0321 14:23:04.754565 13007 layer_factory.hpp:77] Creating layer inception_4c/5x5_reduce
I0321 14:23:04.754581 13007 net.cpp:91] Creating Layer inception_4c/5x5_reduce
I0321 14:23:04.754593 13007 net.cpp:425] inception_4c/5x5_reduce <- inception_4b/output_inception_4b/output_0_split_2
I0321 14:23:04.754607 13007 net.cpp:399] inception_4c/5x5_reduce -> inception_4c/5x5_reduce
I0321 14:23:04.755619 13007 net.cpp:141] Setting up inception_4c/5x5_reduce
I0321 14:23:04.755638 13007 net.cpp:148] Top shape: 45 24 14 14 (211680)
I0321 14:23:04.755647 13007 net.cpp:156] Memory required for data: 1965552484
I0321 14:23:04.755661 13007 layer_factory.hpp:77] Creating layer inception_4c/relu_5x5_reduce
I0321 14:23:04.755676 13007 net.cpp:91] Creating Layer inception_4c/relu_5x5_reduce
I0321 14:23:04.755686 13007 net.cpp:425] inception_4c/relu_5x5_reduce <- inception_4c/5x5_reduce
I0321 14:23:04.755697 13007 net.cpp:386] inception_4c/relu_5x5_reduce -> inception_4c/5x5_reduce (in-place)
I0321 14:23:04.756011 13007 net.cpp:141] Setting up inception_4c/relu_5x5_reduce
I0321 14:23:04.756028 13007 net.cpp:148] Top shape: 45 24 14 14 (211680)
I0321 14:23:04.756039 13007 net.cpp:156] Memory required for data: 1966399204
I0321 14:23:04.756049 13007 layer_factory.hpp:77] Creating layer inception_4c/5x5
I0321 14:23:04.756067 13007 net.cpp:91] Creating Layer inception_4c/5x5
I0321 14:23:04.756078 13007 net.cpp:425] inception_4c/5x5 <- inception_4c/5x5_reduce
I0321 14:23:04.756108 13007 net.cpp:399] inception_4c/5x5 -> inception_4c/5x5
I0321 14:23:04.757829 13007 net.cpp:141] Setting up inception_4c/5x5
I0321 14:23:04.757849 13007 net.cpp:148] Top shape: 45 64 14 14 (564480)
I0321 14:23:04.757858 13007 net.cpp:156] Memory required for data: 1968657124
I0321 14:23:04.757870 13007 layer_factory.hpp:77] Creating layer inception_4c/relu_5x5
I0321 14:23:04.757881 13007 net.cpp:91] Creating Layer inception_4c/relu_5x5
I0321 14:23:04.757890 13007 net.cpp:425] inception_4c/relu_5x5 <- inception_4c/5x5
I0321 14:23:04.757900 13007 net.cpp:386] inception_4c/relu_5x5 -> inception_4c/5x5 (in-place)
I0321 14:23:04.758081 13007 net.cpp:141] Setting up inception_4c/relu_5x5
I0321 14:23:04.758096 13007 net.cpp:148] Top shape: 45 64 14 14 (564480)
I0321 14:23:04.758105 13007 net.cpp:156] Memory required for data: 1970915044
I0321 14:23:04.758116 13007 layer_factory.hpp:77] Creating layer inception_4c/pool
I0321 14:23:04.758128 13007 net.cpp:91] Creating Layer inception_4c/pool
I0321 14:23:04.758137 13007 net.cpp:425] inception_4c/pool <- inception_4b/output_inception_4b/output_0_split_3
I0321 14:23:04.758148 13007 net.cpp:399] inception_4c/pool -> inception_4c/pool
I0321 14:23:04.758206 13007 net.cpp:141] Setting up inception_4c/pool
I0321 14:23:04.758220 13007 net.cpp:148] Top shape: 45 512 14 14 (4515840)
I0321 14:23:04.758229 13007 net.cpp:156] Memory required for data: 1988978404
I0321 14:23:04.758236 13007 layer_factory.hpp:77] Creating layer inception_4c/pool_proj
I0321 14:23:04.758251 13007 net.cpp:91] Creating Layer inception_4c/pool_proj
I0321 14:23:04.758262 13007 net.cpp:425] inception_4c/pool_proj <- inception_4c/pool
I0321 14:23:04.758275 13007 net.cpp:399] inception_4c/pool_proj -> inception_4c/pool_proj
I0321 14:23:04.760609 13007 net.cpp:141] Setting up inception_4c/pool_proj
I0321 14:23:04.760629 13007 net.cpp:148] Top shape: 45 64 14 14 (564480)
I0321 14:23:04.760638 13007 net.cpp:156] Memory required for data: 1991236324
I0321 14:23:04.760649 13007 layer_factory.hpp:77] Creating layer inception_4c/relu_pool_proj
I0321 14:23:04.760663 13007 net.cpp:91] Creating Layer inception_4c/relu_pool_proj
I0321 14:23:04.760671 13007 net.cpp:425] inception_4c/relu_pool_proj <- inception_4c/pool_proj
I0321 14:23:04.760684 13007 net.cpp:386] inception_4c/relu_pool_proj -> inception_4c/pool_proj (in-place)
I0321 14:23:04.760977 13007 net.cpp:141] Setting up inception_4c/relu_pool_proj
I0321 14:23:04.760996 13007 net.cpp:148] Top shape: 45 64 14 14 (564480)
I0321 14:23:04.761004 13007 net.cpp:156] Memory required for data: 1993494244
I0321 14:23:04.761013 13007 layer_factory.hpp:77] Creating layer inception_4c/output
I0321 14:23:04.761023 13007 net.cpp:91] Creating Layer inception_4c/output
I0321 14:23:04.761032 13007 net.cpp:425] inception_4c/output <- inception_4c/1x1
I0321 14:23:04.761042 13007 net.cpp:425] inception_4c/output <- inception_4c/3x3
I0321 14:23:04.761051 13007 net.cpp:425] inception_4c/output <- inception_4c/5x5
I0321 14:23:04.761060 13007 net.cpp:425] inception_4c/output <- inception_4c/pool_proj
I0321 14:23:04.761071 13007 net.cpp:399] inception_4c/output -> inception_4c/output
I0321 14:23:04.761111 13007 net.cpp:141] Setting up inception_4c/output
I0321 14:23:04.761123 13007 net.cpp:148] Top shape: 45 512 14 14 (4515840)
I0321 14:23:04.761132 13007 net.cpp:156] Memory required for data: 2011557604
I0321 14:23:04.761139 13007 layer_factory.hpp:77] Creating layer inception_4c/output_inception_4c/output_0_split
I0321 14:23:04.761152 13007 net.cpp:91] Creating Layer inception_4c/output_inception_4c/output_0_split
I0321 14:23:04.761162 13007 net.cpp:425] inception_4c/output_inception_4c/output_0_split <- inception_4c/output
I0321 14:23:04.761171 13007 net.cpp:399] inception_4c/output_inception_4c/output_0_split -> inception_4c/output_inception_4c/output_0_split_0
I0321 14:23:04.761234 13007 net.cpp:399] inception_4c/output_inception_4c/output_0_split -> inception_4c/output_inception_4c/output_0_split_1
I0321 14:23:04.761250 13007 net.cpp:399] inception_4c/output_inception_4c/output_0_split -> inception_4c/output_inception_4c/output_0_split_2
I0321 14:23:04.761279 13007 net.cpp:399] inception_4c/output_inception_4c/output_0_split -> inception_4c/output_inception_4c/output_0_split_3
I0321 14:23:04.761371 13007 net.cpp:141] Setting up inception_4c/output_inception_4c/output_0_split
I0321 14:23:04.761385 13007 net.cpp:148] Top shape: 45 512 14 14 (4515840)
I0321 14:23:04.761394 13007 net.cpp:148] Top shape: 45 512 14 14 (4515840)
I0321 14:23:04.761404 13007 net.cpp:148] Top shape: 45 512 14 14 (4515840)
I0321 14:23:04.761411 13007 net.cpp:148] Top shape: 45 512 14 14 (4515840)
I0321 14:23:04.761420 13007 net.cpp:156] Memory required for data: 2083811044
I0321 14:23:04.761426 13007 layer_factory.hpp:77] Creating layer inception_4d/1x1
I0321 14:23:04.761442 13007 net.cpp:91] Creating Layer inception_4d/1x1
I0321 14:23:04.761452 13007 net.cpp:425] inception_4d/1x1 <- inception_4c/output_inception_4c/output_0_split_0
I0321 14:23:04.761466 13007 net.cpp:399] inception_4d/1x1 -> inception_4d/1x1
I0321 14:23:04.762801 13007 net.cpp:141] Setting up inception_4d/1x1
I0321 14:23:04.762823 13007 net.cpp:148] Top shape: 45 112 14 14 (987840)
I0321 14:23:04.762833 13007 net.cpp:156] Memory required for data: 2087762404
I0321 14:23:04.762847 13007 layer_factory.hpp:77] Creating layer inception_4d/relu_1x1
I0321 14:23:04.762862 13007 net.cpp:91] Creating Layer inception_4d/relu_1x1
I0321 14:23:04.762873 13007 net.cpp:425] inception_4d/relu_1x1 <- inception_4d/1x1
I0321 14:23:04.762888 13007 net.cpp:386] inception_4d/relu_1x1 -> inception_4d/1x1 (in-place)
I0321 14:23:04.763312 13007 net.cpp:141] Setting up inception_4d/relu_1x1
I0321 14:23:04.763331 13007 net.cpp:148] Top shape: 45 112 14 14 (987840)
I0321 14:23:04.763340 13007 net.cpp:156] Memory required for data: 2091713764
I0321 14:23:04.763350 13007 layer_factory.hpp:77] Creating layer inception_4d/3x3_reduce
I0321 14:23:04.763366 13007 net.cpp:91] Creating Layer inception_4d/3x3_reduce
I0321 14:23:04.763378 13007 net.cpp:425] inception_4d/3x3_reduce <- inception_4c/output_inception_4c/output_0_split_1
I0321 14:23:04.763391 13007 net.cpp:399] inception_4d/3x3_reduce -> inception_4d/3x3_reduce
I0321 14:23:04.764880 13007 net.cpp:141] Setting up inception_4d/3x3_reduce
I0321 14:23:04.764899 13007 net.cpp:148] Top shape: 45 144 14 14 (1270080)
I0321 14:23:04.764909 13007 net.cpp:156] Memory required for data: 2096794084
I0321 14:23:04.764919 13007 layer_factory.hpp:77] Creating layer inception_4d/relu_3x3_reduce
I0321 14:23:04.764933 13007 net.cpp:91] Creating Layer inception_4d/relu_3x3_reduce
I0321 14:23:04.764942 13007 net.cpp:425] inception_4d/relu_3x3_reduce <- inception_4d/3x3_reduce
I0321 14:23:04.764952 13007 net.cpp:386] inception_4d/relu_3x3_reduce -> inception_4d/3x3_reduce (in-place)
I0321 14:23:04.765132 13007 net.cpp:141] Setting up inception_4d/relu_3x3_reduce
I0321 14:23:04.765147 13007 net.cpp:148] Top shape: 45 144 14 14 (1270080)
I0321 14:23:04.765156 13007 net.cpp:156] Memory required for data: 2101874404
I0321 14:23:04.765163 13007 layer_factory.hpp:77] Creating layer inception_4d/3x3
I0321 14:23:04.765179 13007 net.cpp:91] Creating Layer inception_4d/3x3
I0321 14:23:04.765189 13007 net.cpp:425] inception_4d/3x3 <- inception_4d/3x3_reduce
I0321 14:23:04.765202 13007 net.cpp:399] inception_4d/3x3 -> inception_4d/3x3
I0321 14:23:04.768846 13007 net.cpp:141] Setting up inception_4d/3x3
I0321 14:23:04.768870 13007 net.cpp:148] Top shape: 45 288 14 14 (2540160)
I0321 14:23:04.768880 13007 net.cpp:156] Memory required for data: 2112035044
I0321 14:23:04.768892 13007 layer_factory.hpp:77] Creating layer inception_4d/relu_3x3
I0321 14:23:04.768903 13007 net.cpp:91] Creating Layer inception_4d/relu_3x3
I0321 14:23:04.768913 13007 net.cpp:425] inception_4d/relu_3x3 <- inception_4d/3x3
I0321 14:23:04.768923 13007 net.cpp:386] inception_4d/relu_3x3 -> inception_4d/3x3 (in-place)
I0321 14:23:04.769220 13007 net.cpp:141] Setting up inception_4d/relu_3x3
I0321 14:23:04.769238 13007 net.cpp:148] Top shape: 45 288 14 14 (2540160)
I0321 14:23:04.769248 13007 net.cpp:156] Memory required for data: 2122195684
I0321 14:23:04.769274 13007 layer_factory.hpp:77] Creating layer inception_4d/5x5_reduce
I0321 14:23:04.769304 13007 net.cpp:91] Creating Layer inception_4d/5x5_reduce
I0321 14:23:04.769316 13007 net.cpp:425] inception_4d/5x5_reduce <- inception_4c/output_inception_4c/output_0_split_2
I0321 14:23:04.769332 13007 net.cpp:399] inception_4d/5x5_reduce -> inception_4d/5x5_reduce
I0321 14:23:04.770411 13007 net.cpp:141] Setting up inception_4d/5x5_reduce
I0321 14:23:04.770431 13007 net.cpp:148] Top shape: 45 32 14 14 (282240)
I0321 14:23:04.770442 13007 net.cpp:156] Memory required for data: 2123324644
I0321 14:23:04.770452 13007 layer_factory.hpp:77] Creating layer inception_4d/relu_5x5_reduce
I0321 14:23:04.770463 13007 net.cpp:91] Creating Layer inception_4d/relu_5x5_reduce
I0321 14:23:04.770473 13007 net.cpp:425] inception_4d/relu_5x5_reduce <- inception_4d/5x5_reduce
I0321 14:23:04.770483 13007 net.cpp:386] inception_4d/relu_5x5_reduce -> inception_4d/5x5_reduce (in-place)
I0321 14:23:04.770786 13007 net.cpp:141] Setting up inception_4d/relu_5x5_reduce
I0321 14:23:04.770803 13007 net.cpp:148] Top shape: 45 32 14 14 (282240)
I0321 14:23:04.770812 13007 net.cpp:156] Memory required for data: 2124453604
I0321 14:23:04.770820 13007 layer_factory.hpp:77] Creating layer inception_4d/5x5
I0321 14:23:04.770835 13007 net.cpp:91] Creating Layer inception_4d/5x5
I0321 14:23:04.770846 13007 net.cpp:425] inception_4d/5x5 <- inception_4d/5x5_reduce
I0321 14:23:04.770859 13007 net.cpp:399] inception_4d/5x5 -> inception_4d/5x5
I0321 14:23:04.772269 13007 net.cpp:141] Setting up inception_4d/5x5
I0321 14:23:04.772289 13007 net.cpp:148] Top shape: 45 64 14 14 (564480)
I0321 14:23:04.772297 13007 net.cpp:156] Memory required for data: 2126711524
I0321 14:23:04.772308 13007 layer_factory.hpp:77] Creating layer inception_4d/relu_5x5
I0321 14:23:04.772320 13007 net.cpp:91] Creating Layer inception_4d/relu_5x5
I0321 14:23:04.772330 13007 net.cpp:425] inception_4d/relu_5x5 <- inception_4d/5x5
I0321 14:23:04.772343 13007 net.cpp:386] inception_4d/relu_5x5 -> inception_4d/5x5 (in-place)
I0321 14:23:04.772521 13007 net.cpp:141] Setting up inception_4d/relu_5x5
I0321 14:23:04.772536 13007 net.cpp:148] Top shape: 45 64 14 14 (564480)
I0321 14:23:04.772543 13007 net.cpp:156] Memory required for data: 2128969444
I0321 14:23:04.772552 13007 layer_factory.hpp:77] Creating layer inception_4d/pool
I0321 14:23:04.772565 13007 net.cpp:91] Creating Layer inception_4d/pool
I0321 14:23:04.772575 13007 net.cpp:425] inception_4d/pool <- inception_4c/output_inception_4c/output_0_split_3
I0321 14:23:04.772589 13007 net.cpp:399] inception_4d/pool -> inception_4d/pool
I0321 14:23:04.772665 13007 net.cpp:141] Setting up inception_4d/pool
I0321 14:23:04.772685 13007 net.cpp:148] Top shape: 45 512 14 14 (4515840)
I0321 14:23:04.772694 13007 net.cpp:156] Memory required for data: 2147032804
I0321 14:23:04.772703 13007 layer_factory.hpp:77] Creating layer inception_4d/pool_proj
I0321 14:23:04.772721 13007 net.cpp:91] Creating Layer inception_4d/pool_proj
I0321 14:23:04.772730 13007 net.cpp:425] inception_4d/pool_proj <- inception_4d/pool
I0321 14:23:04.772742 13007 net.cpp:399] inception_4d/pool_proj -> inception_4d/pool_proj
I0321 14:23:04.774044 13007 net.cpp:141] Setting up inception_4d/pool_proj
I0321 14:23:04.774063 13007 net.cpp:148] Top shape: 45 64 14 14 (564480)
I0321 14:23:04.774072 13007 net.cpp:156] Memory required for data: 2149290724
I0321 14:23:04.774083 13007 layer_factory.hpp:77] Creating layer inception_4d/relu_pool_proj
I0321 14:23:04.774094 13007 net.cpp:91] Creating Layer inception_4d/relu_pool_proj
I0321 14:23:04.774103 13007 net.cpp:425] inception_4d/relu_pool_proj <- inception_4d/pool_proj
I0321 14:23:04.774114 13007 net.cpp:386] inception_4d/relu_pool_proj -> inception_4d/pool_proj (in-place)
I0321 14:23:04.774413 13007 net.cpp:141] Setting up inception_4d/relu_pool_proj
I0321 14:23:04.774431 13007 net.cpp:148] Top shape: 45 64 14 14 (564480)
I0321 14:23:04.774441 13007 net.cpp:156] Memory required for data: 2151548644
I0321 14:23:04.774463 13007 layer_factory.hpp:77] Creating layer inception_4d/output
I0321 14:23:04.774476 13007 net.cpp:91] Creating Layer inception_4d/output
I0321 14:23:04.774484 13007 net.cpp:425] inception_4d/output <- inception_4d/1x1
I0321 14:23:04.774494 13007 net.cpp:425] inception_4d/output <- inception_4d/3x3
I0321 14:23:04.774503 13007 net.cpp:425] inception_4d/output <- inception_4d/5x5
I0321 14:23:04.774513 13007 net.cpp:425] inception_4d/output <- inception_4d/pool_proj
I0321 14:23:04.774524 13007 net.cpp:399] inception_4d/output -> inception_4d/output
I0321 14:23:04.774566 13007 net.cpp:141] Setting up inception_4d/output
I0321 14:23:04.774581 13007 net.cpp:148] Top shape: 45 528 14 14 (4656960)
I0321 14:23:04.774590 13007 net.cpp:156] Memory required for data: 2170176484
I0321 14:23:04.774597 13007 layer_factory.hpp:77] Creating layer loss2/ave_pool
I0321 14:23:04.774607 13007 net.cpp:91] Creating Layer loss2/ave_pool
I0321 14:23:04.774616 13007 net.cpp:425] loss2/ave_pool <- inception_4d/output
I0321 14:23:04.774626 13007 net.cpp:399] loss2/ave_pool -> loss2/ave_pool
I0321 14:23:04.774832 13007 net.cpp:141] Setting up loss2/ave_pool
I0321 14:23:04.774847 13007 net.cpp:148] Top shape: 45 528 4 4 (380160)
I0321 14:23:04.774855 13007 net.cpp:156] Memory required for data: 2171697124
I0321 14:23:04.774863 13007 layer_factory.hpp:77] Creating layer loss2/conv
I0321 14:23:04.774878 13007 net.cpp:91] Creating Layer loss2/conv
I0321 14:23:04.774888 13007 net.cpp:425] loss2/conv <- loss2/ave_pool
I0321 14:23:04.774900 13007 net.cpp:399] loss2/conv -> loss2/conv
I0321 14:23:04.776744 13007 net.cpp:141] Setting up loss2/conv
I0321 14:23:04.776764 13007 net.cpp:148] Top shape: 45 128 4 4 (92160)
I0321 14:23:04.776773 13007 net.cpp:156] Memory required for data: 2172065764
I0321 14:23:04.776784 13007 layer_factory.hpp:77] Creating layer loss2/relu_conv
I0321 14:23:04.776798 13007 net.cpp:91] Creating Layer loss2/relu_conv
I0321 14:23:04.776806 13007 net.cpp:425] loss2/relu_conv <- loss2/conv
I0321 14:23:04.776816 13007 net.cpp:386] loss2/relu_conv -> loss2/conv (in-place)
I0321 14:23:04.776994 13007 net.cpp:141] Setting up loss2/relu_conv
I0321 14:23:04.777009 13007 net.cpp:148] Top shape: 45 128 4 4 (92160)
I0321 14:23:04.777017 13007 net.cpp:156] Memory required for data: 2172434404
I0321 14:23:04.777025 13007 layer_factory.hpp:77] Creating layer loss2/fc
I0321 14:23:04.777040 13007 net.cpp:91] Creating Layer loss2/fc
I0321 14:23:04.777048 13007 net.cpp:425] loss2/fc <- loss2/conv
I0321 14:23:04.777060 13007 net.cpp:399] loss2/fc -> loss2/fc
I0321 14:23:04.791059 13007 net.cpp:141] Setting up loss2/fc
I0321 14:23:04.791098 13007 net.cpp:148] Top shape: 45 1024 (46080)
I0321 14:23:04.791107 13007 net.cpp:156] Memory required for data: 2172618724
I0321 14:23:04.791122 13007 layer_factory.hpp:77] Creating layer loss2/relu_fc
I0321 14:23:04.791139 13007 net.cpp:91] Creating Layer loss2/relu_fc
I0321 14:23:04.791151 13007 net.cpp:425] loss2/relu_fc <- loss2/fc
I0321 14:23:04.791162 13007 net.cpp:386] loss2/relu_fc -> loss2/fc (in-place)
I0321 14:23:04.791604 13007 net.cpp:141] Setting up loss2/relu_fc
I0321 14:23:04.791621 13007 net.cpp:148] Top shape: 45 1024 (46080)
I0321 14:23:04.791630 13007 net.cpp:156] Memory required for data: 2172803044
I0321 14:23:04.791638 13007 layer_factory.hpp:77] Creating layer loss2/drop_fc
I0321 14:23:04.791651 13007 net.cpp:91] Creating Layer loss2/drop_fc
I0321 14:23:04.791661 13007 net.cpp:425] loss2/drop_fc <- loss2/fc
I0321 14:23:04.791671 13007 net.cpp:386] loss2/drop_fc -> loss2/fc (in-place)
I0321 14:23:04.791713 13007 net.cpp:141] Setting up loss2/drop_fc
I0321 14:23:04.791726 13007 net.cpp:148] Top shape: 45 1024 (46080)
I0321 14:23:04.791734 13007 net.cpp:156] Memory required for data: 2172987364
I0321 14:23:04.791743 13007 layer_factory.hpp:77] Creating layer loss2/classifier_gnet
I0321 14:23:04.791756 13007 net.cpp:91] Creating Layer loss2/classifier_gnet
I0321 14:23:04.791764 13007 net.cpp:425] loss2/classifier_gnet <- loss2/fc
I0321 14:23:04.791775 13007 net.cpp:399] loss2/classifier_gnet -> loss2/classifier_gnet
I0321 14:23:04.805738 13007 net.cpp:141] Setting up loss2/classifier_gnet
I0321 14:23:04.805780 13007 net.cpp:148] Top shape: 45 2048 (92160)
I0321 14:23:04.805790 13007 net.cpp:156] Memory required for data: 2173356004
I0321 14:23:04.805804 13007 layer_factory.hpp:77] Creating layer loss2/feat
I0321 14:23:04.805822 13007 net.cpp:91] Creating Layer loss2/feat
I0321 14:23:04.805835 13007 net.cpp:425] loss2/feat <- loss2/classifier_gnet
I0321 14:23:04.805847 13007 net.cpp:399] loss2/feat -> loss2/feat
I0321 14:23:04.806079 13007 net.cpp:141] Setting up loss2/feat
I0321 14:23:04.806093 13007 net.cpp:148] Top shape: 45 6 (270)
I0321 14:23:04.806102 13007 net.cpp:156] Memory required for data: 2173357084
I0321 14:23:04.806113 13007 layer_factory.hpp:77] Creating layer loss2/loss
I0321 14:23:04.806123 13007 net.cpp:91] Creating Layer loss2/loss
I0321 14:23:04.806133 13007 net.cpp:425] loss2/loss <- loss2/feat
I0321 14:23:04.806141 13007 net.cpp:425] loss2/loss <- label_label_0_split_1
I0321 14:23:04.806152 13007 net.cpp:399] loss2/loss -> loss2/loss1
…
I0321 14:23:04.811506 13007 net.cpp:49] Initializing net from parameters: 
name: "GNet"
state {
  phase: TEST
}
layer {
  name: "data"
  type: "ImageData"
  top: "data"
  include {
    phase: TEST
  }
  transform_param {
    mirror: false
    crop_size: 224
    mean_value: 104
    mean_value: 117
    mean_value: 123
  }
  image_data_param {
    source: "/media/hdd3/gnet/data/test.txt"
    batch_size: 5
  }
}
layer {
  name: "label"
  type: "Data"
  top: "label"
  include {
    phase: TEST
  }
  data_param {
    source: "/media/hdd3/gnet/data/test"
    batch_size: 5
    backend: LMDB
  }
}
layer {
  name: "conv1/7x7_s2"
  type: "Convolution"
  bottom: "data"
  top: "conv1/7x7_s2"
  param {
    lr_mult: 1
    decay_mult: 1
  }
  param {
    lr_mult: 2
    decay_mult: 0
  }
  convolution_param {
    num_output: 64
    pad: 3
    kernel_size: 7
    stride: 2
    weight_filler {
      type: "xavier"
    }
    bias_filler {
      type: "constant"
      value: 0.2
    }
  }
}
layer {
  name: "conv1/relu_7x7"
  type: "ReLU"
  bottom: "conv1/7x7_s2"
  top: "conv1/7x7_s2"
}
layer {
  name: "pool1/3x3_s2"
  type: "Pooling"
  bottom: "conv1/7x7_s2"
  top: "pool1/3x3_s2"
  pooling_param {
    pool: MAX
    kernel_size: 3
    stride: 2
  }
}
layer {
  name: "pool1/norm1"
  type: "LRN"
  bottom: "pool1/3x3_s2"
  top: "pool1/norm1"
  lrn_param {
    local_size: 5
    alpha: 0.0001
    beta: 0.75
  }
}
layer {
  name: "conv2/3x3_reduce"
  type: "Convolution"
  bottom: "pool1/norm1"
  top: "conv2/3x3_reduce"
  param {
    lr_mult: 1
    decay_mult: 1
  }
  param {
    lr_mult: 2
    decay_mult: 0
  }
  convolution_param {
    num_output: 64
    kernel_size: 1
    weight_filler {
      type: "xavier"
    }
    bias_filler {
      type: "constant"
      value: 0.2
    }
  }
}
layer {
  name: "conv2/relu_3x3_reduce"
  type: "ReLU"
  bottom: "conv2/3x3_reduce"
  top: "conv2/3x3_reduce"
}
layer {
  name: "conv2/3x3"
  type: "Convolution"
  bottom: "conv2/3x3_reduce"
  top: "conv2/3x3"
  param {
    lr_mult: 1
    decay_mult: 1
  }
  param {
    lr_mult: 2
    decay_mult: 0
  }
  convolution_param {
    num_output: 192
    pad: 1
    kernel_size: 3
    weight_filler {
      type: "xavier"
    }
    bias_filler {
      type: "constant"
      value: 0.2
    }
  }
}
layer {
  name: "conv2/relu_3x3"
  type: "ReLU"
  bottom: "conv2/3x3"
  top: "conv2/3x3"
}
layer {
  name: "conv2/norm2"
  type: "LRN"
  bottom: "conv2/3x3"
  top: "conv2/norm2"
  lrn_param {
    local_size: 5
    alpha: 0.0001
    beta: 0.75
  }
}
layer {
  name: "pool2/3x3_s2"
  type: "Pooling"
  bottom: "conv2/norm2"
  top: "pool2/3x3_s2"
  pooling_param {
    pool: MAX
    kernel_size: 3
    stride: 2
  }
}
layer {
  name: "inception_3a/1x1"
  type: "Convolution"
  bottom: "pool2/3x3_s2"
  top: "inception_3a/1x1"
  param {
    lr_mult: 1
    decay_mult: 1
  }
  param {
    lr_mult: 2
    decay_mult: 0
  }
  convolution_param {
    num_output: 64
    kernel_size: 1
    weight_filler {
      type: "xavier"
    }
    bias_filler {
      type: "constant"
      value: 0.2
    }
  }
}
layer {
  name: "inception_3a/relu_1x1"
  type: "ReLU"
  bottom: "inception_3a/1x1"
  top: "inception_3a/1x1"
}
layer {
  name: "inception_3a/3x3_reduce"
  type: "Convolution"
  bottom: "pool2/3x3_s2"
  top: "inception_3a/3x3_reduce"
  param {
    lr_mult: 1
    decay_mult: 1
  }
  param {
    lr_mult: 2
    decay_mult: 0
  }
  convolution_param {
    num_output: 96
    kernel_size: 1
    weight_filler {
      type: "xavier"
    }
    bias_filler {
      type: "constant"
      value: 0.2
    }
  }
}
layer {
  name: "inception_3a/relu_3x3_reduce"
  type: "ReLU"
  bottom: "inception_3a/3x3_reduce"
  top: "inception_3a/3x3_reduce"
}
layer {
  name: "inception_3a/3x3"
  type: "Convolution"
  bottom: "inception_3a/3x3_reduce"
  top: "inception_3a/3x3"
  param {
    lr_mult: 1
    decay_mult: 1
  }
  param {
    lr_mult: 2
    decay_mult: 0
  }
  convolution_param {
    num_output: 128
    pad: 1
    kernel_size: 3
    weight_filler {
      type: "xavier"
    }
    bias_filler {
      type: "constant"
      value: 0.2
    }
  }
}
layer {
  name: "inception_3a/relu_3x3"
  type: "ReLU"
  bottom: "inception_3a/3x3"
  top: "inception_3a/3x3"
}
layer {
  name: "inception_3a/5x5_reduce"
  type: "Convolution"
  bottom: "pool2/3x3_s2"
  top: "inception_3a/5x5_reduce"
  param {
    lr_mult: 1
    decay_mult: 1
  }
  param {
    lr_mult: 2
    decay_mult: 0
  }
  convolution_param {
    num_output: 16
    kernel_size: 1
    weight_filler {
      type: "xavier"
    }
    bias_filler {
      type: "constant"
      value: 0.2
    }
  }
}
layer {
  name: "inception_3a/relu_5x5_reduce"
  type: "ReLU"
  bottom: "inception_3a/5x5_reduce"
  top: "inception_3a/5x5_reduce"
}
layer {
  name: "inception_3a/5x5"
  type: "Convolution"
  bottom: "inception_3a/5x5_reduce"
  top: "inception_3a/5x5"
  param {
    lr_mult: 1
    decay_mult: 1
  }
  param {
    lr_mult: 2
    decay_mult: 0
  }
  convolution_param {
    num_output: 32
    pad: 2
    kernel_size: 5
    weight_filler {
      type: "xavier"
    }
    bias_filler {
      type: "constant"
      value: 0.2
    }
  }
}
layer {
  name: "inception_3a/relu_5x5"
  type: "ReLU"
  bottom: "inception_3a/5x5"
  top: "inception_3a/5x5"
}
layer {
  name: "inception_3a/pool"
  type: "Pooling"
  bottom: "pool2/3x3_s2"
  top: "inception_3a/pool"
  pooling_param {
    pool: MAX
    kernel_size: 3
    stride: 1
    pad: 1
  }
}
layer {
  name: "inception_3a/pool_proj"
  type: "Convolution"
  bottom: "inception_3a/pool"
  top: "inception_3a/pool_proj"
  param {
    lr_mult: 1
    decay_mult: 1
  }
  param {
    lr_mult: 2
    decay_mult: 0
  }
  convolution_param {
    num_output: 32
    kernel_size: 1
    weight_filler {
      type: "xavier"
    }
    bias_filler {
      type: "constant"
      value: 0.2
    }
  }
}
layer {
  name: "inception_3a/relu_pool_proj"
  type: "ReLU"
  bottom: "inception_3a/pool_proj"
  top: "inception_3a/pool_proj"
}
layer {
  name: "inception_3a/output"
  type: "Concat"
  bottom: "inception_3a/1x1"
  bottom: "inception_3a/3x3"
  bottom: "inception_3a/5x5"
  bottom: "inception_3a/pool_proj"
  top: "inception_3a/output"
}
layer {
  name: "inception_3b/1x1"
  type: "Convolution"
  bottom: "inception_3a/output"
  top: "inception_3b/1x1"
  param {
    lr_mult: 1
    decay_mult: 1
  }
  param {
    lr_mult: 2
    decay_mult: 0
  }
  convolution_param {
    num_output: 128
    kernel_size: 1
    weight_filler {
      type: "xavier"
    }
    bias_filler {
      type: "constant"
      value: 0.2
    }
  }
}
layer {
  name: "inception_3b/relu_1x1"
  type: "ReLU"
  bottom: "inception_3b/1x1"
  top: "inception_3b/1x1"
}
layer {
  name: "inception_3b/3x3_reduce"
  type: "Convolution"
  bottom: "inception_3a/output"
  top: "inception_3b/3x3_reduce"
  param {
    lr_mult: 1
    decay_mult: 1
  }
  param {
    lr_mult: 2
    decay_mult: 0
  }
  convolution_param {
    num_output: 128
    kernel_size: 1
    weight_filler {
      type: "xavier"
    }
    bias_filler {
      type: "constant"
      value: 0.2
    }
  }
}
layer {
  name: "inception_3b/relu_3x3_reduce"
  type: "ReLU"
  bottom: "inception_3b/3x3_reduce"
  top: "inception_3b/3x3_reduce"
}
layer {
  name: "inception_3b/3x3"
  type: "Convolution"
  bottom: "inception_3b/3x3_reduce"
  top: "inception_3b/3x3"
  param {
    lr_mult: 1
    decay_mult: 1
  }
  param {
    lr_mult: 2
    decay_mult: 0
  }
  convolution_param {
    num_output: 192
    pad: 1
    kernel_size: 3
    weight_filler {
      type: "xavier"
    }
    bias_filler {
      type: "constant"
      value: 0.2
    }
  }
}
layer {
  name: "inception_3b/relu_3x3"
  type: "ReLU"
  bottom: "inception_3b/3x3"
  top: "inception_3b/3x3"
}
layer {
  name: "inception_3b/5x5_reduce"
  type: "Convolution"
  bottom: "inception_3a/output"
  top: "inception_3b/5x5_reduce"
  param {
    lr_mult: 1
    decay_mult: 1
  }
  param {
    lr_mult: 2
    decay_mult: 0
  }
  convolution_param {
    num_output: 32
    kernel_size: 1
    weight_filler {
      type: "xavier"
    }
    bias_filler {
      type: "constant"
      value: 0.2
    }
  }
}
layer {
  name: "inception_3b/relu_5x5_reduce"
  type: "ReLU"
  bottom: "inception_3b/5x5_reduce"
  top: "inception_3b/5x5_reduce"
}
layer {
  name: "inception_3b/5x5"
  type: "Convolution"
  bottom: "inception_3b/5x5_reduce"
  top: "inception_3b/5x5"
  param {
    lr_mult: 1
    decay_mult: 1
  }
  param {
    lr_mult: 2
    decay_mult: 0
  }
  convolution_param {
    num_output: 96
    pad: 2
    kernel_size: 5
    weight_filler {
      type: "xavier"
    }
    bias_filler {
      type: "constant"
      value: 0.2
    }
  }
}
layer {
  name: "inception_3b/relu_5x5"
  type: "ReLU"
  bottom: "inception_3b/5x5"
  top: "inception_3b/5x5"
}
layer {
  name: "inception_3b/pool"
  type: "Pooling"
  bottom: "inception_3a/output"
  top: "inception_3b/pool"
  pooling_param {
    pool: MAX
    kernel_size: 3
    stride: 1
    pad: 1
  }
}
layer {
  name: "inception_3b/pool_proj"
  type: "Convolution"
  bottom: "inception_3b/pool"
  top: "inception_3b/pool_proj"
  param {
    lr_mult: 1
    decay_mult: 1
  }
  param {
    lr_mult: 2
    decay_mult: 0
  }
  convolution_param {
    num_output: 64
    kernel_size: 1
    weight_filler {
      type: "xavier"
    }
    bias_filler {
      type: "constant"
      value: 0.2
    }
  }
}
layer {
  name: "inception_3b/relu_pool_proj"
  type: "ReLU"
  bottom: "inception_3b/pool_proj"
  top: "inception_3b/pool_proj"
}
layer {
  name: "inception_3b/output"
  type: "Concat"
  bottom: "inception_3b/1x1"
  bottom: "inception_3b/3x3"
  bottom: "inception_3b/5x5"
  bottom: "inception_3b/pool_proj"
  top: "inception_3b/output"
}
layer {
  name: "pool3/3x3_s2"
  type: "Pooling"
  bottom: "inception_3b/output"
  top: "pool3/3x3_s2"
  pooling_param {
    pool: MAX
    kernel_size: 3
    stride: 2
  }
}
layer {
  name: "inception_4a/1x1"
  type: "Convolution"
  bottom: "pool3/3x3_s2"
  top: "inception_4a/1x1"
  param {
    lr_mult: 1
    decay_mult: 1
  }
  param {
    lr_mult: 2
    decay_mult: 0
  }
  convolution_param {
    num_output: 192
    kernel_size: 1
    weight_filler {
      type: "xavier"
    }
    bias_filler {
      type: "constant"
      value: 0.2
    }
  }
}
layer {
  name: "inception_4a/relu_1x1"
  type: "ReLU"
  bottom: "inception_4a/1x1"
  top: "inception_4a/1x1"
}
layer {
  name: "inception_4a/3x3_reduce"
  type: "Convolution"
  bottom: "pool3/3x3_s2"
  top: "inception_4a/3x3_reduce"
  param {
    lr_mult: 1
    decay_mult: 1
  }
  param {
    lr_mult: 2
    decay_mult: 0
  }
  convolution_param {
    num_output: 96
    kernel_size: 1
    weight_filler {
      type: "xavier"
    }
    bias_filler {
      type: "constant"
      value: 0.2
    }
  }
}
layer {
  name: "inception_4a/relu_3x3_reduce"
  type: "ReLU"
  bottom: "inception_4a/3x3_reduce"
  top: "inception_4a/3x3_reduce"
}
layer {
  name: "inception_4a/3x3"
  type: "Convolution"
  bottom: "inception_4a/3x3_reduce"
  top: "inception_4a/3x3"
  param {
    lr_mult: 1
    decay_mult: 1
  }
  param {
    lr_mult: 2
    decay_mult: 0
  }
  convolution_param {
    num_output: 208
    pad: 1
    kernel_size: 3
    weight_filler {
      type: "xavier"
    }
    bias_filler {
      type: "constant"
      value: 0.2
    }
  }
}
layer {
  name: "inception_4a/relu_3x3"
  type: "ReLU"
  bottom: "inception_4a/3x3"
  top: "inception_4a/3x3"
}
layer {
  name: "inception_4a/5x5_reduce"
  type: "Convolution"
  bottom: "pool3/3x3_s2"
  top: "inception_4a/5x5_reduce"
  param {
    lr_mult: 1
    decay_mult: 1
  }
  param {
    lr_mult: 2
    decay_mult: 0
  }
  convolution_param {
    num_output: 16
    kernel_size: 1
    weight_filler {
      type: "xavier"
    }
    bias_filler {
      type: "constant"
      value: 0.2
    }
  }
}
layer {
  name: "inception_4a/relu_5x5_reduce"
  type: "ReLU"
  bottom: "inception_4a/5x5_reduce"
  top: "inception_4a/5x5_reduce"
}
layer {
  name: "inception_4a/5x5"
  type: "Convolution"
  bottom: "inception_4a/5x5_reduce"
  top: "inception_4a/5x5"
  param {
    lr_mult: 1
    decay_mult: 1
  }
  param {
    lr_mult: 2
    decay_mult: 0
  }
  convolution_param {
    num_output: 48
    pad: 2
    kernel_size: 5
    weight_filler {
      type: "xavier"
    }
    bias_filler {
      type: "constant"
      value: 0.2
    }
  }
}
layer {
  name: "inception_4a/relu_5x5"
  type: "ReLU"
  bottom: "inception_4a/5x5"
  top: "inception_4a/5x5"
}
layer {
  name: "inception_4a/pool"
  type: "Pooling"
  bottom: "pool3/3x3_s2"
  top: "inception_4a/pool"
  pooling_param {
    pool: MAX
    kernel_size: 3
    stride: 1
    pad: 1
  }
}
layer {
  name: "inception_4a/pool_proj"
  type: "Convolution"
  bottom: "inception_4a/pool"
  top: "inception_4a/pool_proj"
  param {
    lr_mult: 1
    decay_mult: 1
  }
  param {
    lr_mult: 2
    decay_mult: 0
  }
  convolution_param {
    num_output: 64
    kernel_size: 1
    weight_filler {
      type: "xavier"
    }
    bias_filler {
      type: "constant"
      value: 0.2
    }
  }
}
layer {
  name: "inception_4a/relu_pool_proj"
  type: "ReLU"
  bottom: "inception_4a/pool_proj"
  top: "inception_4a/pool_proj"
}
layer {
  name: "inception_4a/output"
  type: "Concat"
  bottom: "inception_4a/1x1"
  bottom: "inception_4a/3x3"
  bottom: "inception_4a/5x5"
  bottom: "inception_4a/pool_proj"
  top: "inception_4a/output"
}
layer {
  name: "loss1/ave_pool"
  type: "Pooling"
  bottom: "inception_4a/output"
  top: "loss1/ave_pool"
  pooling_param {
    pool: AVE
    kernel_size: 5
    stride: 3
  }
}
layer {
  name: "loss1/conv"
  type: "Convolution"
  bottom: "loss1/ave_pool"
  top: "loss1/conv"
  param {
    lr_mult: 1
    decay_mult: 1
  }
  param {
    lr_mult: 2
    decay_mult: 0
  }
  convolution_param {
    num_output: 128
    kernel_size: 1
    weight_filler {
      type: "xavier"
    }
    bias_filler {
      type: "constant"
      value: 0.2
    }
  }
}
layer {
  name: "loss1/relu_conv"
  type: "ReLU"
  bottom: "loss1/conv"
  top: "loss1/conv"
}
layer {
  name: "loss1/fc"
  type: "InnerProduct"
  bottom: "loss1/conv"
  top: "loss1/fc"
  param {
    lr_mult: 1
    decay_mult: 1
  }
  param {
    lr_mult: 2
    decay_mult: 0
  }
  inner_product_param {
    num_output: 1024
    weight_filler {
      type: "xavier"
    }
    bias_filler {
      type: "constant"
      value: 0.2
    }
  }
}
layer {
  name: "loss1/relu_fc"
  type: "ReLU"
  bottom: "loss1/fc"
  top: "loss1/fc"
}
layer {
  name: "loss1/drop_fc"
  type: "Dropout"
  bottom: "loss1/fc"
  top: "loss1/fc"
  dropout_param {
    dropout_ratio: 0.7
  }
}
layer {
  name: "loss1/classifier_gnet"
  type: "InnerProduct"
  bottom: "loss1/fc"
  top: "loss1/classifier_gnet"
  param {
    lr_mult: 4
    decay_mult: 1
  }
  param {
    lr_mult: 8
    decay_mult: 0
  }
  inner_product_param {
    num_output: 2048
    weight_filler {
      type: "xavier"
    }
    bias_filler {
      type: "constant"
      value: 0
    }
  }
}
layer {
  name: "loss1/feat"
  type: "InnerProduct"
  bottom: "loss1/classifier_gnet"
  top: "loss1/feat"
  param {
    lr_mult: 5
    decay_mult: 1
  }
  param {
    lr_mult: 10
    decay_mult: 0
  }
  inner_product_param {
    num_output: 6
    weight_filler {
      type: "xavier"
    }
    bias_filler {
      type: "constant"
      value: 0
    }
  }
}
layer {
  name: "loss1/loss"
  type: "EuclideanLoss"
  bottom: "loss1/feat"
  bottom: "label"
  top: "loss1/loss1"
  loss_weight: 0.3
}
layer {
  name: "inception_4b/1x1"
  type: "Convolution"
  bottom: "inception_4a/output"
  top: "inception_4b/1x1"
  param {
    lr_mult: 1
    decay_mult: 1
  }
  param {
    lr_mult: 2
    decay_mult: 0
  }
  convolution_param {
    num_output: 160
    kernel_size: 1
    weight_filler {
      type: "xavier"
    }
    bias_filler {
      type: "constant"
      value: 0.2
    }
  }
}
layer {
  name: "inception_4b/relu_1x1"
  type: "ReLU"
  bottom: "inception_4b/1x1"
  top: "inception_4b/1x1"
}
layer {
  name: "inception_4b/3x3_reduce"
  type: "Convolution"
  bottom: "inception_4a/output"
  top: "inception_4b/3x3_reduce"
  param {
    lr_mult: 1
    decay_mult: 1
  }
  param {
    lr_mult: 2
    decay_mult: 0
  }
  convolution_param {
    num_output: 112
    kernel_size: 1
    weight_filler {
      type: "xavier"
    }
    bias_filler {
      type: "constant"
      value: 0.2
    }
  }
}
layer {
  name: "inception_4b/relu_3x3_reduce"
  type: "ReLU"
  bottom: "inception_4b/3x3_reduce"
  top: "inception_4b/3x3_reduce"
}
layer {
  name: "inception_4b/3x3"
  type: "Convolution"
  bottom: "inception_4b/3x3_reduce"
  top: "inception_4b/3x3"
  param {
    lr_mult: 1
    decay_mult: 1
  }
  param {
    lr_mult: 2
    decay_mult: 0
  }
  convolution_param {
    num_output: 224
    pad: 1
    kernel_size: 3
    weight_filler {
      type: "xavier"
    }
    bias_filler {
      type: "constant"
      value: 0.2
    }
  }
}
layer {
  name: "inception_4b/relu_3x3"
  type: "ReLU"
  bottom: "inception_4b/3x3"
  top: "inception_4b/3x3"
}
layer {
  name: "inception_4b/5x5_reduce"
  type: "Convolution"
  bottom: "inception_4a/output"
  top: "inception_4b/5x5_reduce"
  param {
    lr_mult: 1
    decay_mult: 1
  }
  param {
    lr_mult: 2
    decay_mult: 0
  }
  convolution_param {
    num_output: 24
    kernel_size: 1
    weight_filler {
      type: "xavier"
    }
    bias_filler {
      type: "constant"
      value: 0.2
    }
  }
}
layer {
  name: "inception_4b/relu_5x5_reduce"
  type: "ReLU"
  bottom: "inception_4b/5x5_reduce"
  top: "inception_4b/5x5_reduce"
}
layer {
  name: "inception_4b/5x5"
  type: "Convolution"
  bottom: "inception_4b/5x5_reduce"
  top: "inception_4b/5x5"
  param {
    lr_mult: 1
    decay_mult: 1
  }
  param {
    lr_mult: 2
    decay_mult: 0
  }
  convolution_param {
    num_output: 64
    pad: 2
    kernel_size: 5
    weight_filler {
      type: "xavier"
    }
    bias_filler {
      type: "constant"
      value: 0.2
    }
  }
}
layer {
  name: "inception_4b/relu_5x5"
  type: "ReLU"
  bottom: "inception_4b/5x5"
  top: "inception_4b/5x5"
}
layer {
  name: "inception_4b/pool"
  type: "Pooling"
  bottom: "inception_4a/output"
  top: "inception_4b/pool"
  pooling_param {
    pool: MAX
    kernel_size: 3
    stride: 1
    pad: 1
  }
}
layer {
  name: "inception_4b/pool_proj"
  type: "Convolution"
  bottom: "inception_4b/pool"
  top: "inception_4b/pool_proj"
  param {
    lr_mult: 1
    decay_mult: 1
  }
  param {
    lr_mult: 2
    decay_mult: 0
  }
  convolution_param {
    num_output: 64
    kernel_size: 1
    weight_filler {
      type: "xavier"
    }
    bias_filler {
      type: "constant"
      value: 0.2
    }
  }
}
layer {
  name: "inception_4b/relu_pool_proj"
  type: "ReLU"
  bottom: "inception_4b/pool_proj"
  top: "inception_4b/pool_proj"
}
layer {
  name: "inception_4b/output"
  type: "Concat"
  bottom: "inception_4b/1x1"
  bottom: "inception_4b/3x3"
  bottom: "inception_4b/5x5"
  bottom: "inception_4b/pool_proj"
  top: "inception_4b/output"
}
layer {
  name: "inception_4c/1x1"
  type: "Convolution"
  bottom: "inception_4b/output"
  top: "inception_4c/1x1"
  param {
    lr_mult: 1
    decay_mult: 1
  }
  param {
    lr_mult: 2
    decay_mult: 0
  }
  convolution_param {
    num_output: 128
    kernel_size: 1
    weight_filler {
      type: "xavier"
    }
    bias_filler {
      type: "constant"
      value: 0.2
    }
  }
}
layer {
  name: "inception_4c/relu_1x1"
  type: "ReLU"
  bottom: "inception_4c/1x1"
  top: "inception_4c/1x1"
}
layer {
  name: "inception_4c/3x3_reduce"
  type: "Convolution"
  bottom: "inception_4b/output"
  top: "inception_4c/3x3_reduce"
  param {
    lr_mult: 1
    decay_mult: 1
  }
  param {
    lr_mult: 2
    decay_mult: 0
  }
  convolution_param {
    num_output: 128
    kernel_size: 1
    weight_filler {
      type: "xavier"
    }
    bias_filler {
      type: "constant"
      value: 0.2
    }
  }
}
layer {
  name: "inception_4c/relu_3x3_reduce"
  type: "ReLU"
  bottom: "inception_4c/3x3_reduce"
  top: "inception_4c/3x3_reduce"
}
layer {
  name: "inception_4c/3x3"
  type: "Convolution"
  bottom: "inception_4c/3x3_reduce"
  top: "inception_4c/3x3"
  param {
    lr_mult: 1
    decay_mult: 1
  }
  param {
    lr_mult: 2
    decay_mult: 0
  }
  convolution_param {
    num_output: 256
    pad: 1
    kernel_size: 3
    weight_filler {
      type: "xavier"
    }
    bias_filler {
      type: "constant"
      value: 0.2
    }
  }
}
layer {
  name: "inception_4c/relu_3x3"
  type: "ReLU"
  bottom: "inception_4c/3x3"
  top: "inception_4c/3x3"
}
layer {
  name: "inception_4c/5x5_reduce"
  type: "Convolution"
  bottom: "inception_4b/output"
  top: "inception_4c/5x5_reduce"
  param {
    lr_mult: 1
    decay_mult: 1
  }
  param {
    lr_mult: 2
    decay_mult: 0
  }
  convolution_param {
    num_output: 24
    kernel_size: 1
    weight_filler {
      type: "xavier"
    }
    bias_filler {
      type: "constant"
      value: 0.2
    }
  }
}
layer {
  name: "inception_4c/relu_5x5_reduce"
  type: "ReLU"
  bottom: "inception_4c/5x5_reduce"
  top: "inception_4c/5x5_reduce"
}
layer {
  name: "inception_4c/5x5"
  type: "Convolution"
  bottom: "inception_4c/5x5_reduce"
  top: "inception_4c/5x5"
  param {
    lr_mult: 1
    decay_mult: 1
  }
  param {
    lr_mult: 2
    decay_mult: 0
  }
  convolution_param {
    num_output: 64
    pad: 2
    kernel_size: 5
    weight_filler {
      type: "xavier"
    }
    bias_filler {
      type: "constant"
      value: 0.2
    }
  }
}
layer {
  name: "inception_4c/relu_5x5"
  type: "ReLU"
  bottom: "inception_4c/5x5"
  top: "inception_4c/5x5"
}
layer {
  name: "inception_4c/pool"
  type: "Pooling"
  bottom: "inception_4b/output"
  top: "inception_4c/pool"
  pooling_param {
    pool: MAX
    kernel_size: 3
    stride: 1
    pad: 1
  }
}
layer {
  name: "inception_4c/pool_proj"
  type: "Convolution"
  bottom: "inception_4c/pool"
  top: "inception_4c/pool_proj"
  param {
    lr_mult: 1
    decay_mult: 1
  }
  param {
    lr_mult: 2
    decay_mult: 0
  }
  convolution_param {
    num_output: 64
    kernel_size: 1
    weight_filler {
      type: "xavier"
    }
    bias_filler {
      type: "constant"
      value: 0.2
    }
  }
}
layer {
  name: "inception_4c/relu_pool_proj"
  type: "ReLU"
  bottom: "inception_4c/pool_proj"
  top: "inception_4c/pool_proj"
}
layer {
  name: "inception_4c/output"
  type: "Concat"
  bottom: "inception_4c/1x1"
  bottom: "inception_4c/3x3"
  bottom: "inception_4c/5x5"
  bottom: "inception_4c/pool_proj"
  top: "inception_4c/output"
}
layer {
  name: "inception_4d/1x1"
  type: "Convolution"
  bottom: "inception_4c/output"
  top: "inception_4d/1x1"
  param {
    lr_mult: 1
    decay_mult: 1
  }
  param {
    lr_mult: 2
    decay_mult: 0
  }
  convolution_param {
    num_output: 112
    kernel_size: 1
    weight_filler {
      type: "xavier"
    }
    bias_filler {
      type: "constant"
      value: 0.2
    }
  }
}
layer {
  name: "inception_4d/relu_1x1"
  type: "ReLU"
  bottom: "inception_4d/1x1"
  top: "inception_4d/1x1"
}
layer {
  name: "inception_4d/3x3_reduce"
  type: "Convolution"
  bottom: "inception_4c/output"
  top: "inception_4d/3x3_reduce"
  param {
    lr_mult: 1
    decay_mult: 1
  }
  param {
    lr_mult: 2
    decay_mult: 0
  }
  convolution_param {
    num_output: 144
    kernel_size: 1
    weight_filler {
      type: "xavier"
    }
    bias_filler {
      type: "constant"
      value: 0.2
    }
  }
}
layer {
  name: "inception_4d/relu_3x3_reduce"
  type: "ReLU"
  bottom: "inception_4d/3x3_reduce"
  top: "inception_4d/3x3_reduce"
}
layer {
  name: "inception_4d/3x3"
  type: "Convolution"
  bottom: "inception_4d/3x3_reduce"
  top: "inception_4d/3x3"
  param {
    lr_mult: 1
    decay_mult: 1
  }
  param {
    lr_mult: 2
    decay_mult: 0
  }
  convolution_param {
    num_output: 288
    pad: 1
    kernel_size: 3
    weight_filler {
      type: "xavier"
    }
    bias_filler {
      type: "constant"
      value: 0.2
    }
  }
}
layer {
  name: "inception_4d/relu_3x3"
  type: "ReLU"
  bottom: "inception_4d/3x3"
  top: "inception_4d/3x3"
}
layer {
  name: "inception_4d/5x5_reduce"
  type: "Convolution"
  bottom: "inception_4c/output"
  top: "inception_4d/5x5_reduce"
  param {
    lr_mult: 1
    decay_mult: 1
  }
  param {
    lr_mult: 2
    decay_mult: 0
  }
  convolution_param {
    num_output: 32
    kernel_size: 1
    weight_filler {
      type: "xavier"
    }
    bias_filler {
      type: "constant"
      value: 0.2
    }
  }
}
layer {
  name: "inception_4d/relu_5x5_reduce"
  type: "ReLU"
  bottom: "inception_4d/5x5_reduce"
  top: "inception_4d/5x5_reduce"
}
layer {
  name: "inception_4d/5x5"
  type: "Convolution"
  bottom: "inception_4d/5x5_reduce"
  top: "inception_4d/5x5"
  param {
    lr_mult: 1
    decay_mult: 1
  }
  param {
    lr_mult: 2
    decay_mult: 0
  }
  convolution_param {
    num_output: 64
    pad: 2
    kernel_size: 5
    weight_filler {
      type: "xavier"
    }
    bias_filler {
      type: "constant"
      value: 0.2
    }
  }
}
layer {
  name: "inception_4d/relu_5x5"
  type: "ReLU"
  bottom: "inception_4d/5x5"
  top: "inception_4d/5x5"
}
layer {
  name: "inception_4d/pool"
  type: "Pooling"
  bottom: "inception_4c/output"
  top: "inception_4d/pool"
  pooling_param {
    pool: MAX
    kernel_size: 3
    stride: 1
    pad: 1
  }
}
layer {
  name: "inception_4d/pool_proj"
  type: "Convolution"
  bottom: "inception_4d/pool"
  top: "inception_4d/pool_proj"
  param {
    lr_mult: 1
    decay_mult: 1
  }
  param {
    lr_mult: 2
    decay_mult: 0
  }
  convolution_param {
    num_output: 64
    kernel_size: 1
    weight_filler {
      type: "xavier"
    }
    bias_filler {
      type: "constant"
      value: 0.2
    }
  }
}
layer {
  name: "inception_4d/relu_pool_proj"
  type: "ReLU"
  bottom: "inception_4d/pool_proj"
  top: "inception_4d/pool_proj"
}
layer {
  name: "inception_4d/output"
  type: "Concat"
  bottom: "inception_4d/1x1"
  bottom: "inception_4d/3x3"
  bottom: "inception_4d/5x5"
  bottom: "inception_4d/pool_proj"
  top: "inception_4d/output"
}
layer {
  name: "loss2/ave_pool"
  type: "Pooling"
  bottom: "inception_4d/output"
  top: "loss2/ave_pool"
  pooling_param {
    pool: AVE
    kernel_size: 5
    stride: 3
  }
}
layer {
  name: "loss2/conv"
  type: "Convolution"
  bottom: "loss2/ave_pool"
  top: "loss2/conv"
  param {
    lr_mult: 1
    decay_mult: 1
  }
  param {
    lr_mult: 2
    decay_mult: 0
  }
  convolution_param {
    num_output: 128
    kernel_size: 1
    weight_filler {
      type: "xavier"
    }
    bias_filler {
      type: "constant"
      value: 0.2
    }
  }
}
layer {
  name: "loss2/relu_conv"
  type: "ReLU"
  bottom: "loss2/conv"
  top: "loss2/conv"
}
layer {
  name: "loss2/fc"
  type: "InnerProduct"
  bottom: "loss2/conv"
  top: "loss2/fc"
  param {
    lr_mult: 1
    decay_mult: 1
  }
  param {
    lr_mult: 2
    decay_mult: 0
  }
  inner_product_param {
    num_output: 1024
    weight_filler {
      type: "xavier"
    }
    bias_filler {
      type: "constant"
      value: 0.2
    }
  }
}
layer {
  name: "loss2/relu_fc"
  type: "ReLU"
  bottom: "loss2/fc"
  top: "loss2/fc"
}
layer {
  name: "loss2/drop_fc"
  type: "Dropout"
  bottom: "loss2/fc"
  top: "loss2/fc"
  dropout_param {
    dropout_ratio: 0.7
  }
}
layer {
  name: "loss2/classifier_gnet"
  type: "InnerProduct"
  bottom: "loss2/fc"
  top: "loss2/classifier_gnet"
  param {
    lr_mult: 4
    decay_mult: 1
  }
  param {
    lr_mult: 8
    decay_mult: 0
  }
  inner_product_param {
    num_output: 2048
    weight_filler {
      type: "xavier"
    }
    bias_filler {
      type: "constant"
      value: 0
    }
  }
}
layer {
  name: "loss2/feat"
  type: "InnerProduct"
  bottom: "loss2/classifier_gnet"
  top: "loss2/feat"
  param {
    lr_mult: 5
    decay_mult: 1
  }
  param {
    lr_mult: 10
    decay_mult: 0
  }
  inner_product_param {
    num_output: 6
    weight_filler {
      type: "xavier"
    }
    bias_filler {
      type: "constant"
      value: 0
    }
  }
}
layer {
  name: "loss2/loss"
  type: "EuclideanLoss"
  bottom: "loss2/feat"
  bottom: "label"
  top: "loss2/loss1"
  loss_weight: 1
}
I0321 14:23:04.815515 13007 layer_factory.hpp:77] Creating layer data
I0321 14:23:04.815541 13007 net.cpp:91] Creating Layer data
I0321 14:23:04.815553 13007 net.cpp:399] data -> data
I0321 14:23:04.815572 13007 image_data_layer.cpp:38] Opening file /media/hdd3/gnet/data/test.txt
I0321 14:23:04.825254 13007 image_data_layer.cpp:53] A total of 19520 images.
I0321 14:23:04.826360 13007 image_data_layer.cpp:80] output data size: 5,3,224,224
I0321 14:23:04.830634 13007 net.cpp:141] Setting up data
I0321 14:23:04.830670 13007 net.cpp:148] Top shape: 5 3 224 224 (752640)
I0321 14:23:04.830680 13007 net.cpp:156] Memory required for data: 3010560
I0321 14:23:04.830692 13007 layer_factory.hpp:77] Creating layer label
I0321 14:23:04.830911 13007 net.cpp:91] Creating Layer label
I0321 14:23:04.830926 13007 net.cpp:399] label -> label
I0321 14:23:04.831745 13016 db_lmdb.cpp:38] Opened lmdb /media/hdd3/gnet/data/test
I0321 14:23:04.831886 13007 data_layer.cpp:41] output data size: 5,1,1,6
I0321 14:23:04.832053 13007 net.cpp:141] Setting up label
I0321 14:23:04.832070 13007 net.cpp:148] Top shape: 5 1 1 6 (30)
I0321 14:23:04.832078 13007 net.cpp:156] Memory required for data: 3010680
I0321 14:23:04.832087 13007 layer_factory.hpp:77] Creating layer label_label_0_split
I0321 14:23:04.832100 13007 net.cpp:91] Creating Layer label_label_0_split
I0321 14:23:04.832110 13007 net.cpp:425] label_label_0_split <- label
I0321 14:23:04.832121 13007 net.cpp:399] label_label_0_split -> label_label_0_split_0
I0321 14:23:04.832134 13007 net.cpp:399] label_label_0_split -> label_label_0_split_1
I0321 14:23:04.832532 13007 net.cpp:141] Setting up label_label_0_split
I0321 14:23:04.832550 13007 net.cpp:148] Top shape: 5 1 1 6 (30)
I0321 14:23:04.832558 13007 net.cpp:148] Top shape: 5 1 1 6 (30)
I0321 14:23:04.832566 13007 net.cpp:156] Memory required for data: 3010920
I0321 14:23:04.832576 13007 layer_factory.hpp:77] Creating layer conv1/7x7_s2
I0321 14:23:04.832592 13007 net.cpp:91] Creating Layer conv1/7x7_s2
I0321 14:23:04.832602 13007 net.cpp:425] conv1/7x7_s2 <- data
I0321 14:23:04.832612 13007 net.cpp:399] conv1/7x7_s2 -> conv1/7x7_s2
I0321 14:23:04.834166 13007 net.cpp:141] Setting up conv1/7x7_s2
I0321 14:23:04.834185 13007 net.cpp:148] Top shape: 5 64 112 112 (4014080)
I0321 14:23:04.834194 13007 net.cpp:156] Memory required for data: 19067240
I0321 14:23:04.834209 13007 layer_factory.hpp:77] Creating layer conv1/relu_7x7
I0321 14:23:04.834223 13007 net.cpp:91] Creating Layer conv1/relu_7x7
I0321 14:23:04.834231 13007 net.cpp:425] conv1/relu_7x7 <- conv1/7x7_s2
I0321 14:23:04.834241 13007 net.cpp:386] conv1/relu_7x7 -> conv1/7x7_s2 (in-place)
I0321 14:23:04.834427 13007 net.cpp:141] Setting up conv1/relu_7x7
I0321 14:23:04.834442 13007 net.cpp:148] Top shape: 5 64 112 112 (4014080)
I0321 14:23:04.834451 13007 net.cpp:156] Memory required for data: 35123560
I0321 14:23:04.834460 13007 layer_factory.hpp:77] Creating layer pool1/3x3_s2
I0321 14:23:04.834472 13007 net.cpp:91] Creating Layer pool1/3x3_s2
I0321 14:23:04.834481 13007 net.cpp:425] pool1/3x3_s2 <- conv1/7x7_s2
I0321 14:23:04.834493 13007 net.cpp:399] pool1/3x3_s2 -> pool1/3x3_s2
I0321 14:23:04.834555 13007 net.cpp:141] Setting up pool1/3x3_s2
I0321 14:23:04.834569 13007 net.cpp:148] Top shape: 5 64 56 56 (1003520)
I0321 14:23:04.834576 13007 net.cpp:156] Memory required for data: 39137640
I0321 14:23:04.834584 13007 layer_factory.hpp:77] Creating layer pool1/norm1
I0321 14:23:04.834597 13007 net.cpp:91] Creating Layer pool1/norm1
I0321 14:23:04.834605 13007 net.cpp:425] pool1/norm1 <- pool1/3x3_s2
I0321 14:23:04.834614 13007 net.cpp:399] pool1/norm1 -> pool1/norm1
I0321 14:23:04.834982 13007 net.cpp:141] Setting up pool1/norm1
I0321 14:23:04.835002 13007 net.cpp:148] Top shape: 5 64 56 56 (1003520)
I0321 14:23:04.835011 13007 net.cpp:156] Memory required for data: 43151720
I0321 14:23:04.835019 13007 layer_factory.hpp:77] Creating layer conv2/3x3_reduce
I0321 14:23:04.835063 13007 net.cpp:91] Creating Layer conv2/3x3_reduce
I0321 14:23:04.835074 13007 net.cpp:425] conv2/3x3_reduce <- pool1/norm1
I0321 14:23:04.835086 13007 net.cpp:399] conv2/3x3_reduce -> conv2/3x3_reduce
I0321 14:23:04.836226 13007 net.cpp:141] Setting up conv2/3x3_reduce
I0321 14:23:04.836246 13007 net.cpp:148] Top shape: 5 64 56 56 (1003520)
I0321 14:23:04.836256 13007 net.cpp:156] Memory required for data: 47165800
I0321 14:23:04.836268 13007 layer_factory.hpp:77] Creating layer conv2/relu_3x3_reduce
I0321 14:23:04.836282 13007 net.cpp:91] Creating Layer conv2/relu_3x3_reduce
I0321 14:23:04.836289 13007 net.cpp:425] conv2/relu_3x3_reduce <- conv2/3x3_reduce
I0321 14:23:04.836299 13007 net.cpp:386] conv2/relu_3x3_reduce -> conv2/3x3_reduce (in-place)
I0321 14:23:04.836488 13007 net.cpp:141] Setting up conv2/relu_3x3_reduce
I0321 14:23:04.836504 13007 net.cpp:148] Top shape: 5 64 56 56 (1003520)
I0321 14:23:04.836513 13007 net.cpp:156] Memory required for data: 51179880
I0321 14:23:04.836522 13007 layer_factory.hpp:77] Creating layer conv2/3x3
I0321 14:23:04.836537 13007 net.cpp:91] Creating Layer conv2/3x3
I0321 14:23:04.836546 13007 net.cpp:425] conv2/3x3 <- conv2/3x3_reduce
I0321 14:23:04.836557 13007 net.cpp:399] conv2/3x3 -> conv2/3x3
I0321 14:23:04.838311 13007 net.cpp:141] Setting up conv2/3x3
I0321 14:23:04.838332 13007 net.cpp:148] Top shape: 5 192 56 56 (3010560)
I0321 14:23:04.838341 13007 net.cpp:156] Memory required for data: 63222120
I0321 14:23:04.838356 13007 layer_factory.hpp:77] Creating layer conv2/relu_3x3
I0321 14:23:04.838369 13007 net.cpp:91] Creating Layer conv2/relu_3x3
I0321 14:23:04.838378 13007 net.cpp:425] conv2/relu_3x3 <- conv2/3x3
I0321 14:23:04.838388 13007 net.cpp:386] conv2/relu_3x3 -> conv2/3x3 (in-place)
I0321 14:23:04.838692 13007 net.cpp:141] Setting up conv2/relu_3x3
I0321 14:23:04.838711 13007 net.cpp:148] Top shape: 5 192 56 56 (3010560)
I0321 14:23:04.838719 13007 net.cpp:156] Memory required for data: 75264360
I0321 14:23:04.838727 13007 layer_factory.hpp:77] Creating layer conv2/norm2
I0321 14:23:04.838740 13007 net.cpp:91] Creating Layer conv2/norm2
I0321 14:23:04.838749 13007 net.cpp:425] conv2/norm2 <- conv2/3x3
I0321 14:23:04.838759 13007 net.cpp:399] conv2/norm2 -> conv2/norm2
I0321 14:23:04.839020 13007 net.cpp:141] Setting up conv2/norm2
I0321 14:23:04.839036 13007 net.cpp:148] Top shape: 5 192 56 56 (3010560)
I0321 14:23:04.839045 13007 net.cpp:156] Memory required for data: 87306600
I0321 14:23:04.839053 13007 layer_factory.hpp:77] Creating layer pool2/3x3_s2
I0321 14:23:04.839066 13007 net.cpp:91] Creating Layer pool2/3x3_s2
I0321 14:23:04.839074 13007 net.cpp:425] pool2/3x3_s2 <- conv2/norm2
I0321 14:23:04.839087 13007 net.cpp:399] pool2/3x3_s2 -> pool2/3x3_s2
I0321 14:23:04.839143 13007 net.cpp:141] Setting up pool2/3x3_s2
I0321 14:23:04.839157 13007 net.cpp:148] Top shape: 5 192 28 28 (752640)
I0321 14:23:04.839165 13007 net.cpp:156] Memory required for data: 90317160
I0321 14:23:04.839172 13007 layer_factory.hpp:77] Creating layer pool2/3x3_s2_pool2/3x3_s2_0_split
I0321 14:23:04.839185 13007 net.cpp:91] Creating Layer pool2/3x3_s2_pool2/3x3_s2_0_split
I0321 14:23:04.839195 13007 net.cpp:425] pool2/3x3_s2_pool2/3x3_s2_0_split <- pool2/3x3_s2
I0321 14:23:04.839205 13007 net.cpp:399] pool2/3x3_s2_pool2/3x3_s2_0_split -> pool2/3x3_s2_pool2/3x3_s2_0_split_0
I0321 14:23:04.839215 13007 net.cpp:399] pool2/3x3_s2_pool2/3x3_s2_0_split -> pool2/3x3_s2_pool2/3x3_s2_0_split_1
I0321 14:23:04.839228 13007 net.cpp:399] pool2/3x3_s2_pool2/3x3_s2_0_split -> pool2/3x3_s2_pool2/3x3_s2_0_split_2
I0321 14:23:04.839239 13007 net.cpp:399] pool2/3x3_s2_pool2/3x3_s2_0_split -> pool2/3x3_s2_pool2/3x3_s2_0_split_3
I0321 14:23:04.839321 13007 net.cpp:141] Setting up pool2/3x3_s2_pool2/3x3_s2_0_split
I0321 14:23:04.839335 13007 net.cpp:148] Top shape: 5 192 28 28 (752640)
I0321 14:23:04.839345 13007 net.cpp:148] Top shape: 5 192 28 28 (752640)
I0321 14:23:04.839354 13007 net.cpp:148] Top shape: 5 192 28 28 (752640)
I0321 14:23:04.839362 13007 net.cpp:148] Top shape: 5 192 28 28 (752640)
I0321 14:23:04.839386 13007 net.cpp:156] Memory required for data: 102359400
I0321 14:23:04.839396 13007 layer_factory.hpp:77] Creating layer inception_3a/1x1
I0321 14:23:04.839412 13007 net.cpp:91] Creating Layer inception_3a/1x1
I0321 14:23:04.839421 13007 net.cpp:425] inception_3a/1x1 <- pool2/3x3_s2_pool2/3x3_s2_0_split_0
I0321 14:23:04.839434 13007 net.cpp:399] inception_3a/1x1 -> inception_3a/1x1
I0321 14:23:04.840967 13007 net.cpp:141] Setting up inception_3a/1x1
I0321 14:23:04.840988 13007 net.cpp:148] Top shape: 5 64 28 28 (250880)
I0321 14:23:04.840997 13007 net.cpp:156] Memory required for data: 103362920
I0321 14:23:04.841009 13007 layer_factory.hpp:77] Creating layer inception_3a/relu_1x1
I0321 14:23:04.841022 13007 net.cpp:91] Creating Layer inception_3a/relu_1x1
I0321 14:23:04.841030 13007 net.cpp:425] inception_3a/relu_1x1 <- inception_3a/1x1
I0321 14:23:04.841044 13007 net.cpp:386] inception_3a/relu_1x1 -> inception_3a/1x1 (in-place)
I0321 14:23:04.841236 13007 net.cpp:141] Setting up inception_3a/relu_1x1
I0321 14:23:04.841253 13007 net.cpp:148] Top shape: 5 64 28 28 (250880)
I0321 14:23:04.841261 13007 net.cpp:156] Memory required for data: 104366440
I0321 14:23:04.841270 13007 layer_factory.hpp:77] Creating layer inception_3a/3x3_reduce
I0321 14:23:04.841298 13007 net.cpp:91] Creating Layer inception_3a/3x3_reduce
I0321 14:23:04.841310 13007 net.cpp:425] inception_3a/3x3_reduce <- pool2/3x3_s2_pool2/3x3_s2_0_split_1
I0321 14:23:04.841325 13007 net.cpp:399] inception_3a/3x3_reduce -> inception_3a/3x3_reduce
I0321 14:23:04.842558 13007 net.cpp:141] Setting up inception_3a/3x3_reduce
I0321 14:23:04.842579 13007 net.cpp:148] Top shape: 5 96 28 28 (376320)
I0321 14:23:04.842588 13007 net.cpp:156] Memory required for data: 105871720
I0321 14:23:04.842603 13007 layer_factory.hpp:77] Creating layer inception_3a/relu_3x3_reduce
I0321 14:23:04.842615 13007 net.cpp:91] Creating Layer inception_3a/relu_3x3_reduce
I0321 14:23:04.842623 13007 net.cpp:425] inception_3a/relu_3x3_reduce <- inception_3a/3x3_reduce
I0321 14:23:04.842635 13007 net.cpp:386] inception_3a/relu_3x3_reduce -> inception_3a/3x3_reduce (in-place)
I0321 14:23:04.842947 13007 net.cpp:141] Setting up inception_3a/relu_3x3_reduce
I0321 14:23:04.842965 13007 net.cpp:148] Top shape: 5 96 28 28 (376320)
I0321 14:23:04.842974 13007 net.cpp:156] Memory required for data: 107377000
I0321 14:23:04.842983 13007 layer_factory.hpp:77] Creating layer inception_3a/3x3
I0321 14:23:04.843000 13007 net.cpp:91] Creating Layer inception_3a/3x3
I0321 14:23:04.843010 13007 net.cpp:425] inception_3a/3x3 <- inception_3a/3x3_reduce
I0321 14:23:04.843024 13007 net.cpp:399] inception_3a/3x3 -> inception_3a/3x3
I0321 14:23:04.845156 13007 net.cpp:141] Setting up inception_3a/3x3
I0321 14:23:04.845177 13007 net.cpp:148] Top shape: 5 128 28 28 (501760)
I0321 14:23:04.845186 13007 net.cpp:156] Memory required for data: 109384040
I0321 14:23:04.845198 13007 layer_factory.hpp:77] Creating layer inception_3a/relu_3x3
I0321 14:23:04.845212 13007 net.cpp:91] Creating Layer inception_3a/relu_3x3
I0321 14:23:04.845221 13007 net.cpp:425] inception_3a/relu_3x3 <- inception_3a/3x3
I0321 14:23:04.845233 13007 net.cpp:386] inception_3a/relu_3x3 -> inception_3a/3x3 (in-place)
I0321 14:23:04.845445 13007 net.cpp:141] Setting up inception_3a/relu_3x3
I0321 14:23:04.845463 13007 net.cpp:148] Top shape: 5 128 28 28 (501760)
I0321 14:23:04.845470 13007 net.cpp:156] Memory required for data: 111391080
I0321 14:23:04.845479 13007 layer_factory.hpp:77] Creating layer inception_3a/5x5_reduce
I0321 14:23:04.845494 13007 net.cpp:91] Creating Layer inception_3a/5x5_reduce
I0321 14:23:04.845504 13007 net.cpp:425] inception_3a/5x5_reduce <- pool2/3x3_s2_pool2/3x3_s2_0_split_2
I0321 14:23:04.845516 13007 net.cpp:399] inception_3a/5x5_reduce -> inception_3a/5x5_reduce
I0321 14:23:04.846807 13007 net.cpp:141] Setting up inception_3a/5x5_reduce
I0321 14:23:04.846827 13007 net.cpp:148] Top shape: 5 16 28 28 (62720)
I0321 14:23:04.846837 13007 net.cpp:156] Memory required for data: 111641960
I0321 14:23:04.846871 13007 layer_factory.hpp:77] Creating layer inception_3a/relu_5x5_reduce
I0321 14:23:04.846884 13007 net.cpp:91] Creating Layer inception_3a/relu_5x5_reduce
I0321 14:23:04.846892 13007 net.cpp:425] inception_3a/relu_5x5_reduce <- inception_3a/5x5_reduce
I0321 14:23:04.846904 13007 net.cpp:386] inception_3a/relu_5x5_reduce -> inception_3a/5x5_reduce (in-place)
I0321 14:23:04.847133 13007 net.cpp:141] Setting up inception_3a/relu_5x5_reduce
I0321 14:23:04.847151 13007 net.cpp:148] Top shape: 5 16 28 28 (62720)
I0321 14:23:04.847159 13007 net.cpp:156] Memory required for data: 111892840
I0321 14:23:04.847168 13007 layer_factory.hpp:77] Creating layer inception_3a/5x5
I0321 14:23:04.847183 13007 net.cpp:91] Creating Layer inception_3a/5x5
I0321 14:23:04.847193 13007 net.cpp:425] inception_3a/5x5 <- inception_3a/5x5_reduce
I0321 14:23:04.847205 13007 net.cpp:399] inception_3a/5x5 -> inception_3a/5x5
I0321 14:23:04.848423 13007 net.cpp:141] Setting up inception_3a/5x5
I0321 14:23:04.848441 13007 net.cpp:148] Top shape: 5 32 28 28 (125440)
I0321 14:23:04.848450 13007 net.cpp:156] Memory required for data: 112394600
I0321 14:23:04.848461 13007 layer_factory.hpp:77] Creating layer inception_3a/relu_5x5
I0321 14:23:04.848475 13007 net.cpp:91] Creating Layer inception_3a/relu_5x5
I0321 14:23:04.848485 13007 net.cpp:425] inception_3a/relu_5x5 <- inception_3a/5x5
I0321 14:23:04.848496 13007 net.cpp:386] inception_3a/relu_5x5 -> inception_3a/5x5 (in-place)
I0321 14:23:04.849051 13007 net.cpp:141] Setting up inception_3a/relu_5x5
I0321 14:23:04.849069 13007 net.cpp:148] Top shape: 5 32 28 28 (125440)
I0321 14:23:04.849077 13007 net.cpp:156] Memory required for data: 112896360
I0321 14:23:04.849086 13007 layer_factory.hpp:77] Creating layer inception_3a/pool
I0321 14:23:04.849099 13007 net.cpp:91] Creating Layer inception_3a/pool
I0321 14:23:04.849109 13007 net.cpp:425] inception_3a/pool <- pool2/3x3_s2_pool2/3x3_s2_0_split_3
I0321 14:23:04.849123 13007 net.cpp:399] inception_3a/pool -> inception_3a/pool
I0321 14:23:04.849190 13007 net.cpp:141] Setting up inception_3a/pool
I0321 14:23:04.849203 13007 net.cpp:148] Top shape: 5 192 28 28 (752640)
I0321 14:23:04.849211 13007 net.cpp:156] Memory required for data: 115906920
I0321 14:23:04.849220 13007 layer_factory.hpp:77] Creating layer inception_3a/pool_proj
I0321 14:23:04.849233 13007 net.cpp:91] Creating Layer inception_3a/pool_proj
I0321 14:23:04.849243 13007 net.cpp:425] inception_3a/pool_proj <- inception_3a/pool
I0321 14:23:04.849256 13007 net.cpp:399] inception_3a/pool_proj -> inception_3a/pool_proj
I0321 14:23:04.850450 13007 net.cpp:141] Setting up inception_3a/pool_proj
I0321 14:23:04.850471 13007 net.cpp:148] Top shape: 5 32 28 28 (125440)
I0321 14:23:04.850478 13007 net.cpp:156] Memory required for data: 116408680
I0321 14:23:04.850495 13007 layer_factory.hpp:77] Creating layer inception_3a/relu_pool_proj
I0321 14:23:04.850509 13007 net.cpp:91] Creating Layer inception_3a/relu_pool_proj
I0321 14:23:04.850518 13007 net.cpp:425] inception_3a/relu_pool_proj <- inception_3a/pool_proj
I0321 14:23:04.850528 13007 net.cpp:386] inception_3a/relu_pool_proj -> inception_3a/pool_proj (in-place)
I0321 14:23:04.850719 13007 net.cpp:141] Setting up inception_3a/relu_pool_proj
I0321 14:23:04.850734 13007 net.cpp:148] Top shape: 5 32 28 28 (125440)
I0321 14:23:04.850744 13007 net.cpp:156] Memory required for data: 116910440
I0321 14:23:04.850752 13007 layer_factory.hpp:77] Creating layer inception_3a/output
I0321 14:23:04.850764 13007 net.cpp:91] Creating Layer inception_3a/output
I0321 14:23:04.850772 13007 net.cpp:425] inception_3a/output <- inception_3a/1x1
I0321 14:23:04.850781 13007 net.cpp:425] inception_3a/output <- inception_3a/3x3
I0321 14:23:04.850790 13007 net.cpp:425] inception_3a/output <- inception_3a/5x5
I0321 14:23:04.850800 13007 net.cpp:425] inception_3a/output <- inception_3a/pool_proj
I0321 14:23:04.850811 13007 net.cpp:399] inception_3a/output -> inception_3a/output
I0321 14:23:04.850852 13007 net.cpp:141] Setting up inception_3a/output
I0321 14:23:04.850881 13007 net.cpp:148] Top shape: 5 256 28 28 (1003520)
I0321 14:23:04.850890 13007 net.cpp:156] Memory required for data: 120924520
I0321 14:23:04.850899 13007 layer_factory.hpp:77] Creating layer inception_3a/output_inception_3a/output_0_split
I0321 14:23:04.850914 13007 net.cpp:91] Creating Layer inception_3a/output_inception_3a/output_0_split
I0321 14:23:04.850924 13007 net.cpp:425] inception_3a/output_inception_3a/output_0_split <- inception_3a/output
I0321 14:23:04.850935 13007 net.cpp:399] inception_3a/output_inception_3a/output_0_split -> inception_3a/output_inception_3a/output_0_split_0
I0321 14:23:04.850947 13007 net.cpp:399] inception_3a/output_inception_3a/output_0_split -> inception_3a/output_inception_3a/output_0_split_1
I0321 14:23:04.850960 13007 net.cpp:399] inception_3a/output_inception_3a/output_0_split -> inception_3a/output_inception_3a/output_0_split_2
I0321 14:23:04.850972 13007 net.cpp:399] inception_3a/output_inception_3a/output_0_split -> inception_3a/output_inception_3a/output_0_split_3
I0321 14:23:04.851063 13007 net.cpp:141] Setting up inception_3a/output_inception_3a/output_0_split
I0321 14:23:04.851076 13007 net.cpp:148] Top shape: 5 256 28 28 (1003520)
I0321 14:23:04.851085 13007 net.cpp:148] Top shape: 5 256 28 28 (1003520)
I0321 14:23:04.851094 13007 net.cpp:148] Top shape: 5 256 28 28 (1003520)
I0321 14:23:04.851102 13007 net.cpp:148] Top shape: 5 256 28 28 (1003520)
I0321 14:23:04.851109 13007 net.cpp:156] Memory required for data: 136980840
I0321 14:23:04.851117 13007 layer_factory.hpp:77] Creating layer inception_3b/1x1
I0321 14:23:04.851135 13007 net.cpp:91] Creating Layer inception_3b/1x1
I0321 14:23:04.851143 13007 net.cpp:425] inception_3b/1x1 <- inception_3a/output_inception_3a/output_0_split_0
I0321 14:23:04.851155 13007 net.cpp:399] inception_3b/1x1 -> inception_3b/1x1
I0321 14:23:04.852942 13007 net.cpp:141] Setting up inception_3b/1x1
I0321 14:23:04.852963 13007 net.cpp:148] Top shape: 5 128 28 28 (501760)
I0321 14:23:04.852972 13007 net.cpp:156] Memory required for data: 138987880
I0321 14:23:04.852983 13007 layer_factory.hpp:77] Creating layer inception_3b/relu_1x1
I0321 14:23:04.852996 13007 net.cpp:91] Creating Layer inception_3b/relu_1x1
I0321 14:23:04.853006 13007 net.cpp:425] inception_3b/relu_1x1 <- inception_3b/1x1
I0321 14:23:04.853016 13007 net.cpp:386] inception_3b/relu_1x1 -> inception_3b/1x1 (in-place)
I0321 14:23:04.853205 13007 net.cpp:141] Setting up inception_3b/relu_1x1
I0321 14:23:04.853220 13007 net.cpp:148] Top shape: 5 128 28 28 (501760)
I0321 14:23:04.853229 13007 net.cpp:156] Memory required for data: 140994920
I0321 14:23:04.853236 13007 layer_factory.hpp:77] Creating layer inception_3b/3x3_reduce
I0321 14:23:04.853253 13007 net.cpp:91] Creating Layer inception_3b/3x3_reduce
I0321 14:23:04.853263 13007 net.cpp:425] inception_3b/3x3_reduce <- inception_3a/output_inception_3a/output_0_split_1
…
I0321 14:23:04.863021 13007 net.cpp:91] Creating Layer inception_3b/pool_proj
I0321 14:23:04.863032 13007 net.cpp:425] inception_3b/pool_proj <- inception_3b/pool
I0321 14:23:04.863044 13007 net.cpp:399] inception_3b/pool_proj -> inception_3b/pool_proj
I0321 14:23:04.864497 13007 net.cpp:141] Setting up inception_3b/pool_proj
I0321 14:23:04.864542 13007 net.cpp:148] Top shape: 5 64 28 28 (250880)
I0321 14:23:04.864553 13007 net.cpp:156] Memory required for data: 160061800
I0321 14:23:04.864567 13007 layer_factory.hpp:77] Creating layer inception_3b/relu_pool_proj
I0321 14:23:04.864585 13007 net.cpp:91] Creating Layer inception_3b/relu_pool_proj
I0321 14:23:04.864598 13007 net.cpp:425] inception_3b/relu_pool_proj <- inception_3b/pool_proj
I0321 14:23:04.864612 13007 net.cpp:386] inception_3b/relu_pool_proj -> inception_3b/pool_proj (in-place)
I0321 14:23:04.864840 13007 net.cpp:141] Setting up inception_3b/relu_pool_proj
I0321 14:23:04.864861 13007 net.cpp:148] Top shape: 5 64 28 28 (250880)
I0321 14:23:04.864871 13007 net.cpp:156] Memory required for data: 161065320
I0321 14:23:04.864879 13007 layer_factory.hpp:77] Creating layer inception_3b/output
I0321 14:23:04.864892 13007 net.cpp:91] Creating Layer inception_3b/output
I0321 14:23:04.864902 13007 net.cpp:425] inception_3b/output <- inception_3b/1x1
I0321 14:23:04.864912 13007 net.cpp:425] inception_3b/output <- inception_3b/3x3
I0321 14:23:04.864923 13007 net.cpp:425] inception_3b/output <- inception_3b/5x5
I0321 14:23:04.864931 13007 net.cpp:425] inception_3b/output <- inception_3b/pool_proj
I0321 14:23:04.864941 13007 net.cpp:399] inception_3b/output -> inception_3b/output
I0321 14:23:04.864987 13007 net.cpp:141] Setting up inception_3b/output
I0321 14:23:04.865002 13007 net.cpp:148] Top shape: 5 480 28 28 (1881600)
I0321 14:23:04.865010 13007 net.cpp:156] Memory required for data: 168591720
I0321 14:23:04.865018 13007 layer_factory.hpp:77] Creating layer pool3/3x3_s2
I0321 14:23:04.865030 13007 net.cpp:91] Creating Layer pool3/3x3_s2
I0321 14:23:04.865038 13007 net.cpp:425] pool3/3x3_s2 <- inception_3b/output
I0321 14:23:04.865051 13007 net.cpp:399] pool3/3x3_s2 -> pool3/3x3_s2
I0321 14:23:04.865113 13007 net.cpp:141] Setting up pool3/3x3_s2
I0321 14:23:04.865128 13007 net.cpp:148] Top shape: 5 480 14 14 (470400)
I0321 14:23:04.865135 13007 net.cpp:156] Memory required for data: 170473320
I0321 14:23:04.865144 13007 layer_factory.hpp:77] Creating layer pool3/3x3_s2_pool3/3x3_s2_0_split
I0321 14:23:04.865157 13007 net.cpp:91] Creating Layer pool3/3x3_s2_pool3/3x3_s2_0_split
I0321 14:23:04.865166 13007 net.cpp:425] pool3/3x3_s2_pool3/3x3_s2_0_split <- pool3/3x3_s2
I0321 14:23:04.865176 13007 net.cpp:399] pool3/3x3_s2_pool3/3x3_s2_0_split -> pool3/3x3_s2_pool3/3x3_s2_0_split_0
I0321 14:23:04.865190 13007 net.cpp:399] pool3/3x3_s2_pool3/3x3_s2_0_split -> pool3/3x3_s2_pool3/3x3_s2_0_split_1
I0321 14:23:04.865200 13007 net.cpp:399] pool3/3x3_s2_pool3/3x3_s2_0_split -> pool3/3x3_s2_pool3/3x3_s2_0_split_2
I0321 14:23:04.865212 13007 net.cpp:399] pool3/3x3_s2_pool3/3x3_s2_0_split -> pool3/3x3_s2_pool3/3x3_s2_0_split_3
I0321 14:23:04.865313 13007 net.cpp:141] Setting up pool3/3x3_s2_pool3/3x3_s2_0_split
I0321 14:23:04.865327 13007 net.cpp:148] Top shape: 5 480 14 14 (470400)
I0321 14:23:04.865337 13007 net.cpp:148] Top shape: 5 480 14 14 (470400)
I0321 14:23:04.865345 13007 net.cpp:148] Top shape: 5 480 14 14 (470400)
I0321 14:23:04.865355 13007 net.cpp:148] Top shape: 5 480 14 14 (470400)
I0321 14:23:04.865362 13007 net.cpp:156] Memory required for data: 177999720
I0321 14:23:04.865370 13007 layer_factory.hpp:77] Creating layer inception_4a/1x1
I0321 14:23:04.865386 13007 net.cpp:91] Creating Layer inception_4a/1x1
I0321 14:23:04.865397 13007 net.cpp:425] inception_4a/1x1 <- pool3/3x3_s2_pool3/3x3_s2_0_split_0
I0321 14:23:04.865411 13007 net.cpp:399] inception_4a/1x1 -> inception_4a/1x1
I0321 14:23:04.867512 13007 net.cpp:141] Setting up inception_4a/1x1
I0321 14:23:04.867537 13007 net.cpp:148] Top shape: 5 192 14 14 (188160)
I0321 14:23:04.867547 13007 net.cpp:156] Memory required for data: 178752360
I0321 14:23:04.867559 13007 layer_factory.hpp:77] Creating layer inception_4a/relu_1x1
I0321 14:23:04.867573 13007 net.cpp:91] Creating Layer inception_4a/relu_1x1
I0321 14:23:04.867583 13007 net.cpp:425] inception_4a/relu_1x1 <- inception_4a/1x1
I0321 14:23:04.867610 13007 net.cpp:386] inception_4a/relu_1x1 -> inception_4a/1x1 (in-place)
I0321 14:23:04.867802 13007 net.cpp:141] Setting up inception_4a/relu_1x1
I0321 14:23:04.867820 13007 net.cpp:148] Top shape: 5 192 14 14 (188160)
I0321 14:23:04.867828 13007 net.cpp:156] Memory required for data: 179505000
I0321 14:23:04.867836 13007 layer_factory.hpp:77] Creating layer inception_4a/3x3_reduce
I0321 14:23:04.867852 13007 net.cpp:91] Creating Layer inception_4a/3x3_reduce
I0321 14:23:04.867864 13007 net.cpp:425] inception_4a/3x3_reduce <- pool3/3x3_s2_pool3/3x3_s2_0_split_1
I0321 14:23:04.867877 13007 net.cpp:399] inception_4a/3x3_reduce -> inception_4a/3x3_reduce
I0321 14:23:04.869323 13007 net.cpp:141] Setting up inception_4a/3x3_reduce
I0321 14:23:04.869346 13007 net.cpp:148] Top shape: 5 96 14 14 (94080)
I0321 14:23:04.869357 13007 net.cpp:156] Memory required for data: 179881320
I0321 14:23:04.869375 13007 layer_factory.hpp:77] Creating layer inception_4a/relu_3x3_reduce
I0321 14:23:04.869390 13007 net.cpp:91] Creating Layer inception_4a/relu_3x3_reduce
I0321 14:23:04.869400 13007 net.cpp:425] inception_4a/relu_3x3_reduce <- inception_4a/3x3_reduce
I0321 14:23:04.869410 13007 net.cpp:386] inception_4a/relu_3x3_reduce -> inception_4a/3x3_reduce (in-place)
I0321 14:23:04.869722 13007 net.cpp:141] Setting up inception_4a/relu_3x3_reduce
I0321 14:23:04.869742 13007 net.cpp:148] Top shape: 5 96 14 14 (94080)
I0321 14:23:04.869752 13007 net.cpp:156] Memory required for data: 180257640
I0321 14:23:04.869760 13007 layer_factory.hpp:77] Creating layer inception_4a/3x3
I0321 14:23:04.869777 13007 net.cpp:91] Creating Layer inception_4a/3x3
I0321 14:23:04.869791 13007 net.cpp:425] inception_4a/3x3 <- inception_4a/3x3_reduce
I0321 14:23:04.869804 13007 net.cpp:399] inception_4a/3x3 -> inception_4a/3x3
I0321 14:23:04.872421 13007 net.cpp:141] Setting up inception_4a/3x3
I0321 14:23:04.872444 13007 net.cpp:148] Top shape: 5 208 14 14 (203840)
I0321 14:23:04.872454 13007 net.cpp:156] Memory required for data: 181073000
I0321 14:23:04.872467 13007 layer_factory.hpp:77] Creating layer inception_4a/relu_3x3
I0321 14:23:04.872478 13007 net.cpp:91] Creating Layer inception_4a/relu_3x3
I0321 14:23:04.872486 13007 net.cpp:425] inception_4a/relu_3x3 <- inception_4a/3x3
I0321 14:23:04.872498 13007 net.cpp:386] inception_4a/relu_3x3 -> inception_4a/3x3 (in-place)
I0321 14:23:04.872694 13007 net.cpp:141] Setting up inception_4a/relu_3x3
I0321 14:23:04.872711 13007 net.cpp:148] Top shape: 5 208 14 14 (203840)
I0321 14:23:04.872720 13007 net.cpp:156] Memory required for data: 181888360
I0321 14:23:04.872730 13007 layer_factory.hpp:77] Creating layer inception_4a/5x5_reduce
I0321 14:23:04.872745 13007 net.cpp:91] Creating Layer inception_4a/5x5_reduce
I0321 14:23:04.872757 13007 net.cpp:425] inception_4a/5x5_reduce <- pool3/3x3_s2_pool3/3x3_s2_0_split_2
I0321 14:23:04.872771 13007 net.cpp:399] inception_4a/5x5_reduce -> inception_4a/5x5_reduce
I0321 14:23:04.874078 13007 net.cpp:141] Setting up inception_4a/5x5_reduce
I0321 14:23:04.874100 13007 net.cpp:148] Top shape: 5 16 14 14 (15680)
I0321 14:23:04.874109 13007 net.cpp:156] Memory required for data: 181951080
I0321 14:23:04.874121 13007 layer_factory.hpp:77] Creating layer inception_4a/relu_5x5_reduce
I0321 14:23:04.874135 13007 net.cpp:91] Creating Layer inception_4a/relu_5x5_reduce
I0321 14:23:04.874145 13007 net.cpp:425] inception_4a/relu_5x5_reduce <- inception_4a/5x5_reduce
I0321 14:23:04.874155 13007 net.cpp:386] inception_4a/relu_5x5_reduce -> inception_4a/5x5_reduce (in-place)
I0321 14:23:04.874344 13007 net.cpp:141] Setting up inception_4a/relu_5x5_reduce
I0321 14:23:04.874361 13007 net.cpp:148] Top shape: 5 16 14 14 (15680)
I0321 14:23:04.874371 13007 net.cpp:156] Memory required for data: 182013800
I0321 14:23:04.874378 13007 layer_factory.hpp:77] Creating layer inception_4a/5x5
I0321 14:23:04.874394 13007 net.cpp:91] Creating Layer inception_4a/5x5
I0321 14:23:04.874407 13007 net.cpp:425] inception_4a/5x5 <- inception_4a/5x5_reduce
I0321 14:23:04.874421 13007 net.cpp:399] inception_4a/5x5 -> inception_4a/5x5
I0321 14:23:04.875897 13007 net.cpp:141] Setting up inception_4a/5x5
I0321 14:23:04.875921 13007 net.cpp:148] Top shape: 5 48 14 14 (47040)
I0321 14:23:04.875932 13007 net.cpp:156] Memory required for data: 182201960
I0321 14:23:04.875946 13007 layer_factory.hpp:77] Creating layer inception_4a/relu_5x5
I0321 14:23:04.875962 13007 net.cpp:91] Creating Layer inception_4a/relu_5x5
I0321 14:23:04.875972 13007 net.cpp:425] inception_4a/relu_5x5 <- inception_4a/5x5
I0321 14:23:04.875988 13007 net.cpp:386] inception_4a/relu_5x5 -> inception_4a/5x5 (in-place)
I0321 14:23:04.876363 13007 net.cpp:141] Setting up inception_4a/relu_5x5
I0321 14:23:04.876386 13007 net.cpp:148] Top shape: 5 48 14 14 (47040)
I0321 14:23:04.876399 13007 net.cpp:156] Memory required for data: 182390120
I0321 14:23:04.876411 13007 layer_factory.hpp:77] Creating layer inception_4a/pool
I0321 14:23:04.876430 13007 net.cpp:91] Creating Layer inception_4a/pool
I0321 14:23:04.876444 13007 net.cpp:425] inception_4a/pool <- pool3/3x3_s2_pool3/3x3_s2_0_split_3
I0321 14:23:04.876458 13007 net.cpp:399] inception_4a/pool -> inception_4a/pool
I0321 14:23:04.876550 13007 net.cpp:141] Setting up inception_4a/pool
I0321 14:23:04.876570 13007 net.cpp:148] Top shape: 5 480 14 14 (470400)
I0321 14:23:04.876581 13007 net.cpp:156] Memory required for data: 184271720
I0321 14:23:04.876592 13007 layer_factory.hpp:77] Creating layer inception_4a/pool_proj
I0321 14:23:04.876612 13007 net.cpp:91] Creating Layer inception_4a/pool_proj
I0321 14:23:04.876626 13007 net.cpp:425] inception_4a/pool_proj <- inception_4a/pool
I0321 14:23:04.876643 13007 net.cpp:399] inception_4a/pool_proj -> inception_4a/pool_proj
I0321 14:23:04.878491 13007 net.cpp:141] Setting up inception_4a/pool_proj
I0321 14:23:04.878517 13007 net.cpp:148] Top shape: 5 64 14 14 (62720)
I0321 14:23:04.878530 13007 net.cpp:156] Memory required for data: 184522600
I0321 14:23:04.878543 13007 layer_factory.hpp:77] Creating layer inception_4a/relu_pool_proj
I0321 14:23:04.878557 13007 net.cpp:91] Creating Layer inception_4a/relu_pool_proj
I0321 14:23:04.878571 13007 net.cpp:425] inception_4a/relu_pool_proj <- inception_4a/pool_proj
I0321 14:23:04.878585 13007 net.cpp:386] inception_4a/relu_pool_proj -> inception_4a/pool_proj (in-place)
I0321 14:23:04.878824 13007 net.cpp:141] Setting up inception_4a/relu_pool_proj
I0321 14:23:04.878845 13007 net.cpp:148] Top shape: 5 64 14 14 (62720)
I0321 14:23:04.878859 13007 net.cpp:156] Memory required for data: 184773480
I0321 14:23:04.878870 13007 layer_factory.hpp:77] Creating layer inception_4a/output
I0321 14:23:04.878885 13007 net.cpp:91] Creating Layer inception_4a/output
I0321 14:23:04.878896 13007 net.cpp:425] inception_4a/output <- inception_4a/1x1
I0321 14:23:04.878911 13007 net.cpp:425] inception_4a/output <- inception_4a/3x3
I0321 14:23:04.878924 13007 net.cpp:425] inception_4a/output <- inception_4a/5x5
I0321 14:23:04.878937 13007 net.cpp:425] inception_4a/output <- inception_4a/pool_proj
I0321 14:23:04.878950 13007 net.cpp:399] inception_4a/output -> inception_4a/output
I0321 14:23:04.879007 13007 net.cpp:141] Setting up inception_4a/output
I0321 14:23:04.879026 13007 net.cpp:148] Top shape: 5 512 14 14 (501760)
I0321 14:23:04.879037 13007 net.cpp:156] Memory required for data: 186780520
I0321 14:23:04.879048 13007 layer_factory.hpp:77] Creating layer inception_4a/output_inception_4a/output_0_split
I0321 14:23:04.879062 13007 net.cpp:91] Creating Layer inception_4a/output_inception_4a/output_0_split
I0321 14:23:04.879075 13007 net.cpp:425] inception_4a/output_inception_4a/output_0_split <- inception_4a/output
I0321 14:23:04.879091 13007 net.cpp:399] inception_4a/output_inception_4a/output_0_split -> inception_4a/output_inception_4a/output_0_split_0
I0321 14:23:04.879107 13007 net.cpp:399] inception_4a/output_inception_4a/output_0_split -> inception_4a/output_inception_4a/output_0_split_1
I0321 14:23:04.879123 13007 net.cpp:399] inception_4a/output_inception_4a/output_0_split -> inception_4a/output_inception_4a/output_0_split_2
I0321 14:23:04.879153 13007 net.cpp:399] inception_4a/output_inception_4a/output_0_split -> inception_4a/output_inception_4a/output_0_split_3
I0321 14:23:04.879168 13007 net.cpp:399] inception_4a/output_inception_4a/output_0_split -> inception_4a/output_inception_4a/output_0_split_4
I0321 14:23:04.879328 13007 net.cpp:141] Setting up inception_4a/output_inception_4a/output_0_split
I0321 14:23:04.879349 13007 net.cpp:148] Top shape: 5 512 14 14 (501760)
I0321 14:23:04.879364 13007 net.cpp:148] Top shape: 5 512 14 14 (501760)
I0321 14:23:04.879375 13007 net.cpp:148] Top shape: 5 512 14 14 (501760)
I0321 14:23:04.879387 13007 net.cpp:148] Top shape: 5 512 14 14 (501760)
I0321 14:23:04.879398 13007 net.cpp:148] Top shape: 5 512 14 14 (501760)
I0321 14:23:04.879407 13007 net.cpp:156] Memory required for data: 196815720
I0321 14:23:04.879417 13007 layer_factory.hpp:77] Creating layer loss1/ave_pool
I0321 14:23:04.879431 13007 net.cpp:91] Creating Layer loss1/ave_pool
I0321 14:23:04.879442 13007 net.cpp:425] loss1/ave_pool <- inception_4a/output_inception_4a/output_0_split_0
I0321 14:23:04.879456 13007 net.cpp:399] loss1/ave_pool -> loss1/ave_pool
I0321 14:23:04.879873 13007 net.cpp:141] Setting up loss1/ave_pool
I0321 14:23:04.879894 13007 net.cpp:148] Top shape: 5 512 4 4 (40960)
I0321 14:23:04.879905 13007 net.cpp:156] Memory required for data: 196979560
I0321 14:23:04.879916 13007 layer_factory.hpp:77] Creating layer loss1/conv
I0321 14:23:04.879935 13007 net.cpp:91] Creating Layer loss1/conv
I0321 14:23:04.879950 13007 net.cpp:425] loss1/conv <- loss1/ave_pool
I0321 14:23:04.879967 13007 net.cpp:399] loss1/conv -> loss1/conv
I0321 14:23:04.881726 13007 net.cpp:141] Setting up loss1/conv
I0321 14:23:04.881749 13007 net.cpp:148] Top shape: 5 128 4 4 (10240)
I0321 14:23:04.881762 13007 net.cpp:156] Memory required for data: 197020520
I0321 14:23:04.881778 13007 layer_factory.hpp:77] Creating layer loss1/relu_conv
I0321 14:23:04.881793 13007 net.cpp:91] Creating Layer loss1/relu_conv
I0321 14:23:04.881803 13007 net.cpp:425] loss1/relu_conv <- loss1/conv
I0321 14:23:04.881817 13007 net.cpp:386] loss1/relu_conv -> loss1/conv (in-place)
I0321 14:23:04.882184 13007 net.cpp:141] Setting up loss1/relu_conv
I0321 14:23:04.882206 13007 net.cpp:148] Top shape: 5 128 4 4 (10240)
I0321 14:23:04.882218 13007 net.cpp:156] Memory required for data: 197061480
I0321 14:23:04.882230 13007 layer_factory.hpp:77] Creating layer loss1/fc
I0321 14:23:04.882247 13007 net.cpp:91] Creating Layer loss1/fc
I0321 14:23:04.882258 13007 net.cpp:425] loss1/fc <- loss1/conv
I0321 14:23:04.882272 13007 net.cpp:399] loss1/fc -> loss1/fc
I0321 14:23:04.896575 13007 net.cpp:141] Setting up loss1/fc
I0321 14:23:04.896621 13007 net.cpp:148] Top shape: 5 1024 (5120)
I0321 14:23:04.896631 13007 net.cpp:156] Memory required for data: 197081960
I0321 14:23:04.896646 13007 layer_factory.hpp:77] Creating layer loss1/relu_fc
I0321 14:23:04.896672 13007 net.cpp:91] Creating Layer loss1/relu_fc
I0321 14:23:04.896683 13007 net.cpp:425] loss1/relu_fc <- loss1/fc
I0321 14:23:04.896695 13007 net.cpp:386] loss1/relu_fc -> loss1/fc (in-place)
I0321 14:23:04.897176 13007 net.cpp:141] Setting up loss1/relu_fc
I0321 14:23:04.897194 13007 net.cpp:148] Top shape: 5 1024 (5120)
I0321 14:23:04.897203 13007 net.cpp:156] Memory required for data: 197102440
I0321 14:23:04.897213 13007 layer_factory.hpp:77] Creating layer loss1/drop_fc
I0321 14:23:04.897225 13007 net.cpp:91] Creating Layer loss1/drop_fc
I0321 14:23:04.897234 13007 net.cpp:425] loss1/drop_fc <- loss1/fc
I0321 14:23:04.897244 13007 net.cpp:386] loss1/drop_fc -> loss1/fc (in-place)
I0321 14:23:04.897301 13007 net.cpp:141] Setting up loss1/drop_fc
I0321 14:23:04.897315 13007 net.cpp:148] Top shape: 5 1024 (5120)
I0321 14:23:04.897322 13007 net.cpp:156] Memory required for data: 197122920
I0321 14:23:04.897330 13007 layer_factory.hpp:77] Creating layer loss1/classifier_gnet
I0321 14:23:04.897346 13007 net.cpp:91] Creating Layer loss1/classifier_gnet
I0321 14:23:04.897354 13007 net.cpp:425] loss1/classifier_gnet <- loss1/fc
I0321 14:23:04.897390 13007 net.cpp:399] loss1/classifier_gnet -> loss1/classifier_gnet
I0321 14:23:04.911402 13007 net.cpp:141] Setting up loss1/classifier_gnet
I0321 14:23:04.911445 13007 net.cpp:148] Top shape: 5 2048 (10240)
I0321 14:23:04.911455 13007 net.cpp:156] Memory required for data: 197163880
I0321 14:23:04.911470 13007 layer_factory.hpp:77] Creating layer loss1/feat
I0321 14:23:04.911489 13007 net.cpp:91] Creating Layer loss1/feat
I0321 14:23:04.911504 13007 net.cpp:425] loss1/feat <- loss1/classifier_gnet
I0321 14:23:04.911519 13007 net.cpp:399] loss1/feat -> loss1/feat
I0321 14:23:04.911773 13007 net.cpp:141] Setting up loss1/feat
I0321 14:23:04.911789 13007 net.cpp:148] Top shape: 5 6 (30)
I0321 14:23:04.911834 13007 net.cpp:156] Memory required for data: 197164000
I0321 14:23:04.911845 13007 layer_factory.hpp:77] Creating layer loss1/loss
I0321 14:23:04.911859 13007 net.cpp:91] Creating Layer loss1/loss
I0321 14:23:04.911867 13007 net.cpp:425] loss1/loss <- loss1/feat
I0321 14:23:04.911877 13007 net.cpp:425] loss1/loss <- label_label_0_split_0
I0321 14:23:04.911890 13007 net.cpp:399] loss1/loss -> loss1/loss1
I0321 14:23:04.911957 13007 net.cpp:141] Setting up loss1/loss
I0321 14:23:04.911970 13007 net.cpp:148] Top shape: (1)
I0321 14:23:04.911978 13007 net.cpp:151]     with loss weight 0.3
I0321 14:23:04.911996 13007 net.cpp:156] Memory required for data: 197164004
I0321 14:23:04.912005 13007 layer_factory.hpp:77] Creating layer inception_4b/1x1
I0321 14:23:04.912022 13007 net.cpp:91] Creating Layer inception_4b/1x1
I0321 14:23:04.912034 13007 net.cpp:425] inception_4b/1x1 <- inception_4a/output_inception_4a/output_0_split_1
I0321 14:23:04.912048 13007 net.cpp:399] inception_4b/1x1 -> inception_4b/1x1
I0321 14:23:04.913818 13007 net.cpp:141] Setting up inception_4b/1x1
I0321 14:23:04.913842 13007 net.cpp:148] Top shape: 5 160 14 14 (156800)
I0321 14:23:04.913852 13007 net.cpp:156] Memory required for data: 197791204
I0321 14:23:04.913866 13007 layer_factory.hpp:77] Creating layer inception_4b/relu_1x1
I0321 14:23:04.913877 13007 net.cpp:91] Creating Layer inception_4b/relu_1x1
I0321 14:23:04.913887 13007 net.cpp:425] inception_4b/relu_1x1 <- inception_4b/1x1
I0321 14:23:04.913897 13007 net.cpp:386] inception_4b/relu_1x1 -> inception_4b/1x1 (in-place)
I0321 14:23:04.914232 13007 net.cpp:141] Setting up inception_4b/relu_1x1
I0321 14:23:04.914252 13007 net.cpp:148] Top shape: 5 160 14 14 (156800)
I0321 14:23:04.914261 13007 net.cpp:156] Memory required for data: 198418404
I0321 14:23:04.914269 13007 layer_factory.hpp:77] Creating layer inception_4b/3x3_reduce
I0321 14:23:04.914285 13007 net.cpp:91] Creating Layer inception_4b/3x3_reduce
I0321 14:23:04.914297 13007 net.cpp:425] inception_4b/3x3_reduce <- inception_4a/output_inception_4a/output_0_split_2
I0321 14:23:04.914310 13007 net.cpp:399] inception_4b/3x3_reduce -> inception_4b/3x3_reduce
I0321 14:23:04.916247 13007 net.cpp:141] Setting up inception_4b/3x3_reduce
I0321 14:23:04.916270 13007 net.cpp:148] Top shape: 5 112 14 14 (109760)
I0321 14:23:04.916280 13007 net.cpp:156] Memory required for data: 198857444
I0321 14:23:04.916290 13007 layer_factory.hpp:77] Creating layer inception_4b/relu_3x3_reduce
I0321 14:23:04.916304 13007 net.cpp:91] Creating Layer inception_4b/relu_3x3_reduce
I0321 14:23:04.916314 13007 net.cpp:425] inception_4b/relu_3x3_reduce <- inception_4b/3x3_reduce
I0321 14:23:04.916326 13007 net.cpp:386] inception_4b/relu_3x3_reduce -> inception_4b/3x3_reduce (in-place)
I0321 14:23:04.916517 13007 net.cpp:141] Setting up inception_4b/relu_3x3_reduce
I0321 14:23:04.916535 13007 net.cpp:148] Top shape: 5 112 14 14 (109760)
I0321 14:23:04.916544 13007 net.cpp:156] Memory required for data: 199296484
I0321 14:23:04.916553 13007 layer_factory.hpp:77] Creating layer inception_4b/3x3
I0321 14:23:04.916569 13007 net.cpp:91] Creating Layer inception_4b/3x3
I0321 14:23:04.916580 13007 net.cpp:425] inception_4b/3x3 <- inception_4b/3x3_reduce
I0321 14:23:04.916592 13007 net.cpp:399] inception_4b/3x3 -> inception_4b/3x3
I0321 14:23:04.919479 13007 net.cpp:141] Setting up inception_4b/3x3
I0321 14:23:04.919523 13007 net.cpp:148] Top shape: 5 224 14 14 (219520)
I0321 14:23:04.919534 13007 net.cpp:156] Memory required for data: 200174564
I0321 14:23:04.919546 13007 layer_factory.hpp:77] Creating layer inception_4b/relu_3x3
I0321 14:23:04.919560 13007 net.cpp:91] Creating Layer inception_4b/relu_3x3
I0321 14:23:04.919571 13007 net.cpp:425] inception_4b/relu_3x3 <- inception_4b/3x3
I0321 14:23:04.919582 13007 net.cpp:386] inception_4b/relu_3x3 -> inception_4b/3x3 (in-place)
I0321 14:23:04.919916 13007 net.cpp:141] Setting up inception_4b/relu_3x3
I0321 14:23:04.919936 13007 net.cpp:148] Top shape: 5 224 14 14 (219520)
I0321 14:23:04.919945 13007 net.cpp:156] Memory required for data: 201052644
I0321 14:23:04.919956 13007 layer_factory.hpp:77] Creating layer inception_4b/5x5_reduce
I0321 14:23:04.919972 13007 net.cpp:91] Creating Layer inception_4b/5x5_reduce
I0321 14:23:04.919983 13007 net.cpp:425] inception_4b/5x5_reduce <- inception_4a/output_inception_4a/output_0_split_3
I0321 14:23:04.919996 13007 net.cpp:399] inception_4b/5x5_reduce -> inception_4b/5x5_reduce
I0321 14:23:04.921231 13007 net.cpp:141] Setting up inception_4b/5x5_reduce
I0321 14:23:04.921250 13007 net.cpp:148] Top shape: 5 24 14 14 (23520)
I0321 14:23:04.921260 13007 net.cpp:156] Memory required for data: 201146724
I0321 14:23:04.921272 13007 layer_factory.hpp:77] Creating layer inception_4b/relu_5x5_reduce
I0321 14:23:04.921285 13007 net.cpp:91] Creating Layer inception_4b/relu_5x5_reduce
I0321 14:23:04.921305 13007 net.cpp:425] inception_4b/relu_5x5_reduce <- inception_4b/5x5_reduce
I0321 14:23:04.921317 13007 net.cpp:386] inception_4b/relu_5x5_reduce -> inception_4b/5x5_reduce (in-place)
I0321 14:23:04.921643 13007 net.cpp:141] Setting up inception_4b/relu_5x5_reduce
I0321 14:23:04.921660 13007 net.cpp:148] Top shape: 5 24 14 14 (23520)
I0321 14:23:04.921669 13007 net.cpp:156] Memory required for data: 201240804
I0321 14:23:04.921677 13007 layer_factory.hpp:77] Creating layer inception_4b/5x5
I0321 14:23:04.921694 13007 net.cpp:91] Creating Layer inception_4b/5x5
I0321 14:23:04.921705 13007 net.cpp:425] inception_4b/5x5 <- inception_4b/5x5_reduce
I0321 14:23:04.921718 13007 net.cpp:399] inception_4b/5x5 -> inception_4b/5x5
I0321 14:23:04.923180 13007 net.cpp:141] Setting up inception_4b/5x5
I0321 14:23:04.923202 13007 net.cpp:148] Top shape: 5 64 14 14 (62720)
I0321 14:23:04.923212 13007 net.cpp:156] Memory required for data: 201491684
I0321 14:23:04.923224 13007 layer_factory.hpp:77] Creating layer inception_4b/relu_5x5
I0321 14:23:04.923235 13007 net.cpp:91] Creating Layer inception_4b/relu_5x5
I0321 14:23:04.923245 13007 net.cpp:425] inception_4b/relu_5x5 <- inception_4b/5x5
I0321 14:23:04.923256 13007 net.cpp:386] inception_4b/relu_5x5 -> inception_4b/5x5 (in-place)
I0321 14:23:04.923482 13007 net.cpp:141] Setting up inception_4b/relu_5x5
I0321 14:23:04.923501 13007 net.cpp:148] Top shape: 5 64 14 14 (62720)
I0321 14:23:04.923511 13007 net.cpp:156] Memory required for data: 201742564
I0321 14:23:04.923522 13007 layer_factory.hpp:77] Creating layer inception_4b/pool
I0321 14:23:04.923535 13007 net.cpp:91] Creating Layer inception_4b/pool
I0321 14:23:04.923547 13007 net.cpp:425] inception_4b/pool <- inception_4a/output_inception_4a/output_0_split_4
I0321 14:23:04.923558 13007 net.cpp:399] inception_4b/pool -> inception_4b/pool
I0321 14:23:04.923645 13007 net.cpp:141] Setting up inception_4b/pool
I0321 14:23:04.923660 13007 net.cpp:148] Top shape: 5 512 14 14 (501760)
I0321 14:23:04.923668 13007 net.cpp:156] Memory required for data: 203749604
I0321 14:23:04.923677 13007 layer_factory.hpp:77] Creating layer inception_4b/pool_proj
I0321 14:23:04.923694 13007 net.cpp:91] Creating Layer inception_4b/pool_proj
I0321 14:23:04.923707 13007 net.cpp:425] inception_4b/pool_proj <- inception_4b/pool
I0321 14:23:04.923717 13007 net.cpp:399] inception_4b/pool_proj -> inception_4b/pool_proj
I0321 14:23:04.925168 13007 net.cpp:141] Setting up inception_4b/pool_proj
I0321 14:23:04.925186 13007 net.cpp:148] Top shape: 5 64 14 14 (62720)
I0321 14:23:04.925210 13007 net.cpp:156] Memory required for data: 204000484
I0321 14:23:04.925223 13007 layer_factory.hpp:77] Creating layer inception_4b/relu_pool_proj
I0321 14:23:04.925236 13007 net.cpp:91] Creating Layer inception_4b/relu_pool_proj
I0321 14:23:04.925246 13007 net.cpp:425] inception_4b/relu_pool_proj <- inception_4b/pool_proj
I0321 14:23:04.925256 13007 net.cpp:386] inception_4b/relu_pool_proj -> inception_4b/pool_proj (in-place)
I0321 14:23:04.925699 13007 net.cpp:141] Setting up inception_4b/relu_pool_proj
I0321 14:23:04.925719 13007 net.cpp:148] Top shape: 5 64 14 14 (62720)
I0321 14:23:04.925727 13007 net.cpp:156] Memory required for data: 204251364
I0321 14:23:04.925735 13007 layer_factory.hpp:77] Creating layer inception_4b/output
I0321 14:23:04.925746 13007 net.cpp:91] Creating Layer inception_4b/output
I0321 14:23:04.925755 13007 net.cpp:425] inception_4b/output <- inception_4b/1x1
I0321 14:23:04.925765 13007 net.cpp:425] inception_4b/output <- inception_4b/3x3
I0321 14:23:04.925775 13007 net.cpp:425] inception_4b/output <- inception_4b/5x5
I0321 14:23:04.925783 13007 net.cpp:425] inception_4b/output <- inception_4b/pool_proj
I0321 14:23:04.925796 13007 net.cpp:399] inception_4b/output -> inception_4b/output
I0321 14:23:04.925845 13007 net.cpp:141] Setting up inception_4b/output
I0321 14:23:04.925858 13007 net.cpp:148] Top shape: 5 512 14 14 (501760)
I0321 14:23:04.925866 13007 net.cpp:156] Memory required for data: 206258404
I0321 14:23:04.925874 13007 layer_factory.hpp:77] Creating layer inception_4b/output_inception_4b/output_0_split
I0321 14:23:04.925885 13007 net.cpp:91] Creating Layer inception_4b/output_inception_4b/output_0_split
I0321 14:23:04.925894 13007 net.cpp:425] inception_4b/output_inception_4b/output_0_split <- inception_4b/output
I0321 14:23:04.925904 13007 net.cpp:399] inception_4b/output_inception_4b/output_0_split -> inception_4b/output_inception_4b/output_0_split_0
I0321 14:23:04.925917 13007 net.cpp:399] inception_4b/output_inception_4b/output_0_split -> inception_4b/output_inception_4b/output_0_split_1
I0321 14:23:04.925930 13007 net.cpp:399] inception_4b/output_inception_4b/output_0_split -> inception_4b/output_inception_4b/output_0_split_2
I0321 14:23:04.925941 13007 net.cpp:399] inception_4b/output_inception_4b/output_0_split -> inception_4b/output_inception_4b/output_0_split_3
I0321 14:23:04.926048 13007 net.cpp:141] Setting up inception_4b/output_inception_4b/output_0_split
I0321 14:23:04.926062 13007 net.cpp:148] Top shape: 5 512 14 14 (501760)
I0321 14:23:04.926071 13007 net.cpp:148] Top shape: 5 512 14 14 (501760)
I0321 14:23:04.926079 13007 net.cpp:148] Top shape: 5 512 14 14 (501760)
I0321 14:23:04.926089 13007 net.cpp:148] Top shape: 5 512 14 14 (501760)
I0321 14:23:04.926096 13007 net.cpp:156] Memory required for data: 214286564
I0321 14:23:04.926103 13007 layer_factory.hpp:77] Creating layer inception_4c/1x1
I0321 14:23:04.926120 13007 net.cpp:91] Creating Layer inception_4c/1x1
I0321 14:23:04.926129 13007 net.cpp:425] inception_4c/1x1 <- inception_4b/output_inception_4b/output_0_split_0
I0321 14:23:04.926141 13007 net.cpp:399] inception_4c/1x1 -> inception_4c/1x1
I0321 14:23:04.927645 13007 net.cpp:141] Setting up inception_4c/1x1
I0321 14:23:04.927665 13007 net.cpp:148] Top shape: 5 128 14 14 (125440)
I0321 14:23:04.927675 13007 net.cpp:156] Memory required for data: 214788324
I0321 14:23:04.927685 13007 layer_factory.hpp:77] Creating layer inception_4c/relu_1x1
I0321 14:23:04.927698 13007 net.cpp:91] Creating Layer inception_4c/relu_1x1
I0321 14:23:04.927707 13007 net.cpp:425] inception_4c/relu_1x1 <- inception_4c/1x1
I0321 14:23:04.927717 13007 net.cpp:386] inception_4c/relu_1x1 -> inception_4c/1x1 (in-place)
I0321 14:23:04.928053 13007 net.cpp:141] Setting up inception_4c/relu_1x1
I0321 14:23:04.928074 13007 net.cpp:148] Top shape: 5 128 14 14 (125440)
I0321 14:23:04.928086 13007 net.cpp:156] Memory required for data: 215290084
I0321 14:23:04.928097 13007 layer_factory.hpp:77] Creating layer inception_4c/3x3_reduce
I0321 14:23:04.928129 13007 net.cpp:91] Creating Layer inception_4c/3x3_reduce
I0321 14:23:04.928143 13007 net.cpp:425] inception_4c/3x3_reduce <- inception_4b/output_inception_4b/output_0_split_1
I0321 14:23:04.928154 13007 net.cpp:399] inception_4c/3x3_reduce -> inception_4c/3x3_reduce
I0321 14:23:04.929801 13007 net.cpp:141] Setting up inception_4c/3x3_reduce
I0321 14:23:04.929821 13007 net.cpp:148] Top shape: 5 128 14 14 (125440)
I0321 14:23:04.929831 13007 net.cpp:156] Memory required for data: 215791844
I0321 14:23:04.929855 13007 layer_factory.hpp:77] Creating layer inception_4c/relu_3x3_reduce
I0321 14:23:04.929869 13007 net.cpp:91] Creating Layer inception_4c/relu_3x3_reduce
I0321 14:23:04.929879 13007 net.cpp:425] inception_4c/relu_3x3_reduce <- inception_4c/3x3_reduce
I0321 14:23:04.929889 13007 net.cpp:386] inception_4c/relu_3x3_reduce -> inception_4c/3x3_reduce (in-place)
I0321 14:23:04.930084 13007 net.cpp:141] Setting up inception_4c/relu_3x3_reduce
I0321 14:23:04.930099 13007 net.cpp:148] Top shape: 5 128 14 14 (125440)
I0321 14:23:04.930107 13007 net.cpp:156] Memory required for data: 216293604
I0321 14:23:04.930115 13007 layer_factory.hpp:77] Creating layer inception_4c/3x3
I0321 14:23:04.930131 13007 net.cpp:91] Creating Layer inception_4c/3x3
I0321 14:23:04.930142 13007 net.cpp:425] inception_4c/3x3 <- inception_4c/3x3_reduce
I0321 14:23:04.930153 13007 net.cpp:399] inception_4c/3x3 -> inception_4c/3x3
I0321 14:23:04.933509 13007 net.cpp:141] Setting up inception_4c/3x3
I0321 14:23:04.933532 13007 net.cpp:148] Top shape: 5 256 14 14 (250880)
I0321 14:23:04.933542 13007 net.cpp:156] Memory required for data: 217297124
I0321 14:23:04.933554 13007 layer_factory.hpp:77] Creating layer inception_4c/relu_3x3
I0321 14:23:04.933565 13007 net.cpp:91] Creating Layer inception_4c/relu_3x3
I0321 14:23:04.933575 13007 net.cpp:425] inception_4c/relu_3x3 <- inception_4c/3x3
I0321 14:23:04.933585 13007 net.cpp:386] inception_4c/relu_3x3 -> inception_4c/3x3 (in-place)
I0321 14:23:04.933913 13007 net.cpp:141] Setting up inception_4c/relu_3x3
I0321 14:23:04.933931 13007 net.cpp:148] Top shape: 5 256 14 14 (250880)
I0321 14:23:04.933940 13007 net.cpp:156] Memory required for data: 218300644
I0321 14:23:04.933948 13007 layer_factory.hpp:77] Creating layer inception_4c/5x5_reduce
I0321 14:23:04.933964 13007 net.cpp:91] Creating Layer inception_4c/5x5_reduce
I0321 14:23:04.933974 13007 net.cpp:425] inception_4c/5x5_reduce <- inception_4b/output_inception_4b/output_0_split_2
I0321 14:23:04.933987 13007 net.cpp:399] inception_4c/5x5_reduce -> inception_4c/5x5_reduce
I0321 14:23:04.935595 13007 net.cpp:141] Setting up inception_4c/5x5_reduce
I0321 14:23:04.935614 13007 net.cpp:148] Top shape: 5 24 14 14 (23520)
I0321 14:23:04.935623 13007 net.cpp:156] Memory required for data: 218394724
I0321 14:23:04.935634 13007 layer_factory.hpp:77] Creating layer inception_4c/relu_5x5_reduce
I0321 14:23:04.935647 13007 net.cpp:91] Creating Layer inception_4c/relu_5x5_reduce
I0321 14:23:04.935657 13007 net.cpp:425] inception_4c/relu_5x5_reduce <- inception_4c/5x5_reduce
I0321 14:23:04.935667 13007 net.cpp:386] inception_4c/relu_5x5_reduce -> inception_4c/5x5_reduce (in-place)
I0321 14:23:04.935994 13007 net.cpp:141] Setting up inception_4c/relu_5x5_reduce
I0321 14:23:04.936012 13007 net.cpp:148] Top shape: 5 24 14 14 (23520)
I0321 14:23:04.936022 13007 net.cpp:156] Memory required for data: 218488804
I0321 14:23:04.936029 13007 layer_factory.hpp:77] Creating layer inception_4c/5x5
I0321 14:23:04.936046 13007 net.cpp:91] Creating Layer inception_4c/5x5
I0321 14:23:04.936058 13007 net.cpp:425] inception_4c/5x5 <- inception_4c/5x5_reduce
I0321 14:23:04.936069 13007 net.cpp:399] inception_4c/5x5 -> inception_4c/5x5
I0321 14:23:04.937969 13007 net.cpp:141] Setting up inception_4c/5x5
I0321 14:23:04.937990 13007 net.cpp:148] Top shape: 5 64 14 14 (62720)
I0321 14:23:04.937999 13007 net.cpp:156] Memory required for data: 218739684
I0321 14:23:04.938011 13007 layer_factory.hpp:77] Creating layer inception_4c/relu_5x5
I0321 14:23:04.938024 13007 net.cpp:91] Creating Layer inception_4c/relu_5x5
I0321 14:23:04.938048 13007 net.cpp:425] inception_4c/relu_5x5 <- inception_4c/5x5
I0321 14:23:04.938060 13007 net.cpp:386] inception_4c/relu_5x5 -> inception_4c/5x5 (in-place)
I0321 14:23:04.938268 13007 net.cpp:141] Setting up inception_4c/relu_5x5
I0321 14:23:04.938284 13007 net.cpp:148] Top shape: 5 64 14 14 (62720)
I0321 14:23:04.938293 13007 net.cpp:156] Memory required for data: 218990564
I0321 14:23:04.938302 13007 layer_factory.hpp:77] Creating layer inception_4c/pool
I0321 14:23:04.938313 13007 net.cpp:91] Creating Layer inception_4c/pool
I0321 14:23:04.938323 13007 net.cpp:425] inception_4c/pool <- inception_4b/output_inception_4b/output_0_split_3
I0321 14:23:04.938335 13007 net.cpp:399] inception_4c/pool -> inception_4c/pool
I0321 14:23:04.938412 13007 net.cpp:141] Setting up inception_4c/pool
I0321 14:23:04.938426 13007 net.cpp:148] Top shape: 5 512 14 14 (501760)
I0321 14:23:04.938434 13007 net.cpp:156] Memory required for data: 220997604
I0321 14:23:04.938441 13007 layer_factory.hpp:77] Creating layer inception_4c/pool_proj
I0321 14:23:04.938457 13007 net.cpp:91] Creating Layer inception_4c/pool_proj
I0321 14:23:04.938467 13007 net.cpp:425] inception_4c/pool_proj <- inception_4c/pool
I0321 14:23:04.938478 13007 net.cpp:399] inception_4c/pool_proj -> inception_4c/pool_proj
I0321 14:23:04.940469 13007 net.cpp:141] Setting up inception_4c/pool_proj
I0321 14:23:04.940488 13007 net.cpp:148] Top shape: 5 64 14 14 (62720)
I0321 14:23:04.940497 13007 net.cpp:156] Memory required for data: 221248484
I0321 14:23:04.940510 13007 layer_factory.hpp:77] Creating layer inception_4c/relu_pool_proj
I0321 14:23:04.940522 13007 net.cpp:91] Creating Layer inception_4c/relu_pool_proj
I0321 14:23:04.940532 13007 net.cpp:425] inception_4c/relu_pool_proj <- inception_4c/pool_proj
I0321 14:23:04.940542 13007 net.cpp:386] inception_4c/relu_pool_proj -> inception_4c/pool_proj (in-place)
I0321 14:23:04.940866 13007 net.cpp:141] Setting up inception_4c/relu_pool_proj
I0321 14:23:04.940884 13007 net.cpp:148] Top shape: 5 64 14 14 (62720)
I0321 14:23:04.940893 13007 net.cpp:156] Memory required for data: 221499364
I0321 14:23:04.940901 13007 layer_factory.hpp:77] Creating layer inception_4c/output
I0321 14:23:04.940914 13007 net.cpp:91] Creating Layer inception_4c/output
I0321 14:23:04.940924 13007 net.cpp:425] inception_4c/output <- inception_4c/1x1
I0321 14:23:04.940935 13007 net.cpp:425] inception_4c/output <- inception_4c/3x3
I0321 14:23:04.940944 13007 net.cpp:425] inception_4c/output <- inception_4c/5x5
I0321 14:23:04.940953 13007 net.cpp:425] inception_4c/output <- inception_4c/pool_proj
I0321 14:23:04.940963 13007 net.cpp:399] inception_4c/output -> inception_4c/output
I0321 14:23:04.941014 13007 net.cpp:141] Setting up inception_4c/output
I0321 14:23:04.941076 13007 net.cpp:148] Top shape: 5 512 14 14 (501760)
I0321 14:23:04.941087 13007 net.cpp:156] Memory required for data: 223506404
I0321 14:23:04.941095 13007 layer_factory.hpp:77] Creating layer inception_4c/output_inception_4c/output_0_split
I0321 14:23:04.941107 13007 net.cpp:91] Creating Layer inception_4c/output_inception_4c/output_0_split
I0321 14:23:04.941115 13007 net.cpp:425] inception_4c/output_inception_4c/output_0_split <- inception_4c/output
I0321 14:23:04.941128 13007 net.cpp:399] inception_4c/output_inception_4c/output_0_split -> inception_4c/output_inception_4c/output_0_split_0
I0321 14:23:04.941141 13007 net.cpp:399] inception_4c/output_inception_4c/output_0_split -> inception_4c/output_inception_4c/output_0_split_1
I0321 14:23:04.941154 13007 net.cpp:399] inception_4c/output_inception_4c/output_0_split -> inception_4c/output_inception_4c/output_0_split_2
I0321 14:23:04.941165 13007 net.cpp:399] inception_4c/output_inception_4c/output_0_split -> inception_4c/output_inception_4c/output_0_split_3
I0321 14:23:04.941277 13007 net.cpp:141] Setting up inception_4c/output_inception_4c/output_0_split
I0321 14:23:04.941303 13007 net.cpp:148] Top shape: 5 512 14 14 (501760)
I0321 14:23:04.941313 13007 net.cpp:148] Top shape: 5 512 14 14 (501760)
I0321 14:23:04.941335 13007 net.cpp:148] Top shape: 5 512 14 14 (501760)
I0321 14:23:04.941345 13007 net.cpp:148] Top shape: 5 512 14 14 (501760)
I0321 14:23:04.941354 13007 net.cpp:156] Memory required for data: 231534564
I0321 14:23:04.941361 13007 layer_factory.hpp:77] Creating layer inception_4d/1x1
I0321 14:23:04.941378 13007 net.cpp:91] Creating Layer inception_4d/1x1
I0321 14:23:04.941388 13007 net.cpp:425] inception_4d/1x1 <- inception_4c/output_inception_4c/output_0_split_0
I0321 14:23:04.941400 13007 net.cpp:399] inception_4d/1x1 -> inception_4d/1x1
I0321 14:23:04.942948 13007 net.cpp:141] Setting up inception_4d/1x1
I0321 14:23:04.942968 13007 net.cpp:148] Top shape: 5 112 14 14 (109760)
I0321 14:23:04.942977 13007 net.cpp:156] Memory required for data: 231973604
I0321 14:23:04.942988 13007 layer_factory.hpp:77] Creating layer inception_4d/relu_1x1
I0321 14:23:04.943001 13007 net.cpp:91] Creating Layer inception_4d/relu_1x1
I0321 14:23:04.943009 13007 net.cpp:425] inception_4d/relu_1x1 <- inception_4d/1x1
I0321 14:23:04.943023 13007 net.cpp:386] inception_4d/relu_1x1 -> inception_4d/1x1 (in-place)
I0321 14:23:04.943361 13007 net.cpp:141] Setting up inception_4d/relu_1x1
I0321 14:23:04.943378 13007 net.cpp:148] Top shape: 5 112 14 14 (109760)
I0321 14:23:04.943387 13007 net.cpp:156] Memory required for data: 232412644
I0321 14:23:04.943395 13007 layer_factory.hpp:77] Creating layer inception_4d/3x3_reduce
I0321 14:23:04.943411 13007 net.cpp:91] Creating Layer inception_4d/3x3_reduce
I0321 14:23:04.943421 13007 net.cpp:425] inception_4d/3x3_reduce <- inception_4c/output_inception_4c/output_0_split_1
I0321 14:23:04.943435 13007 net.cpp:399] inception_4d/3x3_reduce -> inception_4d/3x3_reduce
I0321 14:23:04.945283 13007 net.cpp:141] Setting up inception_4d/3x3_reduce
I0321 14:23:04.945314 13007 net.cpp:148] Top shape: 5 144 14 14 (141120)
I0321 14:23:04.945323 13007 net.cpp:156] Memory required for data: 232977124
I0321 14:23:04.945335 13007 layer_factory.hpp:77] Creating layer inception_4d/relu_3x3_reduce
I0321 14:23:04.945348 13007 net.cpp:91] Creating Layer inception_4d/relu_3x3_reduce
I0321 14:23:04.945358 13007 net.cpp:425] inception_4d/relu_3x3_reduce <- inception_4d/3x3_reduce
I0321 14:23:04.945368 13007 net.cpp:386] inception_4d/relu_3x3_reduce -> inception_4d/3x3_reduce (in-place)
I0321 14:23:04.945575 13007 net.cpp:141] Setting up inception_4d/relu_3x3_reduce
I0321 14:23:04.945591 13007 net.cpp:148] Top shape: 5 144 14 14 (141120)
I0321 14:23:04.945600 13007 net.cpp:156] Memory required for data: 233541604
I0321 14:23:04.945607 13007 layer_factory.hpp:77] Creating layer inception_4d/3x3
I0321 14:23:04.945622 13007 net.cpp:91] Creating Layer inception_4d/3x3
I0321 14:23:04.945632 13007 net.cpp:425] inception_4d/3x3 <- inception_4d/3x3_reduce
I0321 14:23:04.945644 13007 net.cpp:399] inception_4d/3x3 -> inception_4d/3x3
I0321 14:23:04.949525 13007 net.cpp:141] Setting up inception_4d/3x3
I0321 14:23:04.949550 13007 net.cpp:148] Top shape: 5 288 14 14 (282240)
I0321 14:23:04.949559 13007 net.cpp:156] Memory required for data: 234670564
I0321 14:23:04.949571 13007 layer_factory.hpp:77] Creating layer inception_4d/relu_3x3
I0321 14:23:04.949584 13007 net.cpp:91] Creating Layer inception_4d/relu_3x3
I0321 14:23:04.949595 13007 net.cpp:425] inception_4d/relu_3x3 <- inception_4d/3x3
I0321 14:23:04.949606 13007 net.cpp:386] inception_4d/relu_3x3 -> inception_4d/3x3 (in-place)
I0321 14:23:04.949933 13007 net.cpp:141] Setting up inception_4d/relu_3x3
I0321 14:23:04.949951 13007 net.cpp:148] Top shape: 5 288 14 14 (282240)
I0321 14:23:04.949959 13007 net.cpp:156] Memory required for data: 235799524
I0321 14:23:04.949967 13007 layer_factory.hpp:77] Creating layer inception_4d/5x5_reduce
I0321 14:23:04.949986 13007 net.cpp:91] Creating Layer inception_4d/5x5_reduce
I0321 14:23:04.949996 13007 net.cpp:425] inception_4d/5x5_reduce <- inception_4c/output_inception_4c/output_0_split_2
I0321 14:23:04.950009 13007 net.cpp:399] inception_4d/5x5_reduce -> inception_4d/5x5_reduce
I0321 14:23:04.951289 13007 net.cpp:141] Setting up inception_4d/5x5_reduce
I0321 14:23:04.951328 13007 net.cpp:148] Top shape: 5 32 14 14 (31360)
I0321 14:23:04.951338 13007 net.cpp:156] Memory required for data: 235924964
I0321 14:23:04.951349 13007 layer_factory.hpp:77] Creating layer inception_4d/relu_5x5_reduce
I0321 14:23:04.951360 13007 net.cpp:91] Creating Layer inception_4d/relu_5x5_reduce
I0321 14:23:04.951370 13007 net.cpp:425] inception_4d/relu_5x5_reduce <- inception_4d/5x5_reduce
I0321 14:23:04.951381 13007 net.cpp:386] inception_4d/relu_5x5_reduce -> inception_4d/5x5_reduce (in-place)
I0321 14:23:04.951714 13007 net.cpp:141] Setting up inception_4d/relu_5x5_reduce
I0321 14:23:04.951731 13007 net.cpp:148] Top shape: 5 32 14 14 (31360)
I0321 14:23:04.951740 13007 net.cpp:156] Memory required for data: 236050404
I0321 14:23:04.951747 13007 layer_factory.hpp:77] Creating layer inception_4d/5x5
I0321 14:23:04.951763 13007 net.cpp:91] Creating Layer inception_4d/5x5
I0321 14:23:04.951773 13007 net.cpp:425] inception_4d/5x5 <- inception_4d/5x5_reduce
I0321 14:23:04.951787 13007 net.cpp:399] inception_4d/5x5 -> inception_4d/5x5
I0321 14:23:04.953426 13007 net.cpp:141] Setting up inception_4d/5x5
I0321 14:23:04.953446 13007 net.cpp:148] Top shape: 5 64 14 14 (62720)
I0321 14:23:04.953455 13007 net.cpp:156] Memory required for data: 236301284
I0321 14:23:04.953467 13007 layer_factory.hpp:77] Creating layer inception_4d/relu_5x5
I0321 14:23:04.953480 13007 net.cpp:91] Creating Layer inception_4d/relu_5x5
I0321 14:23:04.953490 13007 net.cpp:425] inception_4d/relu_5x5 <- inception_4d/5x5
I0321 14:23:04.953500 13007 net.cpp:386] inception_4d/relu_5x5 -> inception_4d/5x5 (in-place)
I0321 14:23:04.953711 13007 net.cpp:141] Setting up inception_4d/relu_5x5
I0321 14:23:04.953727 13007 net.cpp:148] Top shape: 5 64 14 14 (62720)
I0321 14:23:04.953734 13007 net.cpp:156] Memory required for data: 236552164
I0321 14:23:04.953742 13007 layer_factory.hpp:77] Creating layer inception_4d/pool
I0321 14:23:04.953754 13007 net.cpp:91] Creating Layer inception_4d/pool
I0321 14:23:04.953763 13007 net.cpp:425] inception_4d/pool <- inception_4c/output_inception_4c/output_0_split_3
I0321 14:23:04.953776 13007 net.cpp:399] inception_4d/pool -> inception_4d/pool
I0321 14:23:04.953852 13007 net.cpp:141] Setting up inception_4d/pool
I0321 14:23:04.953867 13007 net.cpp:148] Top shape: 5 512 14 14 (501760)
I0321 14:23:04.953874 13007 net.cpp:156] Memory required for data: 238559204
I0321 14:23:04.953883 13007 layer_factory.hpp:77] Creating layer inception_4d/pool_proj
I0321 14:23:04.953898 13007 net.cpp:91] Creating Layer inception_4d/pool_proj
I0321 14:23:04.953908 13007 net.cpp:425] inception_4d/pool_proj <- inception_4d/pool
I0321 14:23:04.953919 13007 net.cpp:399] inception_4d/pool_proj -> inception_4d/pool_proj
I0321 14:23:04.955417 13007 net.cpp:141] Setting up inception_4d/pool_proj
I0321 14:23:04.955436 13007 net.cpp:148] Top shape: 5 64 14 14 (62720)
I0321 14:23:04.955446 13007 net.cpp:156] Memory required for data: 238810084
I0321 14:23:04.955456 13007 layer_factory.hpp:77] Creating layer inception_4d/relu_pool_proj
I0321 14:23:04.955469 13007 net.cpp:91] Creating Layer inception_4d/relu_pool_proj
I0321 14:23:04.955478 13007 net.cpp:425] inception_4d/relu_pool_proj <- inception_4d/pool_proj
I0321 14:23:04.955489 13007 net.cpp:386] inception_4d/relu_pool_proj -> inception_4d/pool_proj (in-place)
I0321 14:23:04.955814 13007 net.cpp:141] Setting up inception_4d/relu_pool_proj
I0321 14:23:04.955832 13007 net.cpp:148] Top shape: 5 64 14 14 (62720)
I0321 14:23:04.955842 13007 net.cpp:156] Memory required for data: 239060964
I0321 14:23:04.955849 13007 layer_factory.hpp:77] Creating layer inception_4d/output
I0321 14:23:04.955862 13007 net.cpp:91] Creating Layer inception_4d/output
I0321 14:23:04.955873 13007 net.cpp:425] inception_4d/output <- inception_4d/1x1
I0321 14:23:04.955881 13007 net.cpp:425] inception_4d/output <- inception_4d/3x3
I0321 14:23:04.955890 13007 net.cpp:425] inception_4d/output <- inception_4d/5x5
I0321 14:23:04.955899 13007 net.cpp:425] inception_4d/output <- inception_4d/pool_proj
I0321 14:23:04.955925 13007 net.cpp:399] inception_4d/output -> inception_4d/output
I0321 14:23:04.955978 13007 net.cpp:141] Setting up inception_4d/output
I0321 14:23:04.955991 13007 net.cpp:148] Top shape: 5 528 14 14 (517440)
I0321 14:23:04.955999 13007 net.cpp:156] Memory required for data: 241130724
I0321 14:23:04.956008 13007 layer_factory.hpp:77] Creating layer loss2/ave_pool
I0321 14:23:04.956020 13007 net.cpp:91] Creating Layer loss2/ave_pool
I0321 14:23:04.956029 13007 net.cpp:425] loss2/ave_pool <- inception_4d/output
I0321 14:23:04.956039 13007 net.cpp:399] loss2/ave_pool -> loss2/ave_pool
I0321 14:23:04.956274 13007 net.cpp:141] Setting up loss2/ave_pool
I0321 14:23:04.956290 13007 net.cpp:148] Top shape: 5 528 4 4 (42240)
I0321 14:23:04.956297 13007 net.cpp:156] Memory required for data: 241299684
I0321 14:23:04.956305 13007 layer_factory.hpp:77] Creating layer loss2/conv
I0321 14:23:04.956321 13007 net.cpp:91] Creating Layer loss2/conv
I0321 14:23:04.956331 13007 net.cpp:425] loss2/conv <- loss2/ave_pool
I0321 14:23:04.956341 13007 net.cpp:399] loss2/conv -> loss2/conv
I0321 14:23:04.958086 13007 net.cpp:141] Setting up loss2/conv
I0321 14:23:04.958107 13007 net.cpp:148] Top shape: 5 128 4 4 (10240)
I0321 14:23:04.958117 13007 net.cpp:156] Memory required for data: 241340644
I0321 14:23:04.958127 13007 layer_factory.hpp:77] Creating layer loss2/relu_conv
I0321 14:23:04.958139 13007 net.cpp:91] Creating Layer loss2/relu_conv
I0321 14:23:04.958148 13007 net.cpp:425] loss2/relu_conv <- loss2/conv
I0321 14:23:04.958158 13007 net.cpp:386] loss2/relu_conv -> loss2/conv (in-place)
I0321 14:23:04.958359 13007 net.cpp:141] Setting up loss2/relu_conv
I0321 14:23:04.958374 13007 net.cpp:148] Top shape: 5 128 4 4 (10240)
I0321 14:23:04.958384 13007 net.cpp:156] Memory required for data: 241381604
I0321 14:23:04.958390 13007 layer_factory.hpp:77] Creating layer loss2/fc
I0321 14:23:04.958405 13007 net.cpp:91] Creating Layer loss2/fc
I0321 14:23:04.958415 13007 net.cpp:425] loss2/fc <- loss2/conv
I0321 14:23:04.958425 13007 net.cpp:399] loss2/fc -> loss2/fc
I0321 14:23:04.972491 13007 net.cpp:141] Setting up loss2/fc
I0321 14:23:04.972532 13007 net.cpp:148] Top shape: 5 1024 (5120)
I0321 14:23:04.972545 13007 net.cpp:156] Memory required for data: 241402084
I0321 14:23:04.972563 13007 layer_factory.hpp:77] Creating layer loss2/relu_fc
I0321 14:23:04.972579 13007 net.cpp:91] Creating Layer loss2/relu_fc
I0321 14:23:04.972590 13007 net.cpp:425] loss2/relu_fc <- loss2/fc
I0321 14:23:04.972604 13007 net.cpp:386] loss2/relu_fc -> loss2/fc (in-place)
I0321 14:23:04.973116 13007 net.cpp:141] Setting up loss2/relu_fc
I0321 14:23:04.973135 13007 net.cpp:148] Top shape: 5 1024 (5120)
I0321 14:23:04.973145 13007 net.cpp:156] Memory required for data: 241422564
I0321 14:23:04.973153 13007 layer_factory.hpp:77] Creating layer loss2/drop_fc
I0321 14:23:04.973165 13007 net.cpp:91] Creating Layer loss2/drop_fc
I0321 14:23:04.973175 13007 net.cpp:425] loss2/drop_fc <- loss2/fc
I0321 14:23:04.973186 13007 net.cpp:386] loss2/drop_fc -> loss2/fc (in-place)
I0321 14:23:04.973268 13007 net.cpp:141] Setting up loss2/drop_fc
I0321 14:23:04.973284 13007 net.cpp:148] Top shape: 5 1024 (5120)
I0321 14:23:04.973304 13007 net.cpp:156] Memory required for data: 241443044
I0321 14:23:04.973312 13007 layer_factory.hpp:77] Creating layer loss2/classifier_gnet
I0321 14:23:04.973328 13007 net.cpp:91] Creating Layer loss2/classifier_gnet
I0321 14:23:04.973337 13007 net.cpp:425] loss2/classifier_gnet <- loss2/fc
I0321 14:23:04.973351 13007 net.cpp:399] loss2/classifier_gnet -> loss2/classifier_gnet
I0321 14:23:04.987360 13007 net.cpp:141] Setting up loss2/classifier_gnet
I0321 14:23:04.987406 13007 net.cpp:148] Top shape: 5 2048 (10240)
I0321 14:23:04.987416 13007 net.cpp:156] Memory required for data: 241484004
I0321 14:23:04.987431 13007 layer_factory.hpp:77] Creating layer loss2/feat
I0321 14:23:04.987447 13007 net.cpp:91] Creating Layer loss2/feat
I0321 14:23:04.987459 13007 net.cpp:425] loss2/feat <- loss2/classifier_gnet
I0321 14:23:04.987507 13007 net.cpp:399] loss2/feat -> loss2/feat
I0321 14:23:04.987781 13007 net.cpp:141] Setting up loss2/feat
I0321 14:23:04.987794 13007 net.cpp:148] Top shape: 5 6 (30)
I0321 14:23:04.987802 13007 net.cpp:156] Memory required for data: 241484124
I0321 14:23:04.987813 13007 layer_factory.hpp:77] Creating layer loss2/loss
I0321 14:23:04.987826 13007 net.cpp:91] Creating Layer loss2/loss
I0321 14:23:04.987835 13007 net.cpp:425] loss2/loss <- loss2/feat
I0321 14:23:04.987845 13007 net.cpp:425] loss2/loss <- label_label_0_split_1
I0321 14:23:04.987855 13007 net.cpp:399] loss2/loss -> loss2/loss1
…
