…
I0320 16:18:07.525132  6740 net.cpp:49] Initializing net from parameters: 
name: "GNet"
state {
  phase: TRAIN
}
layer {
  name: "data"
  type: "ImageData"
  top: "data"
  include {
    phase: TRAIN
  }
  transform_param {
    mirror: true
    crop_size: 224
    mean_value: 104
    mean_value: 117
    mean_value: 123
  }
  image_data_param {
    source: "/media/hdd3/gnet/data/train.txt"
    batch_size: 260
  }
}
layer {
  name: "label"
  type: "Data"
  top: "label"
  include {
    phase: TRAIN
  }
  data_param {
    source: "/media/hdd3/gnet/data/train"
    batch_size: 260
    backend: LMDB
  }
}
layer {
  name: "conv1"
  type: "Convolution"
  bottom: "data"
  top: "conv1"
  param {
    lr_mult: 1
    decay_mult: 1
  }
  param {
    lr_mult: 2
    decay_mult: 0
  }
  convolution_param {
    num_output: 96
    kernel_size: 11
    stride: 4
    weight_filler {
      type: "gaussian"
      std: 0.01
    }
    bias_filler {
      type: "constant"
      value: 0
    }
  }
}
layer {
  name: "relu1"
  type: "ReLU"
  bottom: "conv1"
  top: "conv1"
}
layer {
  name: "pool1"
  type: "Pooling"
  bottom: "conv1"
  top: "pool1"
  pooling_param {
    pool: MAX
    kernel_size: 3
    stride: 2
  }
}
layer {
  name: "norm1"
  type: "LRN"
  bottom: "pool1"
  top: "norm1"
  lrn_param {
    local_size: 5
    alpha: 0.0001
    beta: 0.75
  }
}
layer {
  name: "conv2"
  type: "Convolution"
  bottom: "norm1"
  top: "conv2"
  param {
    lr_mult: 1
    decay_mult: 1
  }
  param {
    lr_mult: 2
    decay_mult: 0
  }
  convolution_param {
    num_output: 256
    pad: 2
    kernel_size: 5
    group: 2
    weight_filler {
      type: "gaussian"
      std: 0.01
    }
    bias_filler {
      type: "constant"
      value: 1
    }
  }
}
layer {
  name: "relu2"
  type: "ReLU"
  bottom: "conv2"
  top: "conv2"
}
layer {
  name: "pool2"
  type: "Pooling"
  bottom: "conv2"
  top: "pool2"
  pooling_param {
    pool: MAX
    kernel_size: 3
    stride: 2
  }
}
layer {
  name: "norm2"
  type: "LRN"
  bottom: "pool2"
  top: "norm2"
  lrn_param {
    local_size: 5
    alpha: 0.0001
    beta: 0.75
  }
}
layer {
  name: "conv3"
  type: "Convolution"
  bottom: "norm2"
  top: "conv3"
  param {
    lr_mult: 1
    decay_mult: 1
  }
  param {
    lr_mult: 2
    decay_mult: 0
  }
  convolution_param {
    num_output: 384
    pad: 1
    kernel_size: 3
    weight_filler {
      type: "gaussian"
      std: 0.01
    }
    bias_filler {
      type: "constant"
      value: 0
    }
  }
}
layer {
  name: "relu3"
  type: "ReLU"
  bottom: "conv3"
  top: "conv3"
}
layer {
  name: "conv4"
  type: "Convolution"
  bottom: "conv3"
  top: "conv4"
  param {
    lr_mult: 1
    decay_mult: 1
  }
  param {
    lr_mult: 2
    decay_mult: 0
  }
  convolution_param {
    num_output: 384
    pad: 1
    kernel_size: 3
    group: 2
    weight_filler {
      type: "gaussian"
      std: 0.01
    }
    bias_filler {
      type: "constant"
      value: 1
    }
  }
}
layer {
  name: "relu4"
  type: "ReLU"
  bottom: "conv4"
  top: "conv4"
}
layer {
  name: "conv5"
  type: "Convolution"
  bottom: "conv4"
  top: "conv5"
  param {
    lr_mult: 1
    decay_mult: 1
  }
  param {
    lr_mult: 2
    decay_mult: 0
  }
  convolution_param {
    num_output: 256
    pad: 1
    kernel_size: 3
    group: 2
    weight_filler {
      type: "gaussian"
      std: 0.01
    }
    bias_filler {
      type: "constant"
      value: 1
    }
  }
}
layer {
  name: "relu5"
  type: "ReLU"
  bottom: "conv5"
  top: "conv5"
}
layer {
  name: "pool5"
  type: "Pooling"
  bottom: "conv5"
  top: "pool5"
  pooling_param {
    pool: MAX
    kernel_size: 3
    stride: 2
  }
}
layer {
  name: "fc6"
  type: "InnerProduct"
  bottom: "pool5"
  top: "fc6"
  param {
    lr_mult: 1
    decay_mult: 1
  }
  param {
    lr_mult: 2
    decay_mult: 0
  }
  inner_product_param {
    num_output: 4096
    weight_filler {
      type: "gaussian"
      std: 0.005
    }
    bias_filler {
      type: "constant"
      value: 1
    }
  }
}
layer {
  name: "relu6"
  type: "ReLU"
  bottom: "fc6"
  top: "fc6"
}
layer {
  name: "drop6"
  type: "Dropout"
  bottom: "fc6"
  top: "fc6"
  dropout_param {
    dropout_ratio: 0.5
  }
}
layer {
  name: "fc7"
  type: "InnerProduct"
  bottom: "fc6"
  top: "fc7"
  param {
    lr_mult: 1
    decay_mult: 1
  }
  param {
    lr_mult: 2
    decay_mult: 0
  }
  inner_product_param {
    num_output: 4096
    weight_filler {
      type: "gaussian"
      std: 0.005
    }
    bias_filler {
      type: "constant"
      value: 1
    }
  }
}
layer {
  name: "relu7"
  type: "ReLU"
  bottom: "fc7"
  top: "fc7"
}
layer {
  name: "drop7"
  type: "Dropout"
  bottom: "fc7"
  top: "fc7"
  dropout_param {
    dropout_ratio: 0.5
  }
}
layer {
  name: "fc8_flickr"
  type: "InnerProduct"
  bottom: "fc7"
  top: "fc8_flickr"
  param {
    lr_mult: 10
    decay_mult: 1
  }
  param {
    lr_mult: 20
    decay_mult: 0
  }
  inner_product_param {
    num_output: 6
    weight_filler {
      type: "gaussian"
      std: 0.01
    }
    bias_filler {
      type: "constant"
      value: 0
    }
  }
}
layer {
  name: "loss"
  type: "EuclideanLoss"
  bottom: "fc8_flickr"
  bottom: "label"
  top: "loss"
}
I0320 16:18:07.527653  6740 layer_factory.hpp:77] Creating layer data
I0320 16:18:07.527740  6740 net.cpp:91] Creating Layer data
I0320 16:18:07.533264  6740 net.cpp:399] data -> data
I0320 16:18:07.534122  6740 image_data_layer.cpp:38] Opening file /media/hdd3/gnet/data/train.txt
I0320 16:18:07.679476  6740 image_data_layer.cpp:53] A total of 110288 images.
I0320 16:18:07.747787  6740 image_data_layer.cpp:80] output data size: 260,3,224,224
I0320 16:18:08.010643  6740 net.cpp:141] Setting up data
I0320 16:18:08.010694  6740 net.cpp:148] Top shape: 260 3 224 224 (39137280)
I0320 16:18:08.010704  6740 net.cpp:156] Memory required for data: 156549120
I0320 16:18:08.010717  6740 layer_factory.hpp:77] Creating layer label
I0320 16:18:08.011080  6740 net.cpp:91] Creating Layer label
I0320 16:18:08.011096  6740 net.cpp:399] label -> label
I0320 16:18:08.012765  6746 db_lmdb.cpp:38] Opened lmdb /media/hdd3/gnet/data/train
I0320 16:18:08.012975  6740 data_layer.cpp:41] output data size: 260,1,1,6
I0320 16:18:08.013579  6740 net.cpp:141] Setting up label
I0320 16:18:08.013602  6740 net.cpp:148] Top shape: 260 1 1 6 (1560)
I0320 16:18:08.013610  6740 net.cpp:156] Memory required for data: 156555360
I0320 16:18:08.013619  6740 layer_factory.hpp:77] Creating layer conv1
I0320 16:18:08.013643  6740 net.cpp:91] Creating Layer conv1
I0320 16:18:08.013653  6740 net.cpp:425] conv1 <- data
I0320 16:18:08.013669  6740 net.cpp:399] conv1 -> conv1
I0320 16:18:09.129081  6740 net.cpp:141] Setting up conv1
I0320 16:18:09.129138  6740 net.cpp:148] Top shape: 260 96 54 54 (72783360)
I0320 16:18:09.129155  6740 net.cpp:156] Memory required for data: 447688800
I0320 16:18:09.129187  6740 layer_factory.hpp:77] Creating layer relu1
I0320 16:18:09.129210  6740 net.cpp:91] Creating Layer relu1
I0320 16:18:09.129230  6740 net.cpp:425] relu1 <- conv1
I0320 16:18:09.129247  6740 net.cpp:386] relu1 -> conv1 (in-place)
I0320 16:18:09.129552  6740 net.cpp:141] Setting up relu1
I0320 16:18:09.129582  6740 net.cpp:148] Top shape: 260 96 54 54 (72783360)
I0320 16:18:09.129596  6740 net.cpp:156] Memory required for data: 738822240
I0320 16:18:09.129611  6740 layer_factory.hpp:77] Creating layer pool1
I0320 16:18:09.129631  6740 net.cpp:91] Creating Layer pool1
I0320 16:18:09.129676  6740 net.cpp:425] pool1 <- conv1
I0320 16:18:09.129698  6740 net.cpp:399] pool1 -> pool1
I0320 16:18:09.129783  6740 net.cpp:141] Setting up pool1
I0320 16:18:09.129806  6740 net.cpp:148] Top shape: 260 96 27 27 (18195840)
I0320 16:18:09.129819  6740 net.cpp:156] Memory required for data: 811605600
I0320 16:18:09.129833  6740 layer_factory.hpp:77] Creating layer norm1
I0320 16:18:09.129855  6740 net.cpp:91] Creating Layer norm1
I0320 16:18:09.129868  6740 net.cpp:425] norm1 <- pool1
I0320 16:18:09.129885  6740 net.cpp:399] norm1 -> norm1
I0320 16:18:09.130386  6740 net.cpp:141] Setting up norm1
I0320 16:18:09.130421  6740 net.cpp:148] Top shape: 260 96 27 27 (18195840)
I0320 16:18:09.130436  6740 net.cpp:156] Memory required for data: 884388960
I0320 16:18:09.130450  6740 layer_factory.hpp:77] Creating layer conv2
I0320 16:18:09.130475  6740 net.cpp:91] Creating Layer conv2
I0320 16:18:09.130491  6740 net.cpp:425] conv2 <- norm1
I0320 16:18:09.130509  6740 net.cpp:399] conv2 -> conv2
I0320 16:18:09.149447  6740 net.cpp:141] Setting up conv2
I0320 16:18:09.149488  6740 net.cpp:148] Top shape: 260 256 27 27 (48522240)
I0320 16:18:09.149503  6740 net.cpp:156] Memory required for data: 1078477920
I0320 16:18:09.149530  6740 layer_factory.hpp:77] Creating layer relu2
I0320 16:18:09.149551  6740 net.cpp:91] Creating Layer relu2
I0320 16:18:09.149565  6740 net.cpp:425] relu2 <- conv2
I0320 16:18:09.149582  6740 net.cpp:386] relu2 -> conv2 (in-place)
I0320 16:18:09.149871  6740 net.cpp:141] Setting up relu2
I0320 16:18:09.149898  6740 net.cpp:148] Top shape: 260 256 27 27 (48522240)
I0320 16:18:09.149911  6740 net.cpp:156] Memory required for data: 1272566880
I0320 16:18:09.149924  6740 layer_factory.hpp:77] Creating layer pool2
I0320 16:18:09.149945  6740 net.cpp:91] Creating Layer pool2
I0320 16:18:09.149960  6740 net.cpp:425] pool2 <- conv2
I0320 16:18:09.149976  6740 net.cpp:399] pool2 -> pool2
I0320 16:18:09.150050  6740 net.cpp:141] Setting up pool2
I0320 16:18:09.150071  6740 net.cpp:148] Top shape: 260 256 13 13 (11248640)
I0320 16:18:09.150085  6740 net.cpp:156] Memory required for data: 1317561440
I0320 16:18:09.150097  6740 layer_factory.hpp:77] Creating layer norm2
I0320 16:18:09.150115  6740 net.cpp:91] Creating Layer norm2
I0320 16:18:09.150128  6740 net.cpp:425] norm2 <- pool2
I0320 16:18:09.150146  6740 net.cpp:399] norm2 -> norm2
I0320 16:18:09.150617  6740 net.cpp:141] Setting up norm2
I0320 16:18:09.150650  6740 net.cpp:148] Top shape: 260 256 13 13 (11248640)
I0320 16:18:09.150663  6740 net.cpp:156] Memory required for data: 1362556000
I0320 16:18:09.150676  6740 layer_factory.hpp:77] Creating layer conv3
I0320 16:18:09.150701  6740 net.cpp:91] Creating Layer conv3
I0320 16:18:09.150717  6740 net.cpp:425] conv3 <- norm2
I0320 16:18:09.150738  6740 net.cpp:399] conv3 -> conv3
I0320 16:18:09.192239  6740 net.cpp:141] Setting up conv3
I0320 16:18:09.192276  6740 net.cpp:148] Top shape: 260 384 13 13 (16872960)
I0320 16:18:09.192289  6740 net.cpp:156] Memory required for data: 1430047840
I0320 16:18:09.192309  6740 layer_factory.hpp:77] Creating layer relu3
I0320 16:18:09.192324  6740 net.cpp:91] Creating Layer relu3
I0320 16:18:09.192337  6740 net.cpp:425] relu3 <- conv3
I0320 16:18:09.192349  6740 net.cpp:386] relu3 -> conv3 (in-place)
I0320 16:18:09.192708  6740 net.cpp:141] Setting up relu3
I0320 16:18:09.192734  6740 net.cpp:148] Top shape: 260 384 13 13 (16872960)
I0320 16:18:09.192744  6740 net.cpp:156] Memory required for data: 1497539680
I0320 16:18:09.192755  6740 layer_factory.hpp:77] Creating layer conv4
I0320 16:18:09.192778  6740 net.cpp:91] Creating Layer conv4
I0320 16:18:09.192791  6740 net.cpp:425] conv4 <- conv3
I0320 16:18:09.192808  6740 net.cpp:399] conv4 -> conv4
I0320 16:18:09.221052  6740 net.cpp:141] Setting up conv4
I0320 16:18:09.221079  6740 net.cpp:148] Top shape: 260 384 13 13 (16872960)
I0320 16:18:09.221091  6740 net.cpp:156] Memory required for data: 1565031520
I0320 16:18:09.221104  6740 layer_factory.hpp:77] Creating layer relu4
I0320 16:18:09.221141  6740 net.cpp:91] Creating Layer relu4
I0320 16:18:09.221153  6740 net.cpp:425] relu4 <- conv4
I0320 16:18:09.221164  6740 net.cpp:386] relu4 -> conv4 (in-place)
I0320 16:18:09.221377  6740 net.cpp:141] Setting up relu4
I0320 16:18:09.221396  6740 net.cpp:148] Top shape: 260 384 13 13 (16872960)
I0320 16:18:09.221406  6740 net.cpp:156] Memory required for data: 1632523360
I0320 16:18:09.221416  6740 layer_factory.hpp:77] Creating layer conv5
I0320 16:18:09.221434  6740 net.cpp:91] Creating Layer conv5
I0320 16:18:09.221446  6740 net.cpp:425] conv5 <- conv4
I0320 16:18:09.221459  6740 net.cpp:399] conv5 -> conv5
I0320 16:18:09.239521  6740 net.cpp:141] Setting up conv5
I0320 16:18:09.239547  6740 net.cpp:148] Top shape: 260 256 13 13 (11248640)
I0320 16:18:09.239557  6740 net.cpp:156] Memory required for data: 1677517920
I0320 16:18:09.239573  6740 layer_factory.hpp:77] Creating layer relu5
I0320 16:18:09.239586  6740 net.cpp:91] Creating Layer relu5
I0320 16:18:09.239595  6740 net.cpp:425] relu5 <- conv5
I0320 16:18:09.239609  6740 net.cpp:386] relu5 -> conv5 (in-place)
I0320 16:18:09.239800  6740 net.cpp:141] Setting up relu5
I0320 16:18:09.239820  6740 net.cpp:148] Top shape: 260 256 13 13 (11248640)
I0320 16:18:09.239830  6740 net.cpp:156] Memory required for data: 1722512480
I0320 16:18:09.239838  6740 layer_factory.hpp:77] Creating layer pool5
I0320 16:18:09.239856  6740 net.cpp:91] Creating Layer pool5
I0320 16:18:09.239866  6740 net.cpp:425] pool5 <- conv5
I0320 16:18:09.239879  6740 net.cpp:399] pool5 -> pool5
I0320 16:18:09.239933  6740 net.cpp:141] Setting up pool5
I0320 16:18:09.239949  6740 net.cpp:148] Top shape: 260 256 6 6 (2396160)
I0320 16:18:09.239959  6740 net.cpp:156] Memory required for data: 1732097120
I0320 16:18:09.239967  6740 layer_factory.hpp:77] Creating layer fc6
I0320 16:18:09.239987  6740 net.cpp:91] Creating Layer fc6
I0320 16:18:09.239997  6740 net.cpp:425] fc6 <- pool5
I0320 16:18:09.240011  6740 net.cpp:399] fc6 -> fc6
I0320 16:18:10.253924  6740 net.cpp:141] Setting up fc6
I0320 16:18:10.253963  6740 net.cpp:148] Top shape: 260 4096 (1064960)
I0320 16:18:10.253971  6740 net.cpp:156] Memory required for data: 1736356960
I0320 16:18:10.253983  6740 layer_factory.hpp:77] Creating layer relu6
I0320 16:18:10.253996  6740 net.cpp:91] Creating Layer relu6
I0320 16:18:10.254004  6740 net.cpp:425] relu6 <- fc6
I0320 16:18:10.254015  6740 net.cpp:386] relu6 -> fc6 (in-place)
I0320 16:18:10.254361  6740 net.cpp:141] Setting up relu6
I0320 16:18:10.254380  6740 net.cpp:148] Top shape: 260 4096 (1064960)
I0320 16:18:10.254387  6740 net.cpp:156] Memory required for data: 1740616800
I0320 16:18:10.254395  6740 layer_factory.hpp:77] Creating layer drop6
I0320 16:18:10.254405  6740 net.cpp:91] Creating Layer drop6
I0320 16:18:10.254413  6740 net.cpp:425] drop6 <- fc6
I0320 16:18:10.254421  6740 net.cpp:386] drop6 -> fc6 (in-place)
I0320 16:18:10.254453  6740 net.cpp:141] Setting up drop6
I0320 16:18:10.254463  6740 net.cpp:148] Top shape: 260 4096 (1064960)
I0320 16:18:10.254470  6740 net.cpp:156] Memory required for data: 1744876640
I0320 16:18:10.254477  6740 layer_factory.hpp:77] Creating layer fc7
I0320 16:18:10.254493  6740 net.cpp:91] Creating Layer fc7
I0320 16:18:10.254500  6740 net.cpp:425] fc7 <- fc6
I0320 16:18:10.254510  6740 net.cpp:399] fc7 -> fc7
I0320 16:18:10.619846  6740 net.cpp:141] Setting up fc7
I0320 16:18:10.619884  6740 net.cpp:148] Top shape: 260 4096 (1064960)
I0320 16:18:10.619890  6740 net.cpp:156] Memory required for data: 1749136480
I0320 16:18:10.619901  6740 layer_factory.hpp:77] Creating layer relu7
I0320 16:18:10.619913  6740 net.cpp:91] Creating Layer relu7
I0320 16:18:10.619920  6740 net.cpp:425] relu7 <- fc7
I0320 16:18:10.619928  6740 net.cpp:386] relu7 -> fc7 (in-place)
I0320 16:18:10.620108  6740 net.cpp:141] Setting up relu7
I0320 16:18:10.620123  6740 net.cpp:148] Top shape: 260 4096 (1064960)
I0320 16:18:10.620129  6740 net.cpp:156] Memory required for data: 1753396320
I0320 16:18:10.620136  6740 layer_factory.hpp:77] Creating layer drop7
I0320 16:18:10.620167  6740 net.cpp:91] Creating Layer drop7
I0320 16:18:10.620173  6740 net.cpp:425] drop7 <- fc7
I0320 16:18:10.620180  6740 net.cpp:386] drop7 -> fc7 (in-place)
I0320 16:18:10.620208  6740 net.cpp:141] Setting up drop7
I0320 16:18:10.620216  6740 net.cpp:148] Top shape: 260 4096 (1064960)
I0320 16:18:10.620223  6740 net.cpp:156] Memory required for data: 1757656160
I0320 16:18:10.620229  6740 layer_factory.hpp:77] Creating layer fc8_flickr
I0320 16:18:10.620239  6740 net.cpp:91] Creating Layer fc8_flickr
I0320 16:18:10.620245  6740 net.cpp:425] fc8_flickr <- fc7
I0320 16:18:10.620254  6740 net.cpp:399] fc8_flickr -> fc8_flickr
I0320 16:18:10.620857  6740 net.cpp:141] Setting up fc8_flickr
I0320 16:18:10.620869  6740 net.cpp:148] Top shape: 260 6 (1560)
I0320 16:18:10.620875  6740 net.cpp:156] Memory required for data: 1757662400
I0320 16:18:10.620882  6740 layer_factory.hpp:77] Creating layer loss
I0320 16:18:10.620892  6740 net.cpp:91] Creating Layer loss
I0320 16:18:10.620898  6740 net.cpp:425] loss <- fc8_flickr
I0320 16:18:10.620904  6740 net.cpp:425] loss <- label
I0320 16:18:10.620914  6740 net.cpp:399] loss -> loss
I0320 16:18:10.620949  6740 net.cpp:141] Setting up loss
…
I0320 16:18:10.622066  6740 net.cpp:49] Initializing net from parameters: 
name: "GNet"
state {
  phase: TEST
}
layer {
  name: "data"
  type: "ImageData"
  top: "data"
  include {
    phase: TEST
  }
  transform_param {
    mirror: false
    crop_size: 224
    mean_value: 104
    mean_value: 117
    mean_value: 123
  }
  image_data_param {
    source: "/media/hdd3/gnet/data/test.txt"
    batch_size: 10
  }
}
layer {
  name: "label"
  type: "Data"
  top: "label"
  include {
    phase: TEST
  }
  data_param {
    source: "/media/hdd3/gnet/data/test"
    batch_size: 10
    backend: LMDB
  }
}
layer {
  name: "conv1"
  type: "Convolution"
  bottom: "data"
  top: "conv1"
  param {
    lr_mult: 1
    decay_mult: 1
  }
  param {
    lr_mult: 2
    decay_mult: 0
  }
  convolution_param {
    num_output: 96
    kernel_size: 11
    stride: 4
    weight_filler {
      type: "gaussian"
      std: 0.01
    }
    bias_filler {
      type: "constant"
      value: 0
    }
  }
}
layer {
  name: "relu1"
  type: "ReLU"
  bottom: "conv1"
  top: "conv1"
}
layer {
  name: "pool1"
  type: "Pooling"
  bottom: "conv1"
  top: "pool1"
  pooling_param {
    pool: MAX
    kernel_size: 3
    stride: 2
  }
}
layer {
  name: "norm1"
  type: "LRN"
  bottom: "pool1"
  top: "norm1"
  lrn_param {
    local_size: 5
    alpha: 0.0001
    beta: 0.75
  }
}
layer {
  name: "conv2"
  type: "Convolution"
  bottom: "norm1"
  top: "conv2"
  param {
    lr_mult: 1
    decay_mult: 1
  }
  param {
    lr_mult: 2
    decay_mult: 0
  }
  convolution_param {
    num_output: 256
    pad: 2
    kernel_size: 5
    group: 2
    weight_filler {
      type: "gaussian"
      std: 0.01
    }
    bias_filler {
      type: "constant"
      value: 1
    }
  }
}
layer {
  name: "relu2"
  type: "ReLU"
  bottom: "conv2"
  top: "conv2"
}
layer {
  name: "pool2"
  type: "Pooling"
  bottom: "conv2"
  top: "pool2"
  pooling_param {
    pool: MAX
    kernel_size: 3
    stride: 2
  }
}
layer {
  name: "norm2"
  type: "LRN"
  bottom: "pool2"
  top: "norm2"
  lrn_param {
    local_size: 5
    alpha: 0.0001
    beta: 0.75
  }
}
layer {
  name: "conv3"
  type: "Convolution"
  bottom: "norm2"
  top: "conv3"
  param {
    lr_mult: 1
    decay_mult: 1
  }
  param {
    lr_mult: 2
    decay_mult: 0
  }
  convolution_param {
    num_output: 384
    pad: 1
    kernel_size: 3
    weight_filler {
      type: "gaussian"
      std: 0.01
    }
    bias_filler {
      type: "constant"
      value: 0
    }
  }
}
layer {
  name: "relu3"
  type: "ReLU"
  bottom: "conv3"
  top: "conv3"
}
layer {
  name: "conv4"
  type: "Convolution"
  bottom: "conv3"
  top: "conv4"
  param {
    lr_mult: 1
    decay_mult: 1
  }
  param {
    lr_mult: 2
    decay_mult: 0
  }
  convolution_param {
    num_output: 384
    pad: 1
    kernel_size: 3
    group: 2
    weight_filler {
      type: "gaussian"
      std: 0.01
    }
    bias_filler {
      type: "constant"
      value: 1
    }
  }
}
layer {
  name: "relu4"
  type: "ReLU"
  bottom: "conv4"
  top: "conv4"
}
layer {
  name: "conv5"
  type: "Convolution"
  bottom: "conv4"
  top: "conv5"
  param {
    lr_mult: 1
    decay_mult: 1
  }
  param {
    lr_mult: 2
    decay_mult: 0
  }
  convolution_param {
    num_output: 256
    pad: 1
    kernel_size: 3
    group: 2
    weight_filler {
      type: "gaussian"
      std: 0.01
    }
    bias_filler {
      type: "constant"
      value: 1
    }
  }
}
layer {
  name: "relu5"
  type: "ReLU"
  bottom: "conv5"
  top: "conv5"
}
layer {
  name: "pool5"
  type: "Pooling"
  bottom: "conv5"
  top: "pool5"
  pooling_param {
    pool: MAX
    kernel_size: 3
    stride: 2
  }
}
layer {
  name: "fc6"
  type: "InnerProduct"
  bottom: "pool5"
  top: "fc6"
  param {
    lr_mult: 1
    decay_mult: 1
  }
  param {
    lr_mult: 2
    decay_mult: 0
  }
  inner_product_param {
    num_output: 4096
    weight_filler {
      type: "gaussian"
      std: 0.005
    }
    bias_filler {
      type: "constant"
      value: 1
    }
  }
}
layer {
  name: "relu6"
  type: "ReLU"
  bottom: "fc6"
  top: "fc6"
}
layer {
  name: "drop6"
  type: "Dropout"
  bottom: "fc6"
  top: "fc6"
  dropout_param {
    dropout_ratio: 0.5
  }
}
layer {
  name: "fc7"
  type: "InnerProduct"
  bottom: "fc6"
  top: "fc7"
  param {
    lr_mult: 1
    decay_mult: 1
  }
  param {
    lr_mult: 2
    decay_mult: 0
  }
  inner_product_param {
    num_output: 4096
    weight_filler {
      type: "gaussian"
      std: 0.005
    }
    bias_filler {
      type: "constant"
      value: 1
    }
  }
}
layer {
  name: "relu7"
  type: "ReLU"
  bottom: "fc7"
  top: "fc7"
}
layer {
  name: "drop7"
  type: "Dropout"
  bottom: "fc7"
  top: "fc7"
  dropout_param {
    dropout_ratio: 0.5
  }
}
layer {
  name: "fc8_flickr"
  type: "InnerProduct"
  bottom: "fc7"
  top: "fc8_flickr"
  param {
    lr_mult: 10
    decay_mult: 1
  }
  param {
    lr_mult: 20
    decay_mult: 0
  }
  inner_product_param {
    num_output: 6
    weight_filler {
      type: "gaussian"
      std: 0.01
    }
    bias_filler {
      type: "constant"
      value: 0
    }
  }
}
layer {
  name: "loss"
  type: "EuclideanLoss"
  bottom: "fc8_flickr"
  bottom: "label"
  top: "loss"
}
I0320 16:18:10.622761  6740 layer_factory.hpp:77] Creating layer data
I0320 16:18:10.622778  6740 net.cpp:91] Creating Layer data
I0320 16:18:10.622786  6740 net.cpp:399] data -> data
I0320 16:18:10.622797  6740 image_data_layer.cpp:38] Opening file /media/hdd3/gnet/data/test.txt
I0320 16:18:10.663374  6740 image_data_layer.cpp:53] A total of 19520 images.
I0320 16:18:10.665177  6740 image_data_layer.cpp:80] output data size: 10,3,224,224
I0320 16:18:10.676857  6740 net.cpp:141] Setting up data
I0320 16:18:10.676916  6740 net.cpp:148] Top shape: 10 3 224 224 (1505280)
I0320 16:18:10.676934  6740 net.cpp:156] Memory required for data: 6021120
I0320 16:18:10.676951  6740 layer_factory.hpp:77] Creating layer label
I0320 16:18:10.677040  6740 net.cpp:91] Creating Layer label
I0320 16:18:10.677067  6740 net.cpp:399] label -> label
I0320 16:18:10.679314  6749 db_lmdb.cpp:38] Opened lmdb /media/hdd3/gnet/data/test
I0320 16:18:10.679549  6740 data_layer.cpp:41] output data size: 10,1,1,6
I0320 16:18:10.680004  6740 net.cpp:141] Setting up label
I0320 16:18:10.680033  6740 net.cpp:148] Top shape: 10 1 1 6 (60)
I0320 16:18:10.680048  6740 net.cpp:156] Memory required for data: 6021360
I0320 16:18:10.680063  6740 layer_factory.hpp:77] Creating layer conv1
I0320 16:18:10.680094  6740 net.cpp:91] Creating Layer conv1
I0320 16:18:10.680109  6740 net.cpp:425] conv1 <- data
I0320 16:18:10.680130  6740 net.cpp:399] conv1 -> conv1
I0320 16:18:10.683909  6740 net.cpp:141] Setting up conv1
I0320 16:18:10.683949  6740 net.cpp:148] Top shape: 10 96 54 54 (2799360)
I0320 16:18:10.683965  6740 net.cpp:156] Memory required for data: 17218800
I0320 16:18:10.683992  6740 layer_factory.hpp:77] Creating layer relu1
I0320 16:18:10.684012  6740 net.cpp:91] Creating Layer relu1
I0320 16:18:10.684026  6740 net.cpp:425] relu1 <- conv1
I0320 16:18:10.684042  6740 net.cpp:386] relu1 -> conv1 (in-place)
I0320 16:18:10.684497  6740 net.cpp:141] Setting up relu1
I0320 16:18:10.684531  6740 net.cpp:148] Top shape: 10 96 54 54 (2799360)
I0320 16:18:10.684545  6740 net.cpp:156] Memory required for data: 28416240
I0320 16:18:10.684558  6740 layer_factory.hpp:77] Creating layer pool1
I0320 16:18:10.684581  6740 net.cpp:91] Creating Layer pool1
I0320 16:18:10.684597  6740 net.cpp:425] pool1 <- conv1
I0320 16:18:10.684615  6740 net.cpp:399] pool1 -> pool1
I0320 16:18:10.684702  6740 net.cpp:141] Setting up pool1
I0320 16:18:10.684725  6740 net.cpp:148] Top shape: 10 96 27 27 (699840)
I0320 16:18:10.684738  6740 net.cpp:156] Memory required for data: 31215600
I0320 16:18:10.684751  6740 layer_factory.hpp:77] Creating layer norm1
I0320 16:18:10.684772  6740 net.cpp:91] Creating Layer norm1
I0320 16:18:10.684785  6740 net.cpp:425] norm1 <- pool1
I0320 16:18:10.684800  6740 net.cpp:399] norm1 -> norm1
I0320 16:18:10.685138  6740 net.cpp:141] Setting up norm1
I0320 16:18:10.685166  6740 net.cpp:148] Top shape: 10 96 27 27 (699840)
I0320 16:18:10.685180  6740 net.cpp:156] Memory required for data: 34014960
I0320 16:18:10.685212  6740 layer_factory.hpp:77] Creating layer conv2
I0320 16:18:10.685238  6740 net.cpp:91] Creating Layer conv2
I0320 16:18:10.685253  6740 net.cpp:425] conv2 <- norm1
I0320 16:18:10.685273  6740 net.cpp:399] conv2 -> conv2
I0320 16:18:10.704394  6740 net.cpp:141] Setting up conv2
I0320 16:18:10.704453  6740 net.cpp:148] Top shape: 10 256 27 27 (1866240)
I0320 16:18:10.704468  6740 net.cpp:156] Memory required for data: 41479920
I0320 16:18:10.704493  6740 layer_factory.hpp:77] Creating layer relu2
I0320 16:18:10.704512  6740 net.cpp:91] Creating Layer relu2
I0320 16:18:10.704526  6740 net.cpp:425] relu2 <- conv2
I0320 16:18:10.704541  6740 net.cpp:386] relu2 -> conv2 (in-place)
I0320 16:18:10.704830  6740 net.cpp:141] Setting up relu2
I0320 16:18:10.704856  6740 net.cpp:148] Top shape: 10 256 27 27 (1866240)
I0320 16:18:10.704869  6740 net.cpp:156] Memory required for data: 48944880
I0320 16:18:10.704882  6740 layer_factory.hpp:77] Creating layer pool2
I0320 16:18:10.704903  6740 net.cpp:91] Creating Layer pool2
I0320 16:18:10.704916  6740 net.cpp:425] pool2 <- conv2
I0320 16:18:10.704932  6740 net.cpp:399] pool2 -> pool2
I0320 16:18:10.705013  6740 net.cpp:141] Setting up pool2
I0320 16:18:10.705034  6740 net.cpp:148] Top shape: 10 256 13 13 (432640)
I0320 16:18:10.705045  6740 net.cpp:156] Memory required for data: 50675440
I0320 16:18:10.705057  6740 layer_factory.hpp:77] Creating layer norm2
I0320 16:18:10.705073  6740 net.cpp:91] Creating Layer norm2
I0320 16:18:10.705086  6740 net.cpp:425] norm2 <- pool2
I0320 16:18:10.705103  6740 net.cpp:399] norm2 -> norm2
I0320 16:18:10.705585  6740 net.cpp:141] Setting up norm2
I0320 16:18:10.705616  6740 net.cpp:148] Top shape: 10 256 13 13 (432640)
I0320 16:18:10.705629  6740 net.cpp:156] Memory required for data: 52406000
I0320 16:18:10.705642  6740 layer_factory.hpp:77] Creating layer conv3
I0320 16:18:10.705667  6740 net.cpp:91] Creating Layer conv3
I0320 16:18:10.705682  6740 net.cpp:425] conv3 <- norm2
I0320 16:18:10.705700  6740 net.cpp:399] conv3 -> conv3
I0320 16:18:10.748424  6740 net.cpp:141] Setting up conv3
I0320 16:18:10.748456  6740 net.cpp:148] Top shape: 10 384 13 13 (648960)
I0320 16:18:10.748463  6740 net.cpp:156] Memory required for data: 55001840
I0320 16:18:10.748478  6740 layer_factory.hpp:77] Creating layer relu3
I0320 16:18:10.748493  6740 net.cpp:91] Creating Layer relu3
I0320 16:18:10.748502  6740 net.cpp:425] relu3 <- conv3
I0320 16:18:10.748512  6740 net.cpp:386] relu3 -> conv3 (in-place)
I0320 16:18:10.748663  6740 net.cpp:141] Setting up relu3
I0320 16:18:10.748679  6740 net.cpp:148] Top shape: 10 384 13 13 (648960)
I0320 16:18:10.748687  6740 net.cpp:156] Memory required for data: 57597680
I0320 16:18:10.748697  6740 layer_factory.hpp:77] Creating layer conv4
I0320 16:18:10.748713  6740 net.cpp:91] Creating Layer conv4
I0320 16:18:10.748721  6740 net.cpp:425] conv4 <- conv3
I0320 16:18:10.748731  6740 net.cpp:399] conv4 -> conv4
I0320 16:18:10.774451  6740 net.cpp:141] Setting up conv4
I0320 16:18:10.774484  6740 net.cpp:148] Top shape: 10 384 13 13 (648960)
I0320 16:18:10.774495  6740 net.cpp:156] Memory required for data: 60193520
I0320 16:18:10.774510  6740 layer_factory.hpp:77] Creating layer relu4
I0320 16:18:10.774526  6740 net.cpp:91] Creating Layer relu4
I0320 16:18:10.774538  6740 net.cpp:425] relu4 <- conv4
I0320 16:18:10.774549  6740 net.cpp:386] relu4 -> conv4 (in-place)
I0320 16:18:10.774765  6740 net.cpp:141] Setting up relu4
I0320 16:18:10.774785  6740 net.cpp:148] Top shape: 10 384 13 13 (648960)
I0320 16:18:10.774794  6740 net.cpp:156] Memory required for data: 62789360
I0320 16:18:10.774803  6740 layer_factory.hpp:77] Creating layer conv5
I0320 16:18:10.774826  6740 net.cpp:91] Creating Layer conv5
I0320 16:18:10.774865  6740 net.cpp:425] conv5 <- conv4
I0320 16:18:10.774883  6740 net.cpp:399] conv5 -> conv5
I0320 16:18:10.792497  6740 net.cpp:141] Setting up conv5
I0320 16:18:10.792528  6740 net.cpp:148] Top shape: 10 256 13 13 (432640)
I0320 16:18:10.792539  6740 net.cpp:156] Memory required for data: 64519920
I0320 16:18:10.792558  6740 layer_factory.hpp:77] Creating layer relu5
I0320 16:18:10.792574  6740 net.cpp:91] Creating Layer relu5
I0320 16:18:10.792584  6740 net.cpp:425] relu5 <- conv5
I0320 16:18:10.792596  6740 net.cpp:386] relu5 -> conv5 (in-place)
I0320 16:18:10.792973  6740 net.cpp:141] Setting up relu5
I0320 16:18:10.792997  6740 net.cpp:148] Top shape: 10 256 13 13 (432640)
I0320 16:18:10.793009  6740 net.cpp:156] Memory required for data: 66250480
I0320 16:18:10.793018  6740 layer_factory.hpp:77] Creating layer pool5
I0320 16:18:10.793035  6740 net.cpp:91] Creating Layer pool5
I0320 16:18:10.793046  6740 net.cpp:425] pool5 <- conv5
I0320 16:18:10.793058  6740 net.cpp:399] pool5 -> pool5
I0320 16:18:10.793123  6740 net.cpp:141] Setting up pool5
I0320 16:18:10.793138  6740 net.cpp:148] Top shape: 10 256 6 6 (92160)
I0320 16:18:10.793148  6740 net.cpp:156] Memory required for data: 66619120
I0320 16:18:10.793156  6740 layer_factory.hpp:77] Creating layer fc6
I0320 16:18:10.793169  6740 net.cpp:91] Creating Layer fc6
I0320 16:18:10.793179  6740 net.cpp:425] fc6 <- pool5
I0320 16:18:10.793191  6740 net.cpp:399] fc6 -> fc6
I0320 16:18:11.650518  6740 net.cpp:141] Setting up fc6
I0320 16:18:11.650557  6740 net.cpp:148] Top shape: 10 4096 (40960)
I0320 16:18:11.650563  6740 net.cpp:156] Memory required for data: 66782960
I0320 16:18:11.650574  6740 layer_factory.hpp:77] Creating layer relu6
I0320 16:18:11.650586  6740 net.cpp:91] Creating Layer relu6
I0320 16:18:11.650593  6740 net.cpp:425] relu6 <- fc6
I0320 16:18:11.650601  6740 net.cpp:386] relu6 -> fc6 (in-place)
I0320 16:18:11.650779  6740 net.cpp:141] Setting up relu6
I0320 16:18:11.650794  6740 net.cpp:148] Top shape: 10 4096 (40960)
I0320 16:18:11.650800  6740 net.cpp:156] Memory required for data: 66946800
I0320 16:18:11.650806  6740 layer_factory.hpp:77] Creating layer drop6
I0320 16:18:11.650816  6740 net.cpp:91] Creating Layer drop6
I0320 16:18:11.650822  6740 net.cpp:425] drop6 <- fc6
I0320 16:18:11.650830  6740 net.cpp:386] drop6 -> fc6 (in-place)
I0320 16:18:11.650867  6740 net.cpp:141] Setting up drop6
I0320 16:18:11.650877  6740 net.cpp:148] Top shape: 10 4096 (40960)
I0320 16:18:11.650883  6740 net.cpp:156] Memory required for data: 67110640
I0320 16:18:11.650889  6740 layer_factory.hpp:77] Creating layer fc7
I0320 16:18:11.650902  6740 net.cpp:91] Creating Layer fc7
I0320 16:18:11.650908  6740 net.cpp:425] fc7 <- fc6
I0320 16:18:11.650916  6740 net.cpp:399] fc7 -> fc7
I0320 16:18:12.013808  6740 net.cpp:141] Setting up fc7
I0320 16:18:12.013846  6740 net.cpp:148] Top shape: 10 4096 (40960)
I0320 16:18:12.013854  6740 net.cpp:156] Memory required for data: 67274480
I0320 16:18:12.013864  6740 layer_factory.hpp:77] Creating layer relu7
I0320 16:18:12.013876  6740 net.cpp:91] Creating Layer relu7
I0320 16:18:12.013883  6740 net.cpp:425] relu7 <- fc7
I0320 16:18:12.013892  6740 net.cpp:386] relu7 -> fc7 (in-place)
I0320 16:18:12.014232  6740 net.cpp:141] Setting up relu7
I0320 16:18:12.014250  6740 net.cpp:148] Top shape: 10 4096 (40960)
I0320 16:18:12.014256  6740 net.cpp:156] Memory required for data: 67438320
I0320 16:18:12.014261  6740 layer_factory.hpp:77] Creating layer drop7
I0320 16:18:12.014271  6740 net.cpp:91] Creating Layer drop7
I0320 16:18:12.014278  6740 net.cpp:425] drop7 <- fc7
I0320 16:18:12.014288  6740 net.cpp:386] drop7 -> fc7 (in-place)
I0320 16:18:12.014317  6740 net.cpp:141] Setting up drop7
I0320 16:18:12.014327  6740 net.cpp:148] Top shape: 10 4096 (40960)
I0320 16:18:12.014333  6740 net.cpp:156] Memory required for data: 67602160
I0320 16:18:12.014339  6740 layer_factory.hpp:77] Creating layer fc8_flickr
I0320 16:18:12.014350  6740 net.cpp:91] Creating Layer fc8_flickr
I0320 16:18:12.014356  6740 net.cpp:425] fc8_flickr <- fc7
I0320 16:18:12.014366  6740 net.cpp:399] fc8_flickr -> fc8_flickr
I0320 16:18:12.014984  6740 net.cpp:141] Setting up fc8_flickr
I0320 16:18:12.014997  6740 net.cpp:148] Top shape: 10 6 (60)
I0320 16:18:12.015003  6740 net.cpp:156] Memory required for data: 67602400
I0320 16:18:12.015012  6740 layer_factory.hpp:77] Creating layer loss
I0320 16:18:12.015022  6740 net.cpp:91] Creating Layer loss
I0320 16:18:12.015027  6740 net.cpp:425] loss <- fc8_flickr
I0320 16:18:12.015034  6740 net.cpp:425] loss <- label
I0320 16:18:12.015041  6740 net.cpp:399] loss -> loss
I0320 16:18:12.015096  6740 net.cpp:141] Setting up loss
…
