…
I0321 03:06:12.156882  8848 net.cpp:49] Initializing net from parameters: 
name: "GNet"
state {
  phase: TRAIN
}
layer {
  name: "data"
  type: "ImageData"
  top: "data"
  include {
    phase: TRAIN
  }
  transform_param {
    mirror: true
    crop_size: 224
    mean_value: 104
    mean_value: 117
    mean_value: 123
  }
  image_data_param {
    source: "/media/hdd3/gnet/data/train.txt"
    batch_size: 260
  }
}
layer {
  name: "label"
  type: "Data"
  top: "label"
  include {
    phase: TRAIN
  }
  data_param {
    source: "/media/hdd3/gnet/data/train"
    batch_size: 260
    backend: LMDB
  }
}
layer {
  name: "conv1"
  type: "Convolution"
  bottom: "data"
  top: "conv1"
  param {
    lr_mult: 1
    decay_mult: 1
  }
  param {
    lr_mult: 2
    decay_mult: 0
  }
  convolution_param {
    num_output: 96
    kernel_size: 11
    stride: 4
    weight_filler {
      type: "gaussian"
      std: 0.01
    }
    bias_filler {
      type: "constant"
      value: 0
    }
  }
}
layer {
  name: "relu1"
  type: "ReLU"
  bottom: "conv1"
  top: "conv1"
}
layer {
  name: "pool1"
  type: "Pooling"
  bottom: "conv1"
  top: "pool1"
  pooling_param {
    pool: MAX
    kernel_size: 3
    stride: 2
  }
}
layer {
  name: "norm1"
  type: "LRN"
  bottom: "pool1"
  top: "norm1"
  lrn_param {
    local_size: 5
    alpha: 0.0001
    beta: 0.75
  }
}
layer {
  name: "conv2"
  type: "Convolution"
  bottom: "norm1"
  top: "conv2"
  param {
    lr_mult: 1
    decay_mult: 1
  }
  param {
    lr_mult: 2
    decay_mult: 0
  }
  convolution_param {
    num_output: 256
    pad: 2
    kernel_size: 5
    group: 2
    weight_filler {
      type: "gaussian"
      std: 0.01
    }
    bias_filler {
      type: "constant"
      value: 1
    }
  }
}
layer {
  name: "relu2"
  type: "ReLU"
  bottom: "conv2"
  top: "conv2"
}
layer {
  name: "pool2"
  type: "Pooling"
  bottom: "conv2"
  top: "pool2"
  pooling_param {
    pool: MAX
    kernel_size: 3
    stride: 2
  }
}
layer {
  name: "norm2"
  type: "LRN"
  bottom: "pool2"
  top: "norm2"
  lrn_param {
    local_size: 5
    alpha: 0.0001
    beta: 0.75
  }
}
layer {
  name: "conv3"
  type: "Convolution"
  bottom: "norm2"
  top: "conv3"
  param {
    lr_mult: 1
    decay_mult: 1
  }
  param {
    lr_mult: 2
    decay_mult: 0
  }
  convolution_param {
    num_output: 384
    pad: 1
    kernel_size: 3
    weight_filler {
      type: "gaussian"
      std: 0.01
    }
    bias_filler {
      type: "constant"
      value: 0
    }
  }
}
layer {
  name: "relu3"
  type: "ReLU"
  bottom: "conv3"
  top: "conv3"
}
layer {
  name: "conv4"
  type: "Convolution"
  bottom: "conv3"
  top: "conv4"
  param {
    lr_mult: 1
    decay_mult: 1
  }
  param {
    lr_mult: 2
    decay_mult: 0
  }
  convolution_param {
    num_output: 384
    pad: 1
    kernel_size: 3
    group: 2
    weight_filler {
      type: "gaussian"
      std: 0.01
    }
    bias_filler {
      type: "constant"
      value: 1
    }
  }
}
layer {
  name: "relu4"
  type: "ReLU"
  bottom: "conv4"
  top: "conv4"
}
layer {
  name: "conv5"
  type: "Convolution"
  bottom: "conv4"
  top: "conv5"
  param {
    lr_mult: 1
    decay_mult: 1
  }
  param {
    lr_mult: 2
    decay_mult: 0
  }
  convolution_param {
    num_output: 256
    pad: 1
    kernel_size: 3
    group: 2
    weight_filler {
      type: "gaussian"
      std: 0.01
    }
    bias_filler {
      type: "constant"
      value: 1
    }
  }
}
layer {
  name: "relu5"
  type: "ReLU"
  bottom: "conv5"
  top: "conv5"
}
layer {
  name: "pool5"
  type: "Pooling"
  bottom: "conv5"
  top: "pool5"
  pooling_param {
    pool: MAX
    kernel_size: 3
    stride: 2
  }
}
layer {
  name: "fc6"
  type: "InnerProduct"
  bottom: "pool5"
  top: "fc6"
  param {
    lr_mult: 1
    decay_mult: 1
  }
  param {
    lr_mult: 2
    decay_mult: 0
  }
  inner_product_param {
    num_output: 4096
    weight_filler {
      type: "gaussian"
      std: 0.005
    }
    bias_filler {
      type: "constant"
      value: 1
    }
  }
}
layer {
  name: "relu6"
  type: "ReLU"
  bottom: "fc6"
  top: "fc6"
}
layer {
  name: "drop6"
  type: "Dropout"
  bottom: "fc6"
  top: "fc6"
  dropout_param {
    dropout_ratio: 0.5
  }
}
layer {
  name: "fc7"
  type: "InnerProduct"
  bottom: "fc6"
  top: "fc7"
  param {
    lr_mult: 1
    decay_mult: 1
  }
  param {
    lr_mult: 2
    decay_mult: 0
  }
  inner_product_param {
    num_output: 4096
    weight_filler {
      type: "gaussian"
      std: 0.005
    }
    bias_filler {
      type: "constant"
      value: 1
    }
  }
}
layer {
  name: "relu7"
  type: "ReLU"
  bottom: "fc7"
  top: "fc7"
}
layer {
  name: "drop7"
  type: "Dropout"
  bottom: "fc7"
  top: "fc7"
  dropout_param {
    dropout_ratio: 0.5
  }
}
layer {
  name: "fc8_flickr"
  type: "InnerProduct"
  bottom: "fc7"
  top: "fc8_flickr"
  param {
    lr_mult: 10
    decay_mult: 1
  }
  param {
    lr_mult: 20
    decay_mult: 0
  }
  inner_product_param {
    num_output: 6
    weight_filler {
      type: "gaussian"
      std: 0.01
    }
    bias_filler {
      type: "constant"
      value: 0
    }
  }
}
layer {
  name: "loss"
  type: "EuclideanLoss"
  bottom: "fc8_flickr"
  bottom: "label"
  top: "loss"
}
I0321 03:06:12.158402  8848 layer_factory.hpp:77] Creating layer data
I0321 03:06:12.158468  8848 net.cpp:91] Creating Layer data
I0321 03:06:12.158486  8848 net.cpp:399] data -> data
I0321 03:06:12.159034  8848 image_data_layer.cpp:38] Opening file /media/hdd3/gnet/data/train.txt
I0321 03:06:12.261720  8848 image_data_layer.cpp:53] A total of 110288 images.
I0321 03:06:12.275553  8848 image_data_layer.cpp:80] output data size: 260,3,224,224
I0321 03:06:12.500478  8848 net.cpp:141] Setting up data
I0321 03:06:12.500529  8848 net.cpp:148] Top shape: 260 3 224 224 (39137280)
I0321 03:06:12.500538  8848 net.cpp:156] Memory required for data: 156549120
I0321 03:06:12.500551  8848 layer_factory.hpp:77] Creating layer label
I0321 03:06:12.500741  8848 net.cpp:91] Creating Layer label
I0321 03:06:12.500758  8848 net.cpp:399] label -> label
I0321 03:06:12.502853  8854 db_lmdb.cpp:38] Opened lmdb /media/hdd3/gnet/data/train
I0321 03:06:12.503022  8848 data_layer.cpp:41] output data size: 260,1,1,6
I0321 03:06:12.503613  8848 net.cpp:141] Setting up label
I0321 03:06:12.503638  8848 net.cpp:148] Top shape: 260 1 1 6 (1560)
I0321 03:06:12.503646  8848 net.cpp:156] Memory required for data: 156555360
I0321 03:06:12.503655  8848 layer_factory.hpp:77] Creating layer conv1
I0321 03:06:12.503677  8848 net.cpp:91] Creating Layer conv1
I0321 03:06:12.503689  8848 net.cpp:425] conv1 <- data
I0321 03:06:12.503705  8848 net.cpp:399] conv1 -> conv1
I0321 03:06:13.018578  8848 net.cpp:141] Setting up conv1
I0321 03:06:13.018628  8848 net.cpp:148] Top shape: 260 96 54 54 (72783360)
I0321 03:06:13.018642  8848 net.cpp:156] Memory required for data: 447688800
I0321 03:06:13.018671  8848 layer_factory.hpp:77] Creating layer relu1
I0321 03:06:13.018692  8848 net.cpp:91] Creating Layer relu1
I0321 03:06:13.018714  8848 net.cpp:425] relu1 <- conv1
I0321 03:06:13.018730  8848 net.cpp:386] relu1 -> conv1 (in-place)
I0321 03:06:13.018967  8848 net.cpp:141] Setting up relu1
I0321 03:06:13.018990  8848 net.cpp:148] Top shape: 260 96 54 54 (72783360)
I0321 03:06:13.019002  8848 net.cpp:156] Memory required for data: 738822240
I0321 03:06:13.019014  8848 layer_factory.hpp:77] Creating layer pool1
I0321 03:06:13.019032  8848 net.cpp:91] Creating Layer pool1
I0321 03:06:13.019078  8848 net.cpp:425] pool1 <- conv1
I0321 03:06:13.019094  8848 net.cpp:399] pool1 -> pool1
I0321 03:06:13.019175  8848 net.cpp:141] Setting up pool1
I0321 03:06:13.019194  8848 net.cpp:148] Top shape: 260 96 27 27 (18195840)
I0321 03:06:13.019206  8848 net.cpp:156] Memory required for data: 811605600
I0321 03:06:13.019217  8848 layer_factory.hpp:77] Creating layer norm1
I0321 03:06:13.019234  8848 net.cpp:91] Creating Layer norm1
I0321 03:06:13.019246  8848 net.cpp:425] norm1 <- pool1
I0321 03:06:13.019260  8848 net.cpp:399] norm1 -> norm1
I0321 03:06:13.019670  8848 net.cpp:141] Setting up norm1
I0321 03:06:13.019700  8848 net.cpp:148] Top shape: 260 96 27 27 (18195840)
I0321 03:06:13.019711  8848 net.cpp:156] Memory required for data: 884388960
I0321 03:06:13.019724  8848 layer_factory.hpp:77] Creating layer conv2
I0321 03:06:13.019747  8848 net.cpp:91] Creating Layer conv2
I0321 03:06:13.019764  8848 net.cpp:425] conv2 <- norm1
I0321 03:06:13.019779  8848 net.cpp:399] conv2 -> conv2
I0321 03:06:13.034642  8848 net.cpp:141] Setting up conv2
I0321 03:06:13.034682  8848 net.cpp:148] Top shape: 260 256 27 27 (48522240)
I0321 03:06:13.034696  8848 net.cpp:156] Memory required for data: 1078477920
I0321 03:06:13.034718  8848 layer_factory.hpp:77] Creating layer relu2
I0321 03:06:13.034735  8848 net.cpp:91] Creating Layer relu2
I0321 03:06:13.034747  8848 net.cpp:425] relu2 <- conv2
I0321 03:06:13.034760  8848 net.cpp:386] relu2 -> conv2 (in-place)
I0321 03:06:13.034993  8848 net.cpp:141] Setting up relu2
I0321 03:06:13.035015  8848 net.cpp:148] Top shape: 260 256 27 27 (48522240)
I0321 03:06:13.035027  8848 net.cpp:156] Memory required for data: 1272566880
I0321 03:06:13.035039  8848 layer_factory.hpp:77] Creating layer pool2
I0321 03:06:13.035058  8848 net.cpp:91] Creating Layer pool2
I0321 03:06:13.035068  8848 net.cpp:425] pool2 <- conv2
I0321 03:06:13.035081  8848 net.cpp:399] pool2 -> pool2
I0321 03:06:13.035143  8848 net.cpp:141] Setting up pool2
I0321 03:06:13.035161  8848 net.cpp:148] Top shape: 260 256 13 13 (11248640)
I0321 03:06:13.035171  8848 net.cpp:156] Memory required for data: 1317561440
I0321 03:06:13.035181  8848 layer_factory.hpp:77] Creating layer norm2
I0321 03:06:13.035198  8848 net.cpp:91] Creating Layer norm2
I0321 03:06:13.035209  8848 net.cpp:425] norm2 <- pool2
I0321 03:06:13.035223  8848 net.cpp:399] norm2 -> norm2
I0321 03:06:13.035609  8848 net.cpp:141] Setting up norm2
I0321 03:06:13.035636  8848 net.cpp:148] Top shape: 260 256 13 13 (11248640)
I0321 03:06:13.035648  8848 net.cpp:156] Memory required for data: 1362556000
I0321 03:06:13.035660  8848 layer_factory.hpp:77] Creating layer conv3
I0321 03:06:13.035681  8848 net.cpp:91] Creating Layer conv3
I0321 03:06:13.035693  8848 net.cpp:425] conv3 <- norm2
I0321 03:06:13.035708  8848 net.cpp:399] conv3 -> conv3
I0321 03:06:13.070224  8848 net.cpp:141] Setting up conv3
I0321 03:06:13.070266  8848 net.cpp:148] Top shape: 260 384 13 13 (16872960)
I0321 03:06:13.070277  8848 net.cpp:156] Memory required for data: 1430047840
I0321 03:06:13.070298  8848 layer_factory.hpp:77] Creating layer relu3
I0321 03:06:13.070315  8848 net.cpp:91] Creating Layer relu3
I0321 03:06:13.070327  8848 net.cpp:425] relu3 <- conv3
I0321 03:06:13.070343  8848 net.cpp:386] relu3 -> conv3 (in-place)
I0321 03:06:13.070674  8848 net.cpp:141] Setting up relu3
I0321 03:06:13.070699  8848 net.cpp:148] Top shape: 260 384 13 13 (16872960)
I0321 03:06:13.070710  8848 net.cpp:156] Memory required for data: 1497539680
I0321 03:06:13.070721  8848 layer_factory.hpp:77] Creating layer conv4
I0321 03:06:13.070742  8848 net.cpp:91] Creating Layer conv4
I0321 03:06:13.070754  8848 net.cpp:425] conv4 <- conv3
I0321 03:06:13.070768  8848 net.cpp:399] conv4 -> conv4
I0321 03:06:13.095350  8848 net.cpp:141] Setting up conv4
I0321 03:06:13.095386  8848 net.cpp:148] Top shape: 260 384 13 13 (16872960)
I0321 03:06:13.095397  8848 net.cpp:156] Memory required for data: 1565031520
I0321 03:06:13.095412  8848 layer_factory.hpp:77] Creating layer relu4
I0321 03:06:13.095458  8848 net.cpp:91] Creating Layer relu4
I0321 03:06:13.095470  8848 net.cpp:425] relu4 <- conv4
I0321 03:06:13.095486  8848 net.cpp:386] relu4 -> conv4 (in-place)
I0321 03:06:13.095680  8848 net.cpp:141] Setting up relu4
I0321 03:06:13.095700  8848 net.cpp:148] Top shape: 260 384 13 13 (16872960)
I0321 03:06:13.095710  8848 net.cpp:156] Memory required for data: 1632523360
I0321 03:06:13.095720  8848 layer_factory.hpp:77] Creating layer conv5
I0321 03:06:13.095738  8848 net.cpp:91] Creating Layer conv5
I0321 03:06:13.095749  8848 net.cpp:425] conv5 <- conv4
I0321 03:06:13.095762  8848 net.cpp:399] conv5 -> conv5
I0321 03:06:13.112248  8848 net.cpp:141] Setting up conv5
I0321 03:06:13.112279  8848 net.cpp:148] Top shape: 260 256 13 13 (11248640)
I0321 03:06:13.112292  8848 net.cpp:156] Memory required for data: 1677517920
I0321 03:06:13.112311  8848 layer_factory.hpp:77] Creating layer relu5
I0321 03:06:13.112331  8848 net.cpp:91] Creating Layer relu5
I0321 03:06:13.112342  8848 net.cpp:425] relu5 <- conv5
I0321 03:06:13.112354  8848 net.cpp:386] relu5 -> conv5 (in-place)
I0321 03:06:13.112540  8848 net.cpp:141] Setting up relu5
I0321 03:06:13.112560  8848 net.cpp:148] Top shape: 260 256 13 13 (11248640)
I0321 03:06:13.112568  8848 net.cpp:156] Memory required for data: 1722512480
I0321 03:06:13.112578  8848 layer_factory.hpp:77] Creating layer pool5
I0321 03:06:13.112594  8848 net.cpp:91] Creating Layer pool5
I0321 03:06:13.112603  8848 net.cpp:425] pool5 <- conv5
I0321 03:06:13.112614  8848 net.cpp:399] pool5 -> pool5
I0321 03:06:13.112670  8848 net.cpp:141] Setting up pool5
I0321 03:06:13.112686  8848 net.cpp:148] Top shape: 260 256 6 6 (2396160)
I0321 03:06:13.112695  8848 net.cpp:156] Memory required for data: 1732097120
I0321 03:06:13.112704  8848 layer_factory.hpp:77] Creating layer fc6
I0321 03:06:13.112717  8848 net.cpp:91] Creating Layer fc6
I0321 03:06:13.112726  8848 net.cpp:425] fc6 <- pool5
I0321 03:06:13.112738  8848 net.cpp:399] fc6 -> fc6
I0321 03:06:14.127703  8848 net.cpp:141] Setting up fc6
I0321 03:06:14.127735  8848 net.cpp:148] Top shape: 260 4096 (1064960)
I0321 03:06:14.127745  8848 net.cpp:156] Memory required for data: 1736356960
I0321 03:06:14.127758  8848 layer_factory.hpp:77] Creating layer relu6
I0321 03:06:14.127771  8848 net.cpp:91] Creating Layer relu6
I0321 03:06:14.127779  8848 net.cpp:425] relu6 <- fc6
I0321 03:06:14.127789  8848 net.cpp:386] relu6 -> fc6 (in-place)
I0321 03:06:14.128142  8848 net.cpp:141] Setting up relu6
I0321 03:06:14.128162  8848 net.cpp:148] Top shape: 260 4096 (1064960)
I0321 03:06:14.128170  8848 net.cpp:156] Memory required for data: 1740616800
I0321 03:06:14.128177  8848 layer_factory.hpp:77] Creating layer drop6
I0321 03:06:14.128188  8848 net.cpp:91] Creating Layer drop6
I0321 03:06:14.128196  8848 net.cpp:425] drop6 <- fc6
I0321 03:06:14.128204  8848 net.cpp:386] drop6 -> fc6 (in-place)
I0321 03:06:14.128238  8848 net.cpp:141] Setting up drop6
I0321 03:06:14.128253  8848 net.cpp:148] Top shape: 260 4096 (1064960)
I0321 03:06:14.128260  8848 net.cpp:156] Memory required for data: 1744876640
I0321 03:06:14.128268  8848 layer_factory.hpp:77] Creating layer fc7
I0321 03:06:14.128279  8848 net.cpp:91] Creating Layer fc7
I0321 03:06:14.128286  8848 net.cpp:425] fc7 <- fc6
I0321 03:06:14.128295  8848 net.cpp:399] fc7 -> fc7
I0321 03:06:14.497972  8848 net.cpp:141] Setting up fc7
I0321 03:06:14.498008  8848 net.cpp:148] Top shape: 260 4096 (1064960)
I0321 03:06:14.498016  8848 net.cpp:156] Memory required for data: 1749136480
I0321 03:06:14.498028  8848 layer_factory.hpp:77] Creating layer relu7
I0321 03:06:14.498041  8848 net.cpp:91] Creating Layer relu7
I0321 03:06:14.498049  8848 net.cpp:425] relu7 <- fc7
I0321 03:06:14.498059  8848 net.cpp:386] relu7 -> fc7 (in-place)
I0321 03:06:14.498234  8848 net.cpp:141] Setting up relu7
I0321 03:06:14.498247  8848 net.cpp:148] Top shape: 260 4096 (1064960)
I0321 03:06:14.498255  8848 net.cpp:156] Memory required for data: 1753396320
I0321 03:06:14.498260  8848 layer_factory.hpp:77] Creating layer drop7
I0321 03:06:14.498308  8848 net.cpp:91] Creating Layer drop7
I0321 03:06:14.498317  8848 net.cpp:425] drop7 <- fc7
I0321 03:06:14.498327  8848 net.cpp:386] drop7 -> fc7 (in-place)
I0321 03:06:14.498353  8848 net.cpp:141] Setting up drop7
I0321 03:06:14.498365  8848 net.cpp:148] Top shape: 260 4096 (1064960)
I0321 03:06:14.498371  8848 net.cpp:156] Memory required for data: 1757656160
I0321 03:06:14.498378  8848 layer_factory.hpp:77] Creating layer fc8_flickr
I0321 03:06:14.498389  8848 net.cpp:91] Creating Layer fc8_flickr
I0321 03:06:14.498394  8848 net.cpp:425] fc8_flickr <- fc7
I0321 03:06:14.498404  8848 net.cpp:399] fc8_flickr -> fc8_flickr
I0321 03:06:14.499024  8848 net.cpp:141] Setting up fc8_flickr
I0321 03:06:14.499037  8848 net.cpp:148] Top shape: 260 6 (1560)
I0321 03:06:14.499043  8848 net.cpp:156] Memory required for data: 1757662400
I0321 03:06:14.499052  8848 layer_factory.hpp:77] Creating layer loss
I0321 03:06:14.499063  8848 net.cpp:91] Creating Layer loss
I0321 03:06:14.499070  8848 net.cpp:425] loss <- fc8_flickr
I0321 03:06:14.499078  8848 net.cpp:425] loss <- label
I0321 03:06:14.499086  8848 net.cpp:399] loss -> loss
I0321 03:06:14.499121  8848 net.cpp:141] Setting up loss
…
I0321 03:06:14.501102  8848 net.cpp:49] Initializing net from parameters: 
name: "GNet"
state {
  phase: TEST
}
layer {
  name: "data"
  type: "ImageData"
  top: "data"
  include {
    phase: TEST
  }
  transform_param {
    mirror: false
    crop_size: 224
    mean_value: 104
    mean_value: 117
    mean_value: 123
  }
  image_data_param {
    source: "/media/hdd3/gnet/data/test.txt"
    batch_size: 10
  }
}
layer {
  name: "label"
  type: "Data"
  top: "label"
  include {
    phase: TEST
  }
  data_param {
    source: "/media/hdd3/gnet/data/test"
    batch_size: 10
    backend: LMDB
  }
}
layer {
  name: "conv1"
  type: "Convolution"
  bottom: "data"
  top: "conv1"
  param {
    lr_mult: 1
    decay_mult: 1
  }
  param {
    lr_mult: 2
    decay_mult: 0
  }
  convolution_param {
    num_output: 96
    kernel_size: 11
    stride: 4
    weight_filler {
      type: "gaussian"
      std: 0.01
    }
    bias_filler {
      type: "constant"
      value: 0
    }
  }
}
layer {
  name: "relu1"
  type: "ReLU"
  bottom: "conv1"
  top: "conv1"
}
layer {
  name: "pool1"
  type: "Pooling"
  bottom: "conv1"
  top: "pool1"
  pooling_param {
    pool: MAX
    kernel_size: 3
    stride: 2
  }
}
layer {
  name: "norm1"
  type: "LRN"
  bottom: "pool1"
  top: "norm1"
  lrn_param {
    local_size: 5
    alpha: 0.0001
    beta: 0.75
  }
}
layer {
  name: "conv2"
  type: "Convolution"
  bottom: "norm1"
  top: "conv2"
  param {
    lr_mult: 1
    decay_mult: 1
  }
  param {
    lr_mult: 2
    decay_mult: 0
  }
  convolution_param {
    num_output: 256
    pad: 2
    kernel_size: 5
    group: 2
    weight_filler {
      type: "gaussian"
      std: 0.01
    }
    bias_filler {
      type: "constant"
      value: 1
    }
  }
}
layer {
  name: "relu2"
  type: "ReLU"
  bottom: "conv2"
  top: "conv2"
}
layer {
  name: "pool2"
  type: "Pooling"
  bottom: "conv2"
  top: "pool2"
  pooling_param {
    pool: MAX
    kernel_size: 3
    stride: 2
  }
}
layer {
  name: "norm2"
  type: "LRN"
  bottom: "pool2"
  top: "norm2"
  lrn_param {
    local_size: 5
    alpha: 0.0001
    beta: 0.75
  }
}
layer {
  name: "conv3"
  type: "Convolution"
  bottom: "norm2"
  top: "conv3"
  param {
    lr_mult: 1
    decay_mult: 1
  }
  param {
    lr_mult: 2
    decay_mult: 0
  }
  convolution_param {
    num_output: 384
    pad: 1
    kernel_size: 3
    weight_filler {
      type: "gaussian"
      std: 0.01
    }
    bias_filler {
      type: "constant"
      value: 0
    }
  }
}
layer {
  name: "relu3"
  type: "ReLU"
  bottom: "conv3"
  top: "conv3"
}
layer {
  name: "conv4"
  type: "Convolution"
  bottom: "conv3"
  top: "conv4"
  param {
    lr_mult: 1
    decay_mult: 1
  }
  param {
    lr_mult: 2
    decay_mult: 0
  }
  convolution_param {
    num_output: 384
    pad: 1
    kernel_size: 3
    group: 2
    weight_filler {
      type: "gaussian"
      std: 0.01
    }
    bias_filler {
      type: "constant"
      value: 1
    }
  }
}
layer {
  name: "relu4"
  type: "ReLU"
  bottom: "conv4"
  top: "conv4"
}
layer {
  name: "conv5"
  type: "Convolution"
  bottom: "conv4"
  top: "conv5"
  param {
    lr_mult: 1
    decay_mult: 1
  }
  param {
    lr_mult: 2
    decay_mult: 0
  }
  convolution_param {
    num_output: 256
    pad: 1
    kernel_size: 3
    group: 2
    weight_filler {
      type: "gaussian"
      std: 0.01
    }
    bias_filler {
      type: "constant"
      value: 1
    }
  }
}
layer {
  name: "relu5"
  type: "ReLU"
  bottom: "conv5"
  top: "conv5"
}
layer {
  name: "pool5"
  type: "Pooling"
  bottom: "conv5"
  top: "pool5"
  pooling_param {
    pool: MAX
    kernel_size: 3
    stride: 2
  }
}
layer {
  name: "fc6"
  type: "InnerProduct"
  bottom: "pool5"
  top: "fc6"
  param {
    lr_mult: 1
    decay_mult: 1
  }
  param {
    lr_mult: 2
    decay_mult: 0
  }
  inner_product_param {
    num_output: 4096
    weight_filler {
      type: "gaussian"
      std: 0.005
    }
    bias_filler {
      type: "constant"
      value: 1
    }
  }
}
layer {
  name: "relu6"
  type: "ReLU"
  bottom: "fc6"
  top: "fc6"
}
layer {
  name: "drop6"
  type: "Dropout"
  bottom: "fc6"
  top: "fc6"
  dropout_param {
    dropout_ratio: 0.5
  }
}
layer {
  name: "fc7"
  type: "InnerProduct"
  bottom: "fc6"
  top: "fc7"
  param {
    lr_mult: 1
    decay_mult: 1
  }
  param {
    lr_mult: 2
    decay_mult: 0
  }
  inner_product_param {
    num_output: 4096
    weight_filler {
      type: "gaussian"
      std: 0.005
    }
    bias_filler {
      type: "constant"
      value: 1
    }
  }
}
layer {
  name: "relu7"
  type: "ReLU"
  bottom: "fc7"
  top: "fc7"
}
layer {
  name: "drop7"
  type: "Dropout"
  bottom: "fc7"
  top: "fc7"
  dropout_param {
    dropout_ratio: 0.5
  }
}
layer {
  name: "fc8_flickr"
  type: "InnerProduct"
  bottom: "fc7"
  top: "fc8_flickr"
  param {
    lr_mult: 10
    decay_mult: 1
  }
  param {
    lr_mult: 20
    decay_mult: 0
  }
  inner_product_param {
    num_output: 6
    weight_filler {
      type: "gaussian"
      std: 0.01
    }
    bias_filler {
      type: "constant"
      value: 0
    }
  }
}
layer {
  name: "loss"
  type: "EuclideanLoss"
  bottom: "fc8_flickr"
  bottom: "label"
  top: "loss"
}
I0321 03:06:14.501401  8848 layer_factory.hpp:77] Creating layer data
I0321 03:06:14.501428  8848 net.cpp:91] Creating Layer data
I0321 03:06:14.501438  8848 net.cpp:399] data -> data
I0321 03:06:14.501457  8848 image_data_layer.cpp:38] Opening file /media/hdd3/gnet/data/test.txt
I0321 03:06:14.568128  8848 image_data_layer.cpp:53] A total of 19520 images.
I0321 03:06:14.570160  8848 image_data_layer.cpp:80] output data size: 10,3,224,224
I0321 03:06:14.581650  8848 net.cpp:141] Setting up data
I0321 03:06:14.581707  8848 net.cpp:148] Top shape: 10 3 224 224 (1505280)
I0321 03:06:14.581724  8848 net.cpp:156] Memory required for data: 6021120
I0321 03:06:14.581743  8848 layer_factory.hpp:77] Creating layer label
I0321 03:06:14.581833  8848 net.cpp:91] Creating Layer label
I0321 03:06:14.581861  8848 net.cpp:399] label -> label
I0321 03:06:14.584055  8858 db_lmdb.cpp:38] Opened lmdb /media/hdd3/gnet/data/test
I0321 03:06:14.584280  8848 data_layer.cpp:41] output data size: 10,1,1,6
I0321 03:06:14.584569  8848 net.cpp:141] Setting up label
I0321 03:06:14.584600  8848 net.cpp:148] Top shape: 10 1 1 6 (60)
I0321 03:06:14.584615  8848 net.cpp:156] Memory required for data: 6021360
I0321 03:06:14.584631  8848 layer_factory.hpp:77] Creating layer conv1
I0321 03:06:14.584661  8848 net.cpp:91] Creating Layer conv1
I0321 03:06:14.584677  8848 net.cpp:425] conv1 <- data
I0321 03:06:14.584698  8848 net.cpp:399] conv1 -> conv1
I0321 03:06:14.588488  8848 net.cpp:141] Setting up conv1
I0321 03:06:14.588531  8848 net.cpp:148] Top shape: 10 96 54 54 (2799360)
I0321 03:06:14.588551  8848 net.cpp:156] Memory required for data: 17218800
I0321 03:06:14.588578  8848 layer_factory.hpp:77] Creating layer relu1
I0321 03:06:14.588600  8848 net.cpp:91] Creating Layer relu1
I0321 03:06:14.588616  8848 net.cpp:425] relu1 <- conv1
I0321 03:06:14.588634  8848 net.cpp:386] relu1 -> conv1 (in-place)
I0321 03:06:14.589136  8848 net.cpp:141] Setting up relu1
I0321 03:06:14.589172  8848 net.cpp:148] Top shape: 10 96 54 54 (2799360)
I0321 03:06:14.589189  8848 net.cpp:156] Memory required for data: 28416240
I0321 03:06:14.589206  8848 layer_factory.hpp:77] Creating layer pool1
I0321 03:06:14.589232  8848 net.cpp:91] Creating Layer pool1
I0321 03:06:14.589248  8848 net.cpp:425] pool1 <- conv1
I0321 03:06:14.589267  8848 net.cpp:399] pool1 -> pool1
I0321 03:06:14.589378  8848 net.cpp:141] Setting up pool1
I0321 03:06:14.589404  8848 net.cpp:148] Top shape: 10 96 27 27 (699840)
I0321 03:06:14.589421  8848 net.cpp:156] Memory required for data: 31215600
I0321 03:06:14.589434  8848 layer_factory.hpp:77] Creating layer norm1
I0321 03:06:14.589454  8848 net.cpp:91] Creating Layer norm1
I0321 03:06:14.589469  8848 net.cpp:425] norm1 <- pool1
I0321 03:06:14.589489  8848 net.cpp:399] norm1 -> norm1
I0321 03:06:14.589860  8848 net.cpp:141] Setting up norm1
I0321 03:06:14.589890  8848 net.cpp:148] Top shape: 10 96 27 27 (699840)
I0321 03:06:14.589905  8848 net.cpp:156] Memory required for data: 34014960
I0321 03:06:14.589920  8848 layer_factory.hpp:77] Creating layer conv2
I0321 03:06:14.589946  8848 net.cpp:91] Creating Layer conv2
I0321 03:06:14.589961  8848 net.cpp:425] conv2 <- norm1
I0321 03:06:14.589980  8848 net.cpp:399] conv2 -> conv2
I0321 03:06:14.609330  8848 net.cpp:141] Setting up conv2
I0321 03:06:14.609405  8848 net.cpp:148] Top shape: 10 256 27 27 (1866240)
I0321 03:06:14.609422  8848 net.cpp:156] Memory required for data: 41479920
I0321 03:06:14.609447  8848 layer_factory.hpp:77] Creating layer relu2
I0321 03:06:14.609467  8848 net.cpp:91] Creating Layer relu2
I0321 03:06:14.609480  8848 net.cpp:425] relu2 <- conv2
I0321 03:06:14.609500  8848 net.cpp:386] relu2 -> conv2 (in-place)
I0321 03:06:14.609805  8848 net.cpp:141] Setting up relu2
I0321 03:06:14.609834  8848 net.cpp:148] Top shape: 10 256 27 27 (1866240)
I0321 03:06:14.609848  8848 net.cpp:156] Memory required for data: 48944880
I0321 03:06:14.609863  8848 layer_factory.hpp:77] Creating layer pool2
I0321 03:06:14.609882  8848 net.cpp:91] Creating Layer pool2
I0321 03:06:14.609895  8848 net.cpp:425] pool2 <- conv2
I0321 03:06:14.609915  8848 net.cpp:399] pool2 -> pool2
I0321 03:06:14.609997  8848 net.cpp:141] Setting up pool2
I0321 03:06:14.610019  8848 net.cpp:148] Top shape: 10 256 13 13 (432640)
I0321 03:06:14.610033  8848 net.cpp:156] Memory required for data: 50675440
I0321 03:06:14.610046  8848 layer_factory.hpp:77] Creating layer norm2
I0321 03:06:14.610065  8848 net.cpp:91] Creating Layer norm2
I0321 03:06:14.610080  8848 net.cpp:425] norm2 <- pool2
I0321 03:06:14.610096  8848 net.cpp:399] norm2 -> norm2
I0321 03:06:14.610617  8848 net.cpp:141] Setting up norm2
I0321 03:06:14.610651  8848 net.cpp:148] Top shape: 10 256 13 13 (432640)
I0321 03:06:14.610664  8848 net.cpp:156] Memory required for data: 52406000
I0321 03:06:14.610678  8848 layer_factory.hpp:77] Creating layer conv3
I0321 03:06:14.610704  8848 net.cpp:91] Creating Layer conv3
I0321 03:06:14.610719  8848 net.cpp:425] conv3 <- norm2
I0321 03:06:14.610738  8848 net.cpp:399] conv3 -> conv3
I0321 03:06:14.653748  8848 net.cpp:141] Setting up conv3
I0321 03:06:14.653795  8848 net.cpp:148] Top shape: 10 384 13 13 (648960)
I0321 03:06:14.653808  8848 net.cpp:156] Memory required for data: 55001840
I0321 03:06:14.653832  8848 layer_factory.hpp:77] Creating layer relu3
I0321 03:06:14.653852  8848 net.cpp:91] Creating Layer relu3
I0321 03:06:14.653866  8848 net.cpp:425] relu3 <- conv3
I0321 03:06:14.653882  8848 net.cpp:386] relu3 -> conv3 (in-place)
I0321 03:06:14.654132  8848 net.cpp:141] Setting up relu3
I0321 03:06:14.654157  8848 net.cpp:148] Top shape: 10 384 13 13 (648960)
I0321 03:06:14.654170  8848 net.cpp:156] Memory required for data: 57597680
I0321 03:06:14.654181  8848 layer_factory.hpp:77] Creating layer conv4
I0321 03:06:14.654203  8848 net.cpp:91] Creating Layer conv4
I0321 03:06:14.654217  8848 net.cpp:425] conv4 <- conv3
I0321 03:06:14.654232  8848 net.cpp:399] conv4 -> conv4
I0321 03:06:14.683693  8848 net.cpp:141] Setting up conv4
I0321 03:06:14.683730  8848 net.cpp:148] Top shape: 10 384 13 13 (648960)
I0321 03:06:14.683743  8848 net.cpp:156] Memory required for data: 60193520
I0321 03:06:14.683759  8848 layer_factory.hpp:77] Creating layer relu4
I0321 03:06:14.683778  8848 net.cpp:91] Creating Layer relu4
I0321 03:06:14.683789  8848 net.cpp:425] relu4 <- conv4
I0321 03:06:14.683804  8848 net.cpp:386] relu4 -> conv4 (in-place)
I0321 03:06:14.684049  8848 net.cpp:141] Setting up relu4
I0321 03:06:14.684073  8848 net.cpp:148] Top shape: 10 384 13 13 (648960)
I0321 03:06:14.684085  8848 net.cpp:156] Memory required for data: 62789360
I0321 03:06:14.684097  8848 layer_factory.hpp:77] Creating layer conv5
I0321 03:06:14.684118  8848 net.cpp:91] Creating Layer conv5
I0321 03:06:14.684129  8848 net.cpp:425] conv5 <- conv4
I0321 03:06:14.684144  8848 net.cpp:399] conv5 -> conv5
I0321 03:06:14.702787  8848 net.cpp:141] Setting up conv5
I0321 03:06:14.702818  8848 net.cpp:148] Top shape: 10 256 13 13 (432640)
I0321 03:06:14.702831  8848 net.cpp:156] Memory required for data: 64519920
I0321 03:06:14.702849  8848 layer_factory.hpp:77] Creating layer relu5
I0321 03:06:14.702867  8848 net.cpp:91] Creating Layer relu5
I0321 03:06:14.702877  8848 net.cpp:425] relu5 <- conv5
I0321 03:06:14.702889  8848 net.cpp:386] relu5 -> conv5 (in-place)
I0321 03:06:14.703284  8848 net.cpp:141] Setting up relu5
I0321 03:06:14.703313  8848 net.cpp:148] Top shape: 10 256 13 13 (432640)
I0321 03:06:14.703325  8848 net.cpp:156] Memory required for data: 66250480
I0321 03:06:14.703336  8848 layer_factory.hpp:77] Creating layer pool5
I0321 03:06:14.703353  8848 net.cpp:91] Creating Layer pool5
I0321 03:06:14.703363  8848 net.cpp:425] pool5 <- conv5
I0321 03:06:14.703377  8848 net.cpp:399] pool5 -> pool5
I0321 03:06:14.703446  8848 net.cpp:141] Setting up pool5
I0321 03:06:14.703464  8848 net.cpp:148] Top shape: 10 256 6 6 (92160)
I0321 03:06:14.703474  8848 net.cpp:156] Memory required for data: 66619120
I0321 03:06:14.703485  8848 layer_factory.hpp:77] Creating layer fc6
I0321 03:06:14.703501  8848 net.cpp:91] Creating Layer fc6
I0321 03:06:14.703512  8848 net.cpp:425] fc6 <- pool5
I0321 03:06:14.703526  8848 net.cpp:399] fc6 -> fc6
I0321 03:06:15.706697  8848 net.cpp:141] Setting up fc6
I0321 03:06:15.706728  8848 net.cpp:148] Top shape: 10 4096 (40960)
I0321 03:06:15.706737  8848 net.cpp:156] Memory required for data: 66782960
I0321 03:06:15.706748  8848 layer_factory.hpp:77] Creating layer relu6
I0321 03:06:15.706759  8848 net.cpp:91] Creating Layer relu6
I0321 03:06:15.706768  8848 net.cpp:425] relu6 <- fc6
I0321 03:06:15.706778  8848 net.cpp:386] relu6 -> fc6 (in-place)
I0321 03:06:15.706954  8848 net.cpp:141] Setting up relu6
I0321 03:06:15.706969  8848 net.cpp:148] Top shape: 10 4096 (40960)
I0321 03:06:15.706975  8848 net.cpp:156] Memory required for data: 66946800
I0321 03:06:15.706982  8848 layer_factory.hpp:77] Creating layer drop6
I0321 03:06:15.706992  8848 net.cpp:91] Creating Layer drop6
I0321 03:06:15.706998  8848 net.cpp:425] drop6 <- fc6
I0321 03:06:15.707005  8848 net.cpp:386] drop6 -> fc6 (in-place)
I0321 03:06:15.707036  8848 net.cpp:141] Setting up drop6
I0321 03:06:15.707049  8848 net.cpp:148] Top shape: 10 4096 (40960)
I0321 03:06:15.707056  8848 net.cpp:156] Memory required for data: 67110640
I0321 03:06:15.707062  8848 layer_factory.hpp:77] Creating layer fc7
I0321 03:06:15.707072  8848 net.cpp:91] Creating Layer fc7
I0321 03:06:15.707078  8848 net.cpp:425] fc7 <- fc6
I0321 03:06:15.707087  8848 net.cpp:399] fc7 -> fc7
I0321 03:06:16.071204  8848 net.cpp:141] Setting up fc7
I0321 03:06:16.071238  8848 net.cpp:148] Top shape: 10 4096 (40960)
I0321 03:06:16.071245  8848 net.cpp:156] Memory required for data: 67274480
I0321 03:06:16.071257  8848 layer_factory.hpp:77] Creating layer relu7
I0321 03:06:16.071270  8848 net.cpp:91] Creating Layer relu7
I0321 03:06:16.071279  8848 net.cpp:425] relu7 <- fc7
I0321 03:06:16.071287  8848 net.cpp:386] relu7 -> fc7 (in-place)
I0321 03:06:16.071632  8848 net.cpp:141] Setting up relu7
I0321 03:06:16.071650  8848 net.cpp:148] Top shape: 10 4096 (40960)
I0321 03:06:16.071656  8848 net.cpp:156] Memory required for data: 67438320
I0321 03:06:16.071663  8848 layer_factory.hpp:77] Creating layer drop7
I0321 03:06:16.071676  8848 net.cpp:91] Creating Layer drop7
I0321 03:06:16.071682  8848 net.cpp:425] drop7 <- fc7
I0321 03:06:16.071689  8848 net.cpp:386] drop7 -> fc7 (in-place)
I0321 03:06:16.071722  8848 net.cpp:141] Setting up drop7
I0321 03:06:16.071732  8848 net.cpp:148] Top shape: 10 4096 (40960)
I0321 03:06:16.071738  8848 net.cpp:156] Memory required for data: 67602160
I0321 03:06:16.071743  8848 layer_factory.hpp:77] Creating layer fc8_flickr
I0321 03:06:16.071753  8848 net.cpp:91] Creating Layer fc8_flickr
I0321 03:06:16.071759  8848 net.cpp:425] fc8_flickr <- fc7
I0321 03:06:16.071769  8848 net.cpp:399] fc8_flickr -> fc8_flickr
I0321 03:06:16.072391  8848 net.cpp:141] Setting up fc8_flickr
I0321 03:06:16.072402  8848 net.cpp:148] Top shape: 10 6 (60)
I0321 03:06:16.072408  8848 net.cpp:156] Memory required for data: 67602400
I0321 03:06:16.072417  8848 layer_factory.hpp:77] Creating layer loss
I0321 03:06:16.072427  8848 net.cpp:91] Creating Layer loss
I0321 03:06:16.072434  8848 net.cpp:425] loss <- fc8_flickr
I0321 03:06:16.072441  8848 net.cpp:425] loss <- label
I0321 03:06:16.072449  8848 net.cpp:399] loss -> loss
I0321 03:06:16.072510  8848 net.cpp:141] Setting up loss
…
