…
I0320 04:31:13.625367  4127 net.cpp:49] Initializing net from parameters: 
name: "GNet"
state {
  phase: TRAIN
}
layer {
  name: "data"
  type: "ImageData"
  top: "data"
  include {
    phase: TRAIN
  }
  transform_param {
    mirror: true
    crop_size: 224
    mean_value: 104
    mean_value: 117
    mean_value: 123
  }
  image_data_param {
    source: "/media/hdd3/gnet/data/train.txt"
    batch_size: 130
  }
}
layer {
  name: "label"
  type: "Data"
  top: "label"
  include {
    phase: TRAIN
  }
  data_param {
    source: "/media/hdd3/gnet/data/train"
    batch_size: 130
    backend: LMDB
  }
}
layer {
  name: "conv1"
  type: "Convolution"
  bottom: "data"
  top: "conv1"
  param {
    lr_mult: 1
    decay_mult: 1
  }
  param {
    lr_mult: 2
    decay_mult: 0
  }
  convolution_param {
    num_output: 96
    kernel_size: 11
    stride: 4
    weight_filler {
      type: "gaussian"
      std: 0.01
    }
    bias_filler {
      type: "constant"
      value: 0
    }
  }
}
layer {
  name: "relu1"
  type: "ReLU"
  bottom: "conv1"
  top: "conv1"
}
layer {
  name: "pool1"
  type: "Pooling"
  bottom: "conv1"
  top: "pool1"
  pooling_param {
    pool: MAX
    kernel_size: 3
    stride: 2
  }
}
layer {
  name: "norm1"
  type: "LRN"
  bottom: "pool1"
  top: "norm1"
  lrn_param {
    local_size: 5
    alpha: 0.0001
    beta: 0.75
  }
}
layer {
  name: "conv2"
  type: "Convolution"
  bottom: "norm1"
  top: "conv2"
  param {
    lr_mult: 1
    decay_mult: 1
  }
  param {
    lr_mult: 2
    decay_mult: 0
  }
  convolution_param {
    num_output: 256
    pad: 2
    kernel_size: 5
    group: 2
    weight_filler {
      type: "gaussian"
      std: 0.01
    }
    bias_filler {
      type: "constant"
      value: 1
    }
  }
}
layer {
  name: "relu2"
  type: "ReLU"
  bottom: "conv2"
  top: "conv2"
}
layer {
  name: "pool2"
  type: "Pooling"
  bottom: "conv2"
  top: "pool2"
  pooling_param {
    pool: MAX
    kernel_size: 3
    stride: 2
  }
}
layer {
  name: "norm2"
  type: "LRN"
  bottom: "pool2"
  top: "norm2"
  lrn_param {
    local_size: 5
    alpha: 0.0001
    beta: 0.75
  }
}
layer {
  name: "conv3"
  type: "Convolution"
  bottom: "norm2"
  top: "conv3"
  param {
    lr_mult: 1
    decay_mult: 1
  }
  param {
    lr_mult: 2
    decay_mult: 0
  }
  convolution_param {
    num_output: 384
    pad: 1
    kernel_size: 3
    weight_filler {
      type: "gaussian"
      std: 0.01
    }
    bias_filler {
      type: "constant"
      value: 0
    }
  }
}
layer {
  name: "relu3"
  type: "ReLU"
  bottom: "conv3"
  top: "conv3"
}
layer {
  name: "conv4"
  type: "Convolution"
  bottom: "conv3"
  top: "conv4"
  param {
    lr_mult: 1
    decay_mult: 1
  }
  param {
    lr_mult: 2
    decay_mult: 0
  }
  convolution_param {
    num_output: 384
    pad: 1
    kernel_size: 3
    group: 2
    weight_filler {
      type: "gaussian"
      std: 0.01
    }
    bias_filler {
      type: "constant"
      value: 1
    }
  }
}
layer {
  name: "relu4"
  type: "ReLU"
  bottom: "conv4"
  top: "conv4"
}
layer {
  name: "conv5"
  type: "Convolution"
  bottom: "conv4"
  top: "conv5"
  param {
    lr_mult: 1
    decay_mult: 1
  }
  param {
    lr_mult: 2
    decay_mult: 0
  }
  convolution_param {
    num_output: 256
    pad: 1
    kernel_size: 3
    group: 2
    weight_filler {
      type: "gaussian"
      std: 0.01
    }
    bias_filler {
      type: "constant"
      value: 1
    }
  }
}
layer {
  name: "relu5"
  type: "ReLU"
  bottom: "conv5"
  top: "conv5"
}
layer {
  name: "pool5"
  type: "Pooling"
  bottom: "conv5"
  top: "pool5"
  pooling_param {
    pool: MAX
    kernel_size: 3
    stride: 2
  }
}
layer {
  name: "fc6"
  type: "InnerProduct"
  bottom: "pool5"
  top: "fc6"
  param {
    lr_mult: 1
    decay_mult: 1
  }
  param {
    lr_mult: 2
    decay_mult: 0
  }
  inner_product_param {
    num_output: 4096
    weight_filler {
      type: "gaussian"
      std: 0.005
    }
    bias_filler {
      type: "constant"
      value: 1
    }
  }
}
layer {
  name: "relu6"
  type: "ReLU"
  bottom: "fc6"
  top: "fc6"
}
layer {
  name: "drop6"
  type: "Dropout"
  bottom: "fc6"
  top: "fc6"
  dropout_param {
    dropout_ratio: 0.5
  }
}
layer {
  name: "fc7"
  type: "InnerProduct"
  bottom: "fc6"
  top: "fc7"
  param {
    lr_mult: 1
    decay_mult: 1
  }
  param {
    lr_mult: 2
    decay_mult: 0
  }
  inner_product_param {
    num_output: 4096
    weight_filler {
      type: "gaussian"
      std: 0.005
    }
    bias_filler {
      type: "constant"
      value: 1
    }
  }
}
layer {
  name: "relu7"
  type: "ReLU"
  bottom: "fc7"
  top: "fc7"
}
layer {
  name: "drop7"
  type: "Dropout"
  bottom: "fc7"
  top: "fc7"
  dropout_param {
    dropout_ratio: 0.5
  }
}
layer {
  name: "fc8_flickr"
  type: "InnerProduct"
  bottom: "fc7"
  top: "fc8_flickr"
  param {
    lr_mult: 10
    decay_mult: 1
  }
  param {
    lr_mult: 20
    decay_mult: 0
  }
  inner_product_param {
    num_output: 6
    weight_filler {
      type: "gaussian"
      std: 0.01
    }
    bias_filler {
      type: "constant"
      value: 0
    }
  }
}
layer {
  name: "loss"
  type: "EuclideanLoss"
  bottom: "fc8_flickr"
  bottom: "label"
  top: "loss"
}
I0320 04:31:13.626644  4127 layer_factory.hpp:77] Creating layer data
I0320 04:31:13.626698  4127 net.cpp:91] Creating Layer data
I0320 04:31:13.626716  4127 net.cpp:399] data -> data
I0320 04:31:13.627218  4127 image_data_layer.cpp:38] Opening file /media/hdd3/gnet/data/train.txt
I0320 04:31:13.694365  4127 image_data_layer.cpp:53] A total of 110288 images.
I0320 04:31:13.704711  4127 image_data_layer.cpp:80] output data size: 130,3,224,224
I0320 04:31:13.813951  4127 net.cpp:141] Setting up data
I0320 04:31:13.814004  4127 net.cpp:148] Top shape: 130 3 224 224 (19568640)
I0320 04:31:13.814016  4127 net.cpp:156] Memory required for data: 78274560
I0320 04:31:13.814029  4127 layer_factory.hpp:77] Creating layer label
I0320 04:31:13.814169  4127 net.cpp:91] Creating Layer label
I0320 04:31:13.814187  4127 net.cpp:399] label -> label
I0320 04:31:13.815687  4133 db_lmdb.cpp:38] Opened lmdb /media/hdd3/gnet/data/train
I0320 04:31:13.815855  4127 data_layer.cpp:41] output data size: 130,1,1,6
I0320 04:31:13.822501  4127 net.cpp:141] Setting up label
I0320 04:31:13.822530  4127 net.cpp:148] Top shape: 130 1 1 6 (780)
I0320 04:31:13.822540  4127 net.cpp:156] Memory required for data: 78277680
I0320 04:31:13.822551  4127 layer_factory.hpp:77] Creating layer conv1
I0320 04:31:13.822581  4127 net.cpp:91] Creating Layer conv1
I0320 04:31:13.822594  4127 net.cpp:425] conv1 <- data
I0320 04:31:13.822613  4127 net.cpp:399] conv1 -> conv1
I0320 04:31:13.975545  4127 net.cpp:141] Setting up conv1
I0320 04:31:13.975589  4127 net.cpp:148] Top shape: 130 96 54 54 (36391680)
I0320 04:31:13.975600  4127 net.cpp:156] Memory required for data: 223844400
I0320 04:31:13.975622  4127 layer_factory.hpp:77] Creating layer relu1
I0320 04:31:13.975641  4127 net.cpp:91] Creating Layer relu1
I0320 04:31:13.975651  4127 net.cpp:425] relu1 <- conv1
I0320 04:31:13.975663  4127 net.cpp:386] relu1 -> conv1 (in-place)
I0320 04:31:13.975837  4127 net.cpp:141] Setting up relu1
I0320 04:31:13.975857  4127 net.cpp:148] Top shape: 130 96 54 54 (36391680)
I0320 04:31:13.975867  4127 net.cpp:156] Memory required for data: 369411120
I0320 04:31:13.975877  4127 layer_factory.hpp:77] Creating layer pool1
I0320 04:31:13.975893  4127 net.cpp:91] Creating Layer pool1
I0320 04:31:13.975919  4127 net.cpp:425] pool1 <- conv1
I0320 04:31:13.975931  4127 net.cpp:399] pool1 -> pool1
I0320 04:31:13.975991  4127 net.cpp:141] Setting up pool1
I0320 04:31:13.976009  4127 net.cpp:148] Top shape: 130 96 27 27 (9097920)
I0320 04:31:13.976018  4127 net.cpp:156] Memory required for data: 405802800
I0320 04:31:13.976027  4127 layer_factory.hpp:77] Creating layer norm1
I0320 04:31:13.976042  4127 net.cpp:91] Creating Layer norm1
I0320 04:31:13.976052  4127 net.cpp:425] norm1 <- pool1
I0320 04:31:13.976061  4127 net.cpp:399] norm1 -> norm1
I0320 04:31:13.976359  4127 net.cpp:141] Setting up norm1
I0320 04:31:13.976380  4127 net.cpp:148] Top shape: 130 96 27 27 (9097920)
I0320 04:31:13.976390  4127 net.cpp:156] Memory required for data: 442194480
I0320 04:31:13.976400  4127 layer_factory.hpp:77] Creating layer conv2
I0320 04:31:13.976419  4127 net.cpp:91] Creating Layer conv2
I0320 04:31:13.976430  4127 net.cpp:425] conv2 <- norm1
I0320 04:31:13.976444  4127 net.cpp:399] conv2 -> conv2
I0320 04:31:13.987383  4127 net.cpp:141] Setting up conv2
I0320 04:31:13.987411  4127 net.cpp:148] Top shape: 130 256 27 27 (24261120)
I0320 04:31:13.987421  4127 net.cpp:156] Memory required for data: 539238960
I0320 04:31:13.987437  4127 layer_factory.hpp:77] Creating layer relu2
I0320 04:31:13.987452  4127 net.cpp:91] Creating Layer relu2
I0320 04:31:13.987462  4127 net.cpp:425] relu2 <- conv2
I0320 04:31:13.987473  4127 net.cpp:386] relu2 -> conv2 (in-place)
I0320 04:31:13.987627  4127 net.cpp:141] Setting up relu2
I0320 04:31:13.987643  4127 net.cpp:148] Top shape: 130 256 27 27 (24261120)
I0320 04:31:13.987653  4127 net.cpp:156] Memory required for data: 636283440
I0320 04:31:13.987661  4127 layer_factory.hpp:77] Creating layer pool2
I0320 04:31:13.987675  4127 net.cpp:91] Creating Layer pool2
I0320 04:31:13.987685  4127 net.cpp:425] pool2 <- conv2
I0320 04:31:13.987696  4127 net.cpp:399] pool2 -> pool2
I0320 04:31:13.987740  4127 net.cpp:141] Setting up pool2
I0320 04:31:13.987753  4127 net.cpp:148] Top shape: 130 256 13 13 (5624320)
I0320 04:31:13.987761  4127 net.cpp:156] Memory required for data: 658780720
I0320 04:31:13.987771  4127 layer_factory.hpp:77] Creating layer norm2
I0320 04:31:13.987783  4127 net.cpp:91] Creating Layer norm2
I0320 04:31:13.987792  4127 net.cpp:425] norm2 <- pool2
I0320 04:31:13.987802  4127 net.cpp:399] norm2 -> norm2
I0320 04:31:13.988092  4127 net.cpp:141] Setting up norm2
I0320 04:31:13.988111  4127 net.cpp:148] Top shape: 130 256 13 13 (5624320)
I0320 04:31:13.988121  4127 net.cpp:156] Memory required for data: 681278000
I0320 04:31:13.988129  4127 layer_factory.hpp:77] Creating layer conv3
I0320 04:31:13.988145  4127 net.cpp:91] Creating Layer conv3
I0320 04:31:13.988155  4127 net.cpp:425] conv3 <- norm2
I0320 04:31:13.988168  4127 net.cpp:399] conv3 -> conv3
I0320 04:31:14.016227  4127 net.cpp:141] Setting up conv3
I0320 04:31:14.016264  4127 net.cpp:148] Top shape: 130 384 13 13 (8436480)
I0320 04:31:14.016274  4127 net.cpp:156] Memory required for data: 715023920
I0320 04:31:14.016293  4127 layer_factory.hpp:77] Creating layer relu3
I0320 04:31:14.016307  4127 net.cpp:91] Creating Layer relu3
I0320 04:31:14.016317  4127 net.cpp:425] relu3 <- conv3
I0320 04:31:14.016330  4127 net.cpp:386] relu3 -> conv3 (in-place)
I0320 04:31:14.016577  4127 net.cpp:141] Setting up relu3
I0320 04:31:14.016595  4127 net.cpp:148] Top shape: 130 384 13 13 (8436480)
I0320 04:31:14.016604  4127 net.cpp:156] Memory required for data: 748769840
I0320 04:31:14.016613  4127 layer_factory.hpp:77] Creating layer conv4
I0320 04:31:14.016628  4127 net.cpp:91] Creating Layer conv4
I0320 04:31:14.016638  4127 net.cpp:425] conv4 <- conv3
I0320 04:31:14.016649  4127 net.cpp:399] conv4 -> conv4
I0320 04:31:14.037592  4127 net.cpp:141] Setting up conv4
I0320 04:31:14.037631  4127 net.cpp:148] Top shape: 130 384 13 13 (8436480)
I0320 04:31:14.037641  4127 net.cpp:156] Memory required for data: 782515760
I0320 04:31:14.037654  4127 layer_factory.hpp:77] Creating layer relu4
I0320 04:31:14.037690  4127 net.cpp:91] Creating Layer relu4
I0320 04:31:14.037701  4127 net.cpp:425] relu4 <- conv4
I0320 04:31:14.037713  4127 net.cpp:386] relu4 -> conv4 (in-place)
I0320 04:31:14.037859  4127 net.cpp:141] Setting up relu4
I0320 04:31:14.037874  4127 net.cpp:148] Top shape: 130 384 13 13 (8436480)
I0320 04:31:14.037883  4127 net.cpp:156] Memory required for data: 816261680
I0320 04:31:14.037889  4127 layer_factory.hpp:77] Creating layer conv5
I0320 04:31:14.037905  4127 net.cpp:91] Creating Layer conv5
I0320 04:31:14.037914  4127 net.cpp:425] conv5 <- conv4
I0320 04:31:14.037925  4127 net.cpp:399] conv5 -> conv5
I0320 04:31:14.052813  4127 net.cpp:141] Setting up conv5
I0320 04:31:14.052850  4127 net.cpp:148] Top shape: 130 256 13 13 (5624320)
I0320 04:31:14.052860  4127 net.cpp:156] Memory required for data: 838758960
I0320 04:31:14.052880  4127 layer_factory.hpp:77] Creating layer relu5
I0320 04:31:14.052897  4127 net.cpp:91] Creating Layer relu5
I0320 04:31:14.052907  4127 net.cpp:425] relu5 <- conv5
I0320 04:31:14.052919  4127 net.cpp:386] relu5 -> conv5 (in-place)
I0320 04:31:14.053066  4127 net.cpp:141] Setting up relu5
I0320 04:31:14.053083  4127 net.cpp:148] Top shape: 130 256 13 13 (5624320)
I0320 04:31:14.053092  4127 net.cpp:156] Memory required for data: 861256240
I0320 04:31:14.053102  4127 layer_factory.hpp:77] Creating layer pool5
I0320 04:31:14.053115  4127 net.cpp:91] Creating Layer pool5
I0320 04:31:14.053124  4127 net.cpp:425] pool5 <- conv5
I0320 04:31:14.053134  4127 net.cpp:399] pool5 -> pool5
I0320 04:31:14.053179  4127 net.cpp:141] Setting up pool5
I0320 04:31:14.053192  4127 net.cpp:148] Top shape: 130 256 6 6 (1198080)
I0320 04:31:14.053200  4127 net.cpp:156] Memory required for data: 866048560
I0320 04:31:14.053208  4127 layer_factory.hpp:77] Creating layer fc6
I0320 04:31:14.053221  4127 net.cpp:91] Creating Layer fc6
I0320 04:31:14.053231  4127 net.cpp:425] fc6 <- pool5
I0320 04:31:14.053241  4127 net.cpp:399] fc6 -> fc6
I0320 04:31:15.183254  4127 net.cpp:141] Setting up fc6
I0320 04:31:15.183298  4127 net.cpp:148] Top shape: 130 4096 (532480)
I0320 04:31:15.183308  4127 net.cpp:156] Memory required for data: 868178480
I0320 04:31:15.183321  4127 layer_factory.hpp:77] Creating layer relu6
I0320 04:31:15.183336  4127 net.cpp:91] Creating Layer relu6
I0320 04:31:15.183346  4127 net.cpp:425] relu6 <- fc6
I0320 04:31:15.183357  4127 net.cpp:386] relu6 -> fc6 (in-place)
I0320 04:31:15.183712  4127 net.cpp:141] Setting up relu6
I0320 04:31:15.183732  4127 net.cpp:148] Top shape: 130 4096 (532480)
I0320 04:31:15.183739  4127 net.cpp:156] Memory required for data: 870308400
I0320 04:31:15.183748  4127 layer_factory.hpp:77] Creating layer drop6
I0320 04:31:15.183765  4127 net.cpp:91] Creating Layer drop6
I0320 04:31:15.183773  4127 net.cpp:425] drop6 <- fc6
I0320 04:31:15.183782  4127 net.cpp:386] drop6 -> fc6 (in-place)
I0320 04:31:15.183815  4127 net.cpp:141] Setting up drop6
I0320 04:31:15.183825  4127 net.cpp:148] Top shape: 130 4096 (532480)
I0320 04:31:15.183832  4127 net.cpp:156] Memory required for data: 872438320
I0320 04:31:15.183840  4127 layer_factory.hpp:77] Creating layer fc7
I0320 04:31:15.183851  4127 net.cpp:91] Creating Layer fc7
I0320 04:31:15.183859  4127 net.cpp:425] fc7 <- fc6
I0320 04:31:15.183868  4127 net.cpp:399] fc7 -> fc7
I0320 04:31:15.577569  4127 net.cpp:141] Setting up fc7
I0320 04:31:15.577608  4127 net.cpp:148] Top shape: 130 4096 (532480)
I0320 04:31:15.577616  4127 net.cpp:156] Memory required for data: 874568240
I0320 04:31:15.577627  4127 layer_factory.hpp:77] Creating layer relu7
I0320 04:31:15.577641  4127 net.cpp:91] Creating Layer relu7
I0320 04:31:15.577648  4127 net.cpp:425] relu7 <- fc7
I0320 04:31:15.577657  4127 net.cpp:386] relu7 -> fc7 (in-place)
I0320 04:31:15.577823  4127 net.cpp:141] Setting up relu7
I0320 04:31:15.577836  4127 net.cpp:148] Top shape: 130 4096 (532480)
I0320 04:31:15.577842  4127 net.cpp:156] Memory required for data: 876698160
I0320 04:31:15.577848  4127 layer_factory.hpp:77] Creating layer drop7
I0320 04:31:15.577857  4127 net.cpp:91] Creating Layer drop7
I0320 04:31:15.577886  4127 net.cpp:425] drop7 <- fc7
I0320 04:31:15.577895  4127 net.cpp:386] drop7 -> fc7 (in-place)
I0320 04:31:15.577921  4127 net.cpp:141] Setting up drop7
I0320 04:31:15.577930  4127 net.cpp:148] Top shape: 130 4096 (532480)
I0320 04:31:15.577937  4127 net.cpp:156] Memory required for data: 878828080
I0320 04:31:15.577944  4127 layer_factory.hpp:77] Creating layer fc8_flickr
I0320 04:31:15.577953  4127 net.cpp:91] Creating Layer fc8_flickr
I0320 04:31:15.577960  4127 net.cpp:425] fc8_flickr <- fc7
I0320 04:31:15.577967  4127 net.cpp:399] fc8_flickr -> fc8_flickr
I0320 04:31:15.578560  4127 net.cpp:141] Setting up fc8_flickr
I0320 04:31:15.578572  4127 net.cpp:148] Top shape: 130 6 (780)
I0320 04:31:15.578578  4127 net.cpp:156] Memory required for data: 878831200
I0320 04:31:15.578586  4127 layer_factory.hpp:77] Creating layer loss
I0320 04:31:15.578603  4127 net.cpp:91] Creating Layer loss
I0320 04:31:15.578610  4127 net.cpp:425] loss <- fc8_flickr
I0320 04:31:15.578618  4127 net.cpp:425] loss <- label
I0320 04:31:15.578626  4127 net.cpp:399] loss -> loss
I0320 04:31:15.578656  4127 net.cpp:141] Setting up loss
…
I0320 04:31:15.579862  4127 net.cpp:49] Initializing net from parameters: 
name: "GNet"
state {
  phase: TEST
}
layer {
  name: "data"
  type: "ImageData"
  top: "data"
  include {
    phase: TEST
  }
  transform_param {
    mirror: false
    crop_size: 224
    mean_value: 104
    mean_value: 117
    mean_value: 123
  }
  image_data_param {
    source: "/media/hdd3/gnet/data/test.txt"
    batch_size: 50
  }
}
layer {
  name: "label"
  type: "Data"
  top: "label"
  include {
    phase: TEST
  }
  data_param {
    source: "/media/hdd3/gnet/data/test"
    batch_size: 50
    backend: LMDB
  }
}
layer {
  name: "conv1"
  type: "Convolution"
  bottom: "data"
  top: "conv1"
  param {
    lr_mult: 1
    decay_mult: 1
  }
  param {
    lr_mult: 2
    decay_mult: 0
  }
  convolution_param {
    num_output: 96
    kernel_size: 11
    stride: 4
    weight_filler {
      type: "gaussian"
      std: 0.01
    }
    bias_filler {
      type: "constant"
      value: 0
    }
  }
}
layer {
  name: "relu1"
  type: "ReLU"
  bottom: "conv1"
  top: "conv1"
}
layer {
  name: "pool1"
  type: "Pooling"
  bottom: "conv1"
  top: "pool1"
  pooling_param {
    pool: MAX
    kernel_size: 3
    stride: 2
  }
}
layer {
  name: "norm1"
  type: "LRN"
  bottom: "pool1"
  top: "norm1"
  lrn_param {
    local_size: 5
    alpha: 0.0001
    beta: 0.75
  }
}
layer {
  name: "conv2"
  type: "Convolution"
  bottom: "norm1"
  top: "conv2"
  param {
    lr_mult: 1
    decay_mult: 1
  }
  param {
    lr_mult: 2
    decay_mult: 0
  }
  convolution_param {
    num_output: 256
    pad: 2
    kernel_size: 5
    group: 2
    weight_filler {
      type: "gaussian"
      std: 0.01
    }
    bias_filler {
      type: "constant"
      value: 1
    }
  }
}
layer {
  name: "relu2"
  type: "ReLU"
  bottom: "conv2"
  top: "conv2"
}
layer {
  name: "pool2"
  type: "Pooling"
  bottom: "conv2"
  top: "pool2"
  pooling_param {
    pool: MAX
    kernel_size: 3
    stride: 2
  }
}
layer {
  name: "norm2"
  type: "LRN"
  bottom: "pool2"
  top: "norm2"
  lrn_param {
    local_size: 5
    alpha: 0.0001
    beta: 0.75
  }
}
layer {
  name: "conv3"
  type: "Convolution"
  bottom: "norm2"
  top: "conv3"
  param {
    lr_mult: 1
    decay_mult: 1
  }
  param {
    lr_mult: 2
    decay_mult: 0
  }
  convolution_param {
    num_output: 384
    pad: 1
    kernel_size: 3
    weight_filler {
      type: "gaussian"
      std: 0.01
    }
    bias_filler {
      type: "constant"
      value: 0
    }
  }
}
layer {
  name: "relu3"
  type: "ReLU"
  bottom: "conv3"
  top: "conv3"
}
layer {
  name: "conv4"
  type: "Convolution"
  bottom: "conv3"
  top: "conv4"
  param {
    lr_mult: 1
    decay_mult: 1
  }
  param {
    lr_mult: 2
    decay_mult: 0
  }
  convolution_param {
    num_output: 384
    pad: 1
    kernel_size: 3
    group: 2
    weight_filler {
      type: "gaussian"
      std: 0.01
    }
    bias_filler {
      type: "constant"
      value: 1
    }
  }
}
layer {
  name: "relu4"
  type: "ReLU"
  bottom: "conv4"
  top: "conv4"
}
layer {
  name: "conv5"
  type: "Convolution"
  bottom: "conv4"
  top: "conv5"
  param {
    lr_mult: 1
    decay_mult: 1
  }
  param {
    lr_mult: 2
    decay_mult: 0
  }
  convolution_param {
    num_output: 256
    pad: 1
    kernel_size: 3
    group: 2
    weight_filler {
      type: "gaussian"
      std: 0.01
    }
    bias_filler {
      type: "constant"
      value: 1
    }
  }
}
layer {
  name: "relu5"
  type: "ReLU"
  bottom: "conv5"
  top: "conv5"
}
layer {
  name: "pool5"
  type: "Pooling"
  bottom: "conv5"
  top: "pool5"
  pooling_param {
    pool: MAX
    kernel_size: 3
    stride: 2
  }
}
layer {
  name: "fc6"
  type: "InnerProduct"
  bottom: "pool5"
  top: "fc6"
  param {
    lr_mult: 1
    decay_mult: 1
  }
  param {
    lr_mult: 2
    decay_mult: 0
  }
  inner_product_param {
    num_output: 4096
    weight_filler {
      type: "gaussian"
      std: 0.005
    }
    bias_filler {
      type: "constant"
      value: 1
    }
  }
}
layer {
  name: "relu6"
  type: "ReLU"
  bottom: "fc6"
  top: "fc6"
}
layer {
  name: "drop6"
  type: "Dropout"
  bottom: "fc6"
  top: "fc6"
  dropout_param {
    dropout_ratio: 0.5
  }
}
layer {
  name: "fc7"
  type: "InnerProduct"
  bottom: "fc6"
  top: "fc7"
  param {
    lr_mult: 1
    decay_mult: 1
  }
  param {
    lr_mult: 2
    decay_mult: 0
  }
  inner_product_param {
    num_output: 4096
    weight_filler {
      type: "gaussian"
      std: 0.005
    }
    bias_filler {
      type: "constant"
      value: 1
    }
  }
}
layer {
  name: "relu7"
  type: "ReLU"
  bottom: "fc7"
  top: "fc7"
}
layer {
  name: "drop7"
  type: "Dropout"
  bottom: "fc7"
  top: "fc7"
  dropout_param {
    dropout_ratio: 0.5
  }
}
layer {
  name: "fc8_flickr"
  type: "InnerProduct"
  bottom: "fc7"
  top: "fc8_flickr"
  param {
    lr_mult: 10
    decay_mult: 1
  }
  param {
    lr_mult: 20
    decay_mult: 0
  }
  inner_product_param {
    num_output: 6
    weight_filler {
      type: "gaussian"
      std: 0.01
    }
    bias_filler {
      type: "constant"
      value: 0
    }
  }
}
layer {
  name: "loss"
  type: "EuclideanLoss"
  bottom: "fc8_flickr"
  bottom: "label"
  top: "loss"
}
I0320 04:31:15.580569  4127 layer_factory.hpp:77] Creating layer data
I0320 04:31:15.580587  4127 net.cpp:91] Creating Layer data
I0320 04:31:15.580595  4127 net.cpp:399] data -> data
I0320 04:31:15.580607  4127 image_data_layer.cpp:38] Opening file /media/hdd3/gnet/data/test.txt
I0320 04:31:15.587201  4127 image_data_layer.cpp:53] A total of 19520 images.
I0320 04:31:15.685459  4127 image_data_layer.cpp:80] output data size: 50,3,224,224
I0320 04:31:15.746639  4127 net.cpp:141] Setting up data
I0320 04:31:15.746701  4127 net.cpp:148] Top shape: 50 3 224 224 (7526400)
I0320 04:31:15.746719  4127 net.cpp:156] Memory required for data: 30105600
I0320 04:31:15.746737  4127 layer_factory.hpp:77] Creating layer label
I0320 04:31:15.746881  4127 net.cpp:91] Creating Layer label
I0320 04:31:15.746911  4127 net.cpp:399] label -> label
I0320 04:31:15.749132  4137 db_lmdb.cpp:38] Opened lmdb /media/hdd3/gnet/data/test
I0320 04:31:15.749333  4127 data_layer.cpp:41] output data size: 50,1,1,6
I0320 04:31:15.749553  4127 net.cpp:141] Setting up label
I0320 04:31:15.749585  4127 net.cpp:148] Top shape: 50 1 1 6 (300)
I0320 04:31:15.749598  4127 net.cpp:156] Memory required for data: 30106800
I0320 04:31:15.749613  4127 layer_factory.hpp:77] Creating layer conv1
I0320 04:31:15.749641  4127 net.cpp:91] Creating Layer conv1
I0320 04:31:15.749662  4127 net.cpp:425] conv1 <- data
I0320 04:31:15.749681  4127 net.cpp:399] conv1 -> conv1
I0320 04:31:15.754552  4127 net.cpp:141] Setting up conv1
I0320 04:31:15.754600  4127 net.cpp:148] Top shape: 50 96 54 54 (13996800)
I0320 04:31:15.754652  4127 net.cpp:156] Memory required for data: 86094000
I0320 04:31:15.754681  4127 layer_factory.hpp:77] Creating layer relu1
I0320 04:31:15.754705  4127 net.cpp:91] Creating Layer relu1
I0320 04:31:15.754729  4127 net.cpp:425] relu1 <- conv1
I0320 04:31:15.754777  4127 net.cpp:386] relu1 -> conv1 (in-place)
I0320 04:31:15.755272  4127 net.cpp:141] Setting up relu1
I0320 04:31:15.755318  4127 net.cpp:148] Top shape: 50 96 54 54 (13996800)
I0320 04:31:15.755333  4127 net.cpp:156] Memory required for data: 142081200
I0320 04:31:15.755347  4127 layer_factory.hpp:77] Creating layer pool1
I0320 04:31:15.755372  4127 net.cpp:91] Creating Layer pool1
I0320 04:31:15.755386  4127 net.cpp:425] pool1 <- conv1
I0320 04:31:15.755405  4127 net.cpp:399] pool1 -> pool1
I0320 04:31:15.755508  4127 net.cpp:141] Setting up pool1
I0320 04:31:15.755539  4127 net.cpp:148] Top shape: 50 96 27 27 (3499200)
I0320 04:31:15.755553  4127 net.cpp:156] Memory required for data: 156078000
I0320 04:31:15.755576  4127 layer_factory.hpp:77] Creating layer norm1
I0320 04:31:15.755597  4127 net.cpp:91] Creating Layer norm1
I0320 04:31:15.755620  4127 net.cpp:425] norm1 <- pool1
I0320 04:31:15.755636  4127 net.cpp:399] norm1 -> norm1
I0320 04:31:15.755959  4127 net.cpp:141] Setting up norm1
I0320 04:31:15.755990  4127 net.cpp:148] Top shape: 50 96 27 27 (3499200)
I0320 04:31:15.756006  4127 net.cpp:156] Memory required for data: 170074800
I0320 04:31:15.756017  4127 layer_factory.hpp:77] Creating layer conv2
I0320 04:31:15.756044  4127 net.cpp:91] Creating Layer conv2
I0320 04:31:15.756060  4127 net.cpp:425] conv2 <- norm1
I0320 04:31:15.756084  4127 net.cpp:399] conv2 -> conv2
I0320 04:31:15.773982  4127 net.cpp:141] Setting up conv2
I0320 04:31:17.555029  4127 net.cpp:148] Top shape: 50 256 27 27 (9331200)
I0320 04:31:17.555055  4127 net.cpp:156] Memory required for data: 207399600
I0320 04:31:17.555093  4127 layer_factory.hpp:77] Creating layer relu2
I0320 04:31:17.555114  4127 net.cpp:91] Creating Layer relu2
I0320 04:31:17.555125  4127 net.cpp:425] relu2 <- conv2
I0320 04:31:17.555140  4127 net.cpp:386] relu2 -> conv2 (in-place)
I0320 04:31:17.555644  4127 net.cpp:141] Setting up relu2
I0320 04:31:17.555667  4127 net.cpp:148] Top shape: 50 256 27 27 (9331200)
I0320 04:31:17.555677  4127 net.cpp:156] Memory required for data: 244724400
I0320 04:31:17.555688  4127 layer_factory.hpp:77] Creating layer pool2
I0320 04:31:17.555711  4127 net.cpp:91] Creating Layer pool2
I0320 04:31:17.555721  4127 net.cpp:425] pool2 <- conv2
I0320 04:31:17.555735  4127 net.cpp:399] pool2 -> pool2
I0320 04:31:17.555858  4127 net.cpp:141] Setting up pool2
I0320 04:31:17.555873  4127 net.cpp:148] Top shape: 50 256 13 13 (2163200)
I0320 04:31:17.555883  4127 net.cpp:156] Memory required for data: 253377200
I0320 04:31:17.555893  4127 layer_factory.hpp:77] Creating layer norm2
I0320 04:31:17.555910  4127 net.cpp:91] Creating Layer norm2
I0320 04:31:17.555919  4127 net.cpp:425] norm2 <- pool2
I0320 04:31:17.555935  4127 net.cpp:399] norm2 -> norm2
I0320 04:31:17.556629  4127 net.cpp:141] Setting up norm2
I0320 04:31:17.556656  4127 net.cpp:148] Top shape: 50 256 13 13 (2163200)
I0320 04:31:17.556666  4127 net.cpp:156] Memory required for data: 262030000
I0320 04:31:17.556677  4127 layer_factory.hpp:77] Creating layer conv3
I0320 04:31:17.556705  4127 net.cpp:91] Creating Layer conv3
I0320 04:31:17.556716  4127 net.cpp:425] conv3 <- norm2
I0320 04:31:17.556735  4127 net.cpp:399] conv3 -> conv3
I0320 04:31:17.612905  4127 net.cpp:141] Setting up conv3
I0320 04:31:17.612962  4127 net.cpp:148] Top shape: 50 384 13 13 (3244800)
I0320 04:31:17.612978  4127 net.cpp:156] Memory required for data: 275009200
I0320 04:31:17.613003  4127 layer_factory.hpp:77] Creating layer relu3
I0320 04:31:17.613028  4127 net.cpp:91] Creating Layer relu3
I0320 04:31:17.613042  4127 net.cpp:425] relu3 <- conv3
I0320 04:31:17.613059  4127 net.cpp:386] relu3 -> conv3 (in-place)
I0320 04:31:17.613337  4127 net.cpp:141] Setting up relu3
I0320 04:31:17.613363  4127 net.cpp:148] Top shape: 50 384 13 13 (3244800)
I0320 04:31:17.613375  4127 net.cpp:156] Memory required for data: 287988400
I0320 04:31:17.613387  4127 layer_factory.hpp:77] Creating layer conv4
I0320 04:31:17.613412  4127 net.cpp:91] Creating Layer conv4
I0320 04:31:17.613427  4127 net.cpp:425] conv4 <- conv3
I0320 04:31:17.613447  4127 net.cpp:399] conv4 -> conv4
I0320 04:31:17.648272  4127 net.cpp:141] Setting up conv4
I0320 04:31:17.648324  4127 net.cpp:148] Top shape: 50 384 13 13 (3244800)
I0320 04:31:17.648336  4127 net.cpp:156] Memory required for data: 300967600
I0320 04:31:17.648353  4127 layer_factory.hpp:77] Creating layer relu4
I0320 04:31:17.648375  4127 net.cpp:91] Creating Layer relu4
I0320 04:31:17.648388  4127 net.cpp:425] relu4 <- conv4
I0320 04:31:17.648402  4127 net.cpp:386] relu4 -> conv4 (in-place)
I0320 04:31:17.648654  4127 net.cpp:141] Setting up relu4
I0320 04:31:17.648674  4127 net.cpp:148] Top shape: 50 384 13 13 (3244800)
I0320 04:31:17.648685  4127 net.cpp:156] Memory required for data: 313946800
I0320 04:31:17.648695  4127 layer_factory.hpp:77] Creating layer conv5
I0320 04:31:17.648720  4127 net.cpp:91] Creating Layer conv5
I0320 04:31:17.648733  4127 net.cpp:425] conv5 <- conv4
I0320 04:31:17.648751  4127 net.cpp:399] conv5 -> conv5
I0320 04:31:17.670078  4127 net.cpp:141] Setting up conv5
I0320 04:31:17.670130  4127 net.cpp:148] Top shape: 50 256 13 13 (2163200)
I0320 04:31:17.670142  4127 net.cpp:156] Memory required for data: 322599600
I0320 04:31:17.670166  4127 layer_factory.hpp:77] Creating layer relu5
I0320 04:31:17.670186  4127 net.cpp:91] Creating Layer relu5
I0320 04:31:17.670198  4127 net.cpp:425] relu5 <- conv5
I0320 04:31:17.670212  4127 net.cpp:386] relu5 -> conv5 (in-place)
I0320 04:31:17.670584  4127 net.cpp:141] Setting up relu5
I0320 04:31:17.670632  4127 net.cpp:148] Top shape: 50 256 13 13 (2163200)
I0320 04:31:17.670644  4127 net.cpp:156] Memory required for data: 331252400
I0320 04:31:17.670656  4127 layer_factory.hpp:77] Creating layer pool5
I0320 04:31:17.670676  4127 net.cpp:91] Creating Layer pool5
I0320 04:31:17.670687  4127 net.cpp:425] pool5 <- conv5
I0320 04:31:17.670702  4127 net.cpp:399] pool5 -> pool5
I0320 04:31:17.670773  4127 net.cpp:141] Setting up pool5
I0320 04:31:17.670791  4127 net.cpp:148] Top shape: 50 256 6 6 (460800)
I0320 04:31:17.670802  4127 net.cpp:156] Memory required for data: 333095600
I0320 04:31:17.670811  4127 layer_factory.hpp:77] Creating layer fc6
I0320 04:31:17.670827  4127 net.cpp:91] Creating Layer fc6
I0320 04:31:17.670838  4127 net.cpp:425] fc6 <- pool5
I0320 04:31:17.670867  4127 net.cpp:399] fc6 -> fc6
I0320 04:31:18.687160  4127 net.cpp:141] Setting up fc6
I0320 04:31:18.687197  4127 net.cpp:148] Top shape: 50 4096 (204800)
I0320 04:31:18.687204  4127 net.cpp:156] Memory required for data: 333914800
I0320 04:31:18.687216  4127 layer_factory.hpp:77] Creating layer relu6
I0320 04:31:18.687230  4127 net.cpp:91] Creating Layer relu6
I0320 04:31:18.687238  4127 net.cpp:425] relu6 <- fc6
I0320 04:31:18.687247  4127 net.cpp:386] relu6 -> fc6 (in-place)
I0320 04:31:18.687433  4127 net.cpp:141] Setting up relu6
I0320 04:31:18.687446  4127 net.cpp:148] Top shape: 50 4096 (204800)
I0320 04:31:18.687453  4127 net.cpp:156] Memory required for data: 334734000
I0320 04:31:18.687459  4127 layer_factory.hpp:77] Creating layer drop6
I0320 04:31:18.687469  4127 net.cpp:91] Creating Layer drop6
I0320 04:31:18.687474  4127 net.cpp:425] drop6 <- fc6
I0320 04:31:18.687484  4127 net.cpp:386] drop6 -> fc6 (in-place)
I0320 04:31:18.687512  4127 net.cpp:141] Setting up drop6
I0320 04:31:18.687522  4127 net.cpp:148] Top shape: 50 4096 (204800)
I0320 04:31:18.687528  4127 net.cpp:156] Memory required for data: 335553200
I0320 04:31:18.687535  4127 layer_factory.hpp:77] Creating layer fc7
I0320 04:31:18.687546  4127 net.cpp:91] Creating Layer fc7
I0320 04:31:18.687552  4127 net.cpp:425] fc7 <- fc6
I0320 04:31:18.687561  4127 net.cpp:399] fc7 -> fc7
I0320 04:31:19.060598  4127 net.cpp:141] Setting up fc7
I0320 04:31:19.060634  4127 net.cpp:148] Top shape: 50 4096 (204800)
I0320 04:31:19.060642  4127 net.cpp:156] Memory required for data: 336372400
I0320 04:31:19.060653  4127 layer_factory.hpp:77] Creating layer relu7
I0320 04:31:19.060667  4127 net.cpp:91] Creating Layer relu7
I0320 04:31:19.060673  4127 net.cpp:425] relu7 <- fc7
I0320 04:31:19.060683  4127 net.cpp:386] relu7 -> fc7 (in-place)
I0320 04:31:19.061025  4127 net.cpp:141] Setting up relu7
I0320 04:31:19.061043  4127 net.cpp:148] Top shape: 50 4096 (204800)
I0320 04:31:19.061049  4127 net.cpp:156] Memory required for data: 337191600
I0320 04:31:19.061055  4127 layer_factory.hpp:77] Creating layer drop7
I0320 04:31:19.061065  4127 net.cpp:91] Creating Layer drop7
I0320 04:31:19.061071  4127 net.cpp:425] drop7 <- fc7
I0320 04:31:19.061081  4127 net.cpp:386] drop7 -> fc7 (in-place)
I0320 04:31:19.061111  4127 net.cpp:141] Setting up drop7
I0320 04:31:19.061121  4127 net.cpp:148] Top shape: 50 4096 (204800)
I0320 04:31:19.061131  4127 net.cpp:156] Memory required for data: 338010800
I0320 04:31:19.061136  4127 layer_factory.hpp:77] Creating layer fc8_flickr
I0320 04:31:19.061146  4127 net.cpp:91] Creating Layer fc8_flickr
I0320 04:31:19.061153  4127 net.cpp:425] fc8_flickr <- fc7
I0320 04:31:19.061161  4127 net.cpp:399] fc8_flickr -> fc8_flickr
I0320 04:31:19.061786  4127 net.cpp:141] Setting up fc8_flickr
I0320 04:31:19.061799  4127 net.cpp:148] Top shape: 50 6 (300)
I0320 04:31:19.061805  4127 net.cpp:156] Memory required for data: 338012000
I0320 04:31:19.061813  4127 layer_factory.hpp:77] Creating layer loss
I0320 04:31:19.061823  4127 net.cpp:91] Creating Layer loss
I0320 04:31:19.061830  4127 net.cpp:425] loss <- fc8_flickr
I0320 04:31:19.061837  4127 net.cpp:425] loss <- label
I0320 04:31:19.061846  4127 net.cpp:399] loss -> loss
I0320 04:31:19.061893  4127 net.cpp:141] Setting up loss
…
